src/willse_backgammon/AI_Agents/Saved_NNs/01-0000-0001.pt (torch, 55748 bytes, 10 tensors)

weight f4 [64, 29]
00000000: 9f5c 383e 6c93 ad3d b25f 27be ccaf 20bd
00000010: 2b15 c9bd bace 8cbc 128a abbb 289e 283e
00000020: 5b91 df3d c4e4 343d 5ed4 82bd cc83 58bd
00000030: 1352 143e 47e5 283e 55d1 373b ca76 f63d
00000040: c50e 98bd 271b 953c 3748 07bd a3b0 8e3d
00000050: a488 c03d fe70 94bd 1115 f73d 82b1 3cbe
00000060: 3984 ad3c 3d03 59bd 5caf 30be d323 d1bd
00000070: bdd8 eabd 0411 9abd 695d 26be 326e 463c
00000080: 0bd5 1fbd 7df6 2ebe 76e7 cd3a 4d1e 1d3e
00000090: 95ae 153e b517 f7bd 06d2 32be 484b a1bd
000000a0: 1e36 503d b71b 073d b2d4 c1bd e46d 13be
000000b0: 374d fe3d 9178 d63d c116 ca3d 189f 31bd
000000c0: 4d95 0fbd 2590 c7bd 040d 833d ed50 cabd
000000d0: de55 a63d 1f26 fdbd a759 ac3d c2e2 7bbd
000000e0: 6109 7ebc 6561 fa3b dcd2 35be 7fcf 38bc
000000f0: 5e3c e93d c466 60bd 7467 07be 7cf6 253e
00000100: 8888 eabc cba0 c63d 81f1 a5bc 27c3 3b3d
00000110: f4e3 b03c eed6 a23c 8650 e1bc 9c85 39bd
00000120: ffb4 373e 63f6 c13c ee01 213d ea59 a23d
00000130: 0605 6c3c e4e9 1dbc cae1 1b3e a300 92bc
00000140: 3a4b 7f3d 3191 27be 7067 a53c 46c3 76bd
00000150: c34d 2d3c a56a 24bc 5a0a d13d 3f5b a63d
00000160: 2906 e2bd 49f2 1e3e 7adc 24be 5b9c 083d
00000170: 9e2c ddbd 7ef1 d43b 2386 0abe 62d0 2e3e
00000180: 0b63 0f3e cee3 e63d 50b5 aebd bff6 88bc
00000190: f71a 7fbc 292e 7f3c f1fd 313e dff6 00be
000001a0: 2880 82bd 7d39 03bd f865 a93d f3a8 173e
000001b0: b9fc 0b3e baba d73d 764b 613d 3c0b 81bd
000001c0: 10c6 753d eeac 323e 4dff 61bd 40c1 233e
000001d0: 0f49 233e 4ff1 75bd 43e5 383e ba85 1e3e
000001e0: 9a8a 113e c9dd 30bd bc87 0a3e 2cd4 5c3d
000001f0: aad5 94ba 939e d7bd 5e1f 0cbc 1f4c 2f3e
00000200: 1d4b d1bd a94c ac3c 6776 c7bc 8004 40bc
00000210: c914 99bd 7145 28bd a5b5 97bd 4fb9 12bd
00000220: f1ef 143e a894 8c3d 6e2e e53c ab6e 7cbc
00000230: f6fd 55bc 60f3 643b fad1 c9bd 9440 ad3d
00000240: f839 abbd 4f18 dc3d 786c 29bd da0a c3bc
00000250: e4a7 333c fc71 2d3e c4c7 c5bd 77e9 243d
00000260: 75be 0e3e 33bd c43c 9b67 0bbe c0ec 3dbd
00000270: 72c5 e7bd 31b0 20be 6567 8abd d8f4 41bc
00000280: ea79 af3d 7a11 b8bd fcf8 fabc 8083 0cbe
00000290: 8b55 fbbc 4af4 1fbe 1390 a4bd 38c7 623d
000002a0: 41ea ddbd 98e4 cd3d ab2c 6f3c 7fc0 d33d
000002b0: b775 8cbd 9f8c 053e 8e02 a9bc 4ac2 ad3d
000002c0: 28ad 67bd 1202 ae3d c0b8 e83d 7c10 91bd
000002d0: 47aa 36be 808c 423d ef7e 34be 6183 e43d
000002e0: 9ad6 38be 0749 833c aa30 283e bb0c 18be
000002f0: 1f48 353e 154b 88bd d746 2bbe 488f 09bd
00000300: a15d 213e 8696 513d 1e68 0c3e a37e ee3d
00000310: fb70 75bc b8b4 1dbd 4fa7 f23d 73a2 c8bc
00000320: 8734 163e 7201 3fbd e544 34be f769 efba
00000330: d20c 113e 7103 843d 14a9 61bd e21e 23be
00000340: 8d6c 173e c439 1b3e 22ef 9dbd 70a8 1f3e
00000350: b8dd 433d 8c81 193e 808b d3bd 3a2a ea3d
00000360: 383a e93d 7b55 dbbd d742 173d cb5b c03c
00000370: 236d 7dbd 8b06 33be b559 3cbe cac8 073e
00000380: 05da a83c f9d7 c5bd 3310 013e 4cb1 333e
00000390: 52f3 acbd 5021 24be 3dc4 123e ecf5 f0bc
000003a0: 5d67 543d 69db 8cbd 21ae 3a3e 3279 2d3d
000003b0: 43a3 fbbd 83ba a83d 2ba5 87bd 0bb5 c73d
000003c0: 0432 1f3e bdf2 2abd 0aee 54bd fee8 35be
000003d0: 7dc0 fdbd 02db 6dbd 99d6 3d3d 371f 2fbd
000003e0: 1af2 f63d 8406 303e 7a20 3fbd c245 3ebe
000003f0: 2637 11bd 7962 2e3e 0c35 133e 527b 8cbd
0.18004082 0.08475384 -0.16345099 -0.039230153 -0.098184906 -0.017188419 -0.005234965 0.16466582
0.10916396 0.04416348 -0.06388162 -0.052860066 0.14484434 0.16493712 0.0028048356 0.12034376
-0.07424692 0.018201424 -0.033027854 0.069672845 0.09401062 -0.07248114 0.12064565 -0.18427089
0.021181213 -0.052981604 -0.17254394 -0.10211911 -0.11467121 -0.07522777 -0.1624657 0.012111234
-0.039021533 -0.17086215 0.001570924 0.1534359 0.14617379 -0.12065069 -0.1746293 -0.07875687
0.05083286 0.032985415 -0.094643965 -0.14397389 0.12417071 0.10472215 0.09867621 -0.043364614
-0.035054494 -0.0974429 0.06398967 -0.098787166 0.081218466 -0.12360787 0.08415537 -0.06149555
-0.015505166 0.007641005 -0.17756218 -0.01127994 0.11388467 -0.054785505 -0.13223058 0.16207308
-0.028629556 0.096986376 -0.02025676 0.04584041 0.021593072 0.019877877 -0.027504217 -0.045293435
0.17940138 0.023677057 0.03930848 0.07927306 0.014405495 -0.009638283 0.1522285 -0.01782257
0.0623276 -0.1636398 0.020190924 -0.06024482 0.010577622 -0.010035192 0.102070525 0.081228726
-0.11036331 0.15522112 -0.1609973 0.033352237 -0.10799526 0.0064985147 -0.13527732 0.17071679
0.14002626 0.11273919 -0.08530676 -0.01671922 -0.015570394 0.01557497 0.17382027 -0.12594174
-0.063721 -0.032037247 0.08271402 0.14810543 0.13670625 0.10533662 0.055003606 -0.06300971
0.06000334 0.1744878 -0.055175114 0.15991688 0.15945838 -0.060044583 0.18056206 0.154807
0.14213029 -0.04318026 0.13528341 0.05391328 -0.0011355181 -0.105282925 -0.0085524 0.17118882
-0.10219405 0.021032648 -0.02434845 -0.011719823 -0.074746676 -0.04108185 -0.07407693 -0.035821255
0.14544655 0.068642914 0.027976241 -0.015407245 -0.013061037 0.0034935102 -0.09854503 0.08459583
-0.08360666 0.10746824 -0.04136321 -0.023808885 0.010965321 0.16938013 -0.09657243 0.040261712
0.13939841 0.024015998 -0.13613741 -0.04636836 -0.113169566 -0.15692212 -0.06758002 -0.01183816
0.08568175 -0.089877084 -0.030636303 -0.13722038 -0.030680439 -0.15620533 -0.080352925 0.05536577
-0.10835696 0.100533664 0.014598052 0.1033945 -0.0685839 0.13041924 -0.020631101 0.08484323
-0.05656162 0.08496489 0.11363363 -0.07083222 -0.17838393 0.047497272 -0.17626546 0.11157871
-0.18050614 0.016026033 0.16424814 -0.14848606 0.17703293 -0.06654946 -0.16726242 -0.03358391
0.15758373 0.05116894 0.13711593 0.11645248 -0.01498055 -0.038502425 0.11848318 -0.024491524
0.14668475 -0.046632238 -0.17604406 -0.0018265833 0.14165047 0.06445969 -0.055092886 -0.1592975
0.14787503 0.15158755 -0.077116266 0.15591598 0.04781887 0.14990824 -0.10329342 0.11433835
0.113880575 -0.107096635 0.036928978 0.02348127 -0.06187166 -0.17482965 -0.18393596 0.13260189
0.020611772 -0.09660334 0.12603836 0.17548102 -0.08444847 -0.16028333 0.14332671 -0.02941414
0.051856387 -0.06877787 0.18230487 0.04235191 -0.12286999 0.08238699 -0.066233 0.09751328
0.15546423 -0.0417354 -0.051984824 -0.1776466 -0.1239023 -0.05807019 0.046347234 -0.04275438
0.12057896 0.17189986 -0.04666183 -0.18581298 -0.035452984 0.17029752 0.14375705 -0.06859459

bias f4 [64]
00000000: cfb6 f83c 0d59 8fbd da68 66bc 7996 02be
00000010: 8ccd 403d a058 b73d 21ee 2fbc 4723 d1bd
00000020: 2a94 133d a4e6 0abe c00f 24be edc9 25be
00000030: 4b1f e6bc 5fe2 a7bd e872 56bd 2a20 013e
00000040: 8fd6 2b3e 4fbf 373e c0f5 f8bd 0c99 373e
00000050: f8b6 94bd 12f4 1fbe a0fe 36be 7d7b 37bd
00000060: 269b 0cbe 01fc 8f3d 3870 06bd 8946 9e3d
00000070: 2a64 82bd e699 16bd 88fa 733d 33c8 c63d
00000080: 0685 25bd 710c 2b3d ab84 e73c 8f16 573d
00000090: 48ac 0cbe 4862 123e 2269 10bd 8166 013e
000000a0: 51fd acbd 7cc5 74bd 234d 343e e732 893c
000000b0: c404 60bd e513 debd dd59 1e3d ac45 b3bd
000000c0: b8e2 beba f029 373e fe70 bc3d a025 39be
000000d0: e05d e7bd 7fc8 cd3c d3e8 cfbd 848c 16be
000000e0: bba9 91bd 4e13 473d b596 adbc 79e9 ebbd
000000f0: 5669 08be 5a89 d43d 10c1 28be 46b4 023e
0.030360607 -0.06999407 -0.0140630845 -0.12752713 0.047071025 0.08952451 -0.010737927 -0.10211807
0.036029972 -0.13564545 -0.16021633 -0.1619031 -0.028091094 -0.08197474 -0.052355677 0.12609926
0.16781066 0.17944072 -0.12156248 0.17929476 -0.07261461 -0.15620449 -0.17870569 -0.044795502
-0.1373106 0.07030488 -0.032821864 0.07728297 -0.06366761 -0.036767863 0.059565097 0.09706154
-0.040410064 0.041759912 0.028261503 0.052511748 -0.13737595 0.14295304 -0.035256512 0.12636758
-0.08446754 -0.05975865 0.1760755 0.016747905 -0.054692045 -0.10843638 0.03865992 -0.08753523
-0.0014563417 0.17887092 0.09201239 -0.18080759 -0.11297202 0.025120018 -0.101518296 -0.1470204
-0.07112452 0.048602395 -0.021190027 -0.11519141 -0.13321432 0.1037776 -0.16479897 0.12764081

weight f4 [64, 64]
00000000: cbc6 a23d 40a9 32bd 661a d33d fb58 d0bd
00000010: 097f 153c 3a00 263d 7f44 ba3d f37d d1bd
00000020: fb6c f83c 619e 483c 8f57 05bd a26d 3c3d
00000030: 3f51 a2bd bba2 a03a 54cb dcbd db79 b6bb
00000040: f362 9bbd f295 7e3d 0175 af3d 214e 573d
00000050: b1bf bfbd 5238 1a3d a38e a13d 2193 313d
00000060: bacb ffbd 3cd1 3d3d a27c 1a3d d64a dbbd
00000070: 6a69 aa3c 9b42 9bbc 8501 dd3d e20a e5bc
00000080: a221 8a3d 7aee 37bc 45cb b93c 35b1 cebd
00000090: 3c0c 9bbd 1067 fabd 99cc af3c 1944 7bbd
000000a0: a4ef 8c3d 398a b03d ffa8 f4bd e303 65bd
000000b0: e92e 9c3d 1e15 c4bd c6bf f6bd 0e37 d7bc
000000c0: 53c4 f93c 9852 583d e0d6 95bd f9bc fc3d
000000d0: a2a4 d03d 5e8b e3bd 3d34 95bd a00f f03c
000000e0: e938 24bd 5c71 d5bd 344f 67bd e227 4bbc
000000f0: 8e5e fabd 98ae cd3b 7282 723d a75b d3bd
00000100: 7076 e43c 06f5 983d 7204 873d 51fa ffbd
00000110: 76fa c0bd 2d0a fe3d c736 0e3c b570 86bd
00000120: d7d1 823d 7ce6 9c3d 3d12 0bbd 5145 63bd
00000130: 85c6 ddbd de79 a83d 3207 c4bd c640 0f3d
00000140: a6ed d33b b670 c2bd 7bfe 993c d221 ccbb
00000150: 89a2 97bb b178 ee3d 7415 dd3d 6f73 13bd
00000160: eb70 be3d 0b25 f0bd 53b4 613c 11a5 1b3c
00000170: b47f a1bc 328d 64bc b2df cabc a19f 75bc
00000180: e18e c53c d6f5 81bd eb4b bd3d d3cf 9abd
00000190: cb0b c83d ff9a 223d c8b2 163c c19a afbd
000001a0: 8d58 9cbd 550d c9bc 4f71 4ebd 0f33 96bd
000001b0: e595 8fbb 37e4 943d 1286 29bc 068b aabd
000001c0: a9e4 c43d 6a49 1a3d f891 873c a1a8 c83d
000001d0: 92a9 013d 8404 b43d 1318 23bd 9109 aebd
000001e0: d0d2 9d3c 143a 31bd d700 6f3b 5d65 bc3d
000001f0: 61bc 80bd 20a5 ffbc 3cb1 b1bc b24e 61bd
00000200: 9d0d e0bd b5fb ccbd 257b 753d af7b 82bd
00000210: bbb9 70bd f483 9c3d 86c5 e7bc 9cc5 383b
00000220: 08dd 1f3d 6376 223d 5be8 87bc 1424 79bd
00000230: 43d7 c23d 3b80 bc3c 2e79 4c3d a9b1 043b
00000240: 11e2 cd3d 2118 b2bc 627d 51bd 54fe bebb
00000250: 64de d83d 8ed5 afbd f52c b23d 893b a3bd
00000260: d75a 15bd a2af 18bd 7d7b c13d 9c2a 7a3d
00000270: 7a5e 303c 4eb6 8abc c3b8 b9bd 402c 3f3d
00000280: 75d2 e8bd 6b1f d83d a269 f43d c22e b33d
00000290: fb78 c63c 767c 823d 1e15 ca3c 03f4 fd3b
000002a0: b7fa b4bc 705b c73d a4af 76bc 611d d73d
000002b0: c5af 88bd a548 ab3d 4078 5d3d d2a6 423d
000002c0: 7992 a5bd 86bc fabc 3cb1 d93c 6bc5 f4bd
000002d0: 6c76 76bd fb88 25bc 7759 b0bd ab11 ebbd
000002e0: beb8 a33d fcc1 203d 6070 853d c786 d9bd
000002f0: 8965 94bd 2dac fbbd 97bf 8e3d 88ba e7bd
00000300: fb8d 813d 4da5 c2bc ef11 9d3d fd44 dabd
00000310: b682 a0bd 6788 30bb 6774 89bd 23e4 debc
00000320: 9267 24bd 96b6 73bd cb09 bd3d bfed a03d
00000330: 2a7b 68bd a38d 8c3c 0b12 58bd 9b97 f5ba
00000340: 736f 11bd c4ee 32bd 44ce 9fbd 655d 79bc
00000350: 74f0 e13d 51f0 32bc 3565 a43d f807 e2bd
00000360: 6342 e0bd e267 81bd 945d 8ebd 9902 fabd
00000370: 737d ebbd fa3b b1bd dec0 03bd 59da 1e3d
00000380: 1114 723d c69c bd3d 7a4f cb3d ee6a 2a3d
00000390: 4d9d 31bd 5f33 573d ec0d 2e3d f7b8 163c
000003a0: 9f01 8bbc 227e a03c eae4 87bd ef3d 413d
000003b0: 6985 f7bd c22c c33d 4b95 91bd 2ab0 da3c
000003c0: 9451 b73d 97c2 8b3d b2c9 c8bd 2090 82bd
000003d0: c586 c0bd 9774 c7bd 899f 6c3d fabb e5bd
000003e0: 6646 e13d 8065 233c dfb4 ac3c ed9b 75bd
000003f0: 8991 83bd f3b8 89bd 4c7a bfbd d070 8e3d
0.07948073 -0.04361844 0.103077695 -0.10173222 0.009124526 0.04052756 0.09095096 -0.10229101
0.030325403 0.012244792 -0.032554206 0.04600299 -0.07925653 0.0012255529 -0.10780969 -0.0055687255
-0.075872324 0.062154718 0.085672386 0.052564744 -0.09362734 0.037651367 0.07888534 0.043353204
-0.1249003 0.04634212 0.037716515 -0.10707633 0.020802218 -0.018952658 0.107913055 -0.02795929
0.06744696 -0.011226291 0.022679934 -0.10092393 -0.07570693 -0.12226689 0.021459864 -0.06134424
0.06881645 0.08620114 -0.11946296 -0.05591191 0.07626135 -0.0957434 -0.12048297 -0.02627137
0.030489122 0.052813143 -0.07316375 0.12340731 0.10187651 -0.111105666 -0.07285354 0.029304326
-0.040093336 -0.10422012 -0.05647202 -0.0123996455 -0.12225066 0.0062769167 0.059206434 -0.10320216
0.027888507 0.074686095 0.06592645 -0.12498916 -0.09422772 0.124042846 0.008680052 -0.06564466
0.0638768 0.07661149 -0.03395294 -0.055486027 -0.1082888 0.08226369 -0.09571685 0.034973882
0.006467539 -0.09494154 0.018798104 -0.0062296176 -0.00462753 0.11644114 0.107951075 -0.035998758
0.09298881 -0.117258154 0.013775903 0.009499804 -0.019714214 -0.013949679 -0.02476487 -0.014991672
0.024115982 -0.063457176 0.09242996 -0.075591706 0.09767874 0.039698597 0.009197898 -0.08574439
-0.07634077 -0.02454249 -0.05040103 -0.073339574 -0.0043818825 0.07270091 -0.010346906 -0.08327298
0.09613926 0.03766767 0.016549096 0.097977884 0.031655855 0.08789924 -0.03981788 -0.084979184
0.019265562 -0.04326828 0.0036469006 0.09199021 -0.062859304 -0.031206667 -0.021690957 -0.05500669
-0.109400965 -0.10008947 0.059931893 -0.06371247 -0.058770876 0.076423556 -0.028292429 0.0028193956
0.03902915 0.039663684 -0.016590288 -0.060825422 0.09513714 0.023010364 0.049920253 0.0020247495
0.10052884 -0.021740021 -0.051144965 -0.005828658 0.10589293 -0.08585654 0.08699981 -0.0797034
-0.036463585 -0.03727687 0.09447382 0.06107579 0.0107647125 -0.016932633 -0.090684436 0.04667306
-0.113682665 0.105528675 0.1193421 0.08749153 0.02422761 0.06371395 0.024668273 0.0077500357
-0.022092206 0.09734237 -0.015056524 0.105036505 -0.066741504 0.08363465 0.054069757 0.047522373
-0.08084578 -0.030607473 0.02657377 -0.11951717 -0.06017153 -0.0101034595 -0.08610814 -0.11477979
0.07994221 0.039247498 0.065155745 -0.1062141 -0.07245929 -0.12288699 0.069701366 -0.11314875
0.06325909 -0.023760462 0.07669436 -0.1065769 -0.07837431 -0.002693677 -0.06711655 -0.027208393
-0.040137835 -0.0595003 0.092303835 0.078578465 -0.056758083 0.017157381 -0.052751582 -0.0018737199
-0.035506677 -0.043684736 -0.07803014 -0.015220021 0.11032191 -0.010921554 0.08027116 -0.11036676
-0.10950162 -0.06318642 -0.06951442 -0.12207527 -0.11498537 -0.08654018 -0.032166354 0.03878245
0.059101168 0.09258418 0.09927268 0.041605882 -0.043362904 0.052539226 0.042493746 0.0091993725
-0.016968546 0.019591395 -0.06635459 0.047178205 -0.12085993 0.09530021 -0.071085535 0.02669533
0.08951107 0.068242244 -0.09804095 -0.06375146 -0.09400705 -0.097390346 0.057769332 -0.11217494
0.109997556 0.00997293 0.02108234 -0.059963156 -0.06424243 -0.067247294 -0.09349498 0.06955111

bias f4 [64]
00000000: b781 5b3d 91da d93d 8400 1a3d 7a3c 7fbd
00000010: 4534 19bc 535a c2bd 8921 c7bd 0ce9 723d
00000020: f6f7 7a3d a44f d33d a9f4 cfbd 9a34 6bbd
00000030: a116 6b3c 73c3 b23d 4261 0e3d 46b1 453d
00000040: 35db b2bd 00eb b73d bb7b 95bc ce75 84bd
00000050: 2ebd 38bd 585f 6fbd d66e db3d d20c c83c
00000060: 8cd3 033d 8895 e43d e21e 063d df85 a2bd
00000070: 3519 48bd 7ec1 e93d 1ee9 a73d d3e6 74bb
00000080: f68d 133d 9afb d2bc fd75 273c 59fc b3bd
00000090: 3a90 8bbd 034e cebc 8011 f13b 5d21 63bd
000000a0: fb4e 5dbc 2a65 c9bd 2e85 6d3c d30e 613d
000000b0: ac06 abbd 0f11 8f3d 439a e9bd c7ae 2ebd
000000c0: 3e73 aa3d 5b14 9fbc ce68 b03d 5660 84bd
000000d0: 3d36 db3d 53e6 773d b767 84bb c54d 583d
000000e0: 85e6 5a3d e81b e83d c7bd 29bc 4fb5 a63d
000000f0: 7cc6 81bd dc24 20bd f96d 58bc e000 91bd
0.053590503 0.10637391 0.037598148 -0.062313534 -0.009350841 -0.09489884 -0.09723193 0.059304282
0.06127163 0.103179246 -0.10154087 -0.05742321 0.014348657 0.08728685 0.03476072 0.048264764
-0.08733217 0.089803696 -0.018247476 -0.06467782 -0.04510229 -0.058440536 0.107145 0.024420176
0.03218417 0.11161333 0.032744296 -0.0793569 -0.048852164 0.11413859 0.081987604 -0.0037369027
0.036024056 -0.025754739 0.010221002 -0.08788366 -0.068146184 -0.025183683 0.0073568225 -0.05545174
-0.0135076 -0.09833749 0.014497085 0.054945778 -0.08350882 0.069856755 -0.11406376 -0.04264715
0.08322762 -0.019418886 0.0861374 -0.06463687 0.107037045 0.06052239 -0.004040684 0.05280854
0.053442497 0.11333448 -0.010360188 0.081400506 -0.06336686 -0.03909765 -0.013209813 -0.07080245

weight f4 [1, 64]
00000000: 462c cdbd a3e4 243a e187 a13d 157f 79bd
00000010: 0aa6 c13d 62a7 9fbd 3c46 7dbd ffa4 8bbc
00000020: d4bb bf3c 4e10 8d3d 486f abbd 846a df3d
00000030: abce b0bd 74cf c4bd c65b 0fbd b15a 41bd
00000040: 1d83 a63d edf7 72bd 0088 dcbd 67ee 33bc
00000050: 7bdc 94ba abc0 b73d 832d d5bd 4f31 f3bd
00000060: 021c cf3c db40 c1bd 15bd ca3d 84f1 8fbd
00000070: 0c2b 99ba 8344 5e3d 1e45 763d 26a1 973d
00000080: 3ec2 c13d 3ead babc f453 f43c a8ab 29bd
00000090: 815d d6bc 674a db3d 3073 5ebd dc84 643d
000000a0: 04c1 a23d 207a d93d fb9e afbd 7a87 483c
000000b0: 2dfe bcbd 41ef f2bd 162c 0c3d ae03 c4bd
000000c0: 4d3f cdbd 9a1d bcbd e3c4 d9bd bec0 55bd
000000d0: fe35 cfbd 37b5 463d 883c ae3d ea86 873b
000000e0: 410d a13d 0e35 a73d 3765 07bd b9f4 753b
000000f0: ce82 f73d a5d5 d3bd 175d 91bd 83ab bcbc
-0.1001821 0.0006290173 0.07887245 -0.06091221 0.094554976 -0.077955976 -0.06183456 -0.01704645
0.023404993 0.068878755 -0.083708346 0.10908988 -0.08633169 -0.09609881 -0.03499963 -0.04720563
0.081304766 -0.05931847 -0.107681274 -0.0109821325 -0.0011357212 0.089722954 -0.10409071 -0.11874639
0.02528191 -0.09436198 0.09899346 -0.07028487 -0.0011685803 0.054264557 0.06012451 0.074037835
0.09460877 -0.022787686 0.029825188 -0.04142347 -0.026167633 0.107075505 -0.05430907 0.055790767
0.07946971 0.106189966 -0.08575245 0.012239331 -0.09228168 -0.1186204 0.03422173 -0.09571014
-0.10021839 -0.091853335 -0.10633256 -0.052185766 -0.1011772 0.048512664 0.08507639 0.004135956
0.07863856 0.08164416 -0.03305551 0.00375299 0.12085496 -0.10343484 -0.070978336 -0.023031002

forward_pass.0.weight f4 [64, 29]
00000000: e57c 103d 393a ce3c 1e77 853a 3c7b d83a
00000010: f65e 2439 c9d3 1c38 53a4 15b4 0e13 9a37
00000020: 89c6 a8b7 cd6b a8a5 6d26 9da9 6141 db37
00000030: e14e 4226 af45 3032 9ef6 86b8 d5b0 62b8
00000040: fa6f a637 d11c aab8 3abc 34ba 3c08 c5bc
00000050: 250a 3623 233a 24bb 8af1 2cb7 9749 32bd
00000060: 9ad0 fd2a 4ca4 1534 8b55 053d 4c92 243d
00000070: f511 243c 76c8 3635 bda1 eeb4 5df1 1d33
00000080: c9b2 36b5 f825 33b5 ae60 30b6 e11c c2ac
00000090: 3d1d b5b4 a559 8d34 cdb5 c230 cab8 2c33
000000a0: 2aa4 5a34 a785 832f f448 03b2 ed1c 9633
000000b0: f5f3 db30 6bc0 f033 2e96 dcb3 44c2 4836
000000c0: aaf0 d934 cff7 6130 9bd9 3bb0 60c6 6634
000000d0: f0df 8d33 d744 822f 0545 6cb4 0000 0000
000000e0: 0000 0000 6359 20b5 5cb1 b3bb 347e 19bc
000000f0: 58c4 07ba e4bc 98b9 db57 ebb7 4ee3 03b8
00000100: b487 0337 85ff 0eb7 7b10 7b37 f006 a5b2
00000110: d1e5 3c33 726a f734 911c 91b2 8ab1 8cb2
00000120: 4aaa 42b6 5b44 a2b4 a171 9936 9fdd 1bb4
00000130: 7f7b 4638 81ff b13b 2659 003a 3906 7e3a
00000140: 73a8 9236 dca9 dc3c de8b c7b5 99ba 5eb5
00000150: eaff d2bc 49f1 33bd fc4d a1bb 9f0a 03bd
00000160: 6d8a 54bb fba4 e0b9 750c eab8 0000 0000
00000170: 3a85 50a4 0000 0000 7e39 faa3 f6d0 a6a3
00000180: 0000 0000 a237 d0a1 f6d0 2624 f535 eda3
00000190: 0000 0000 0000 0000 0000 0000 09ca 0c23
000001a0: f6d0 2623 f206 5724 3f4a 963b 05a7 623b
000001b0: 803d 5739 0000 0000 096b ee3d 0000 0000
000001c0: 09ca 0ca3 8813 d8bd a10f 47be cc2c b3bc
000001d0: 102f f2bb 977b 2fbb ac43 f439 22c8 0e3a
000001e0: 8c97 9738 459c 0a37 b145 94b6 538d 6137
000001f0: a0d0 c4b7 c094 e2ab a5e2 3c32 a61b 39b4
00000200: acac cd34 0000 0000 7512 62b7 926c 72b7
00000210: 6b28 e936 fb9d 2eb7 0017 50b9 9557 103b
00000220: 140d ea39 c357 9a39 6883 e3b6 93dd 9d3d
00000230: 051a 3833 bcac be36 ad4f 9ebd 8ba8 17be
00000240: 82e4 46bc 6041 05bc fadf 39bb eec1 d139
00000250: 6632 9439 cbcd 6138 d472 9537 4864 a2b6
00000260: 0391 6537 4360 92b7 507b 5931 16e3 b2b2
00000270: 1d60 d136 e52a 0835 4662 4232 4906 5ab7
00000280: 4875 96b7 1619 a133 b92d a4b7 3637 eeb8
00000290: 1e6e e539 60a6 953a 940d 0c3a 0616 1fb6
000002a0: 4267 303c 646e c234 c315 6a36 3cfa 9dbb
000002b0: 58e7 efbb 0df2 edba ccd9 a3bd 2565 20bd
000002c0: 4fcc 08bb e81e f4b9 2e42 61b8 f153 93b7
000002d0: a6f7 2a37 e838 80b7 4a34 de37 0000 0000
000002e0: 0000 0000 0000 0000 96e4 aab5 0000 0000
000002f0: b7e1 c2b5 50f4 aa36 471c 6536 ac12 a036
00000300: 661d 8a38 539a 183d 12ba 103b 210d 9b3b
00000310: b7e1 c235 e3fb 4b3e 92e4 38b5 ac12 a0b6
00000320: 0c23 40be d461 9ebe bcea 26bd ed9a 71bb
00000330: 10d7 97bb d95c 41ba af83 9fba 584e 27b9
00000340: b095 37b8 1a1b 3437 98ce f6b7 ea23 3738
00000350: aead 2eb2 9767 3c33 7b04 5cb7 7565 b6b5
00000360: 7c5c 82b2 5424 2538 aa57 3438 ab73 22b7
00000370: 807f 4d38 2fbf 043a ca29 c73b 91a5 94b5
00000380: 61ae 2439 9b67 3637 ca9f c03a a593 1ab5
00000390: 9d06 22b7 bde7 12bb e2c1 e0b8 c0f6 a7ba
000003a0: 7f66 3cbd 357c 2cbc e3ba 60ba f8e5 82ba
000003b0: 1d25 a2b8 7769 89b7 e522 1b36 55db 0bb7
000003c0: f351 8637 2976 e830 067a ebb1 2ae4 c9b6
000003d0: 93ca 8db3 a5de b3b0 8e83 7f37 bb12 8937
000003e0: d8c2 a8b6 98cb c237 4999 ab39 c94b 5b3c
000003f0: 1c3a b83b 76a4 f23a 242d 9236 3053 143e
0.03527536 0.025174247 0.0010182594 0.0016516219 0.00015675634 3.739054e-05 -1.3936487e-07 1.8367104e-05
-2.011961e-05 -2.9216403e-16 -6.9788664e-14 2.6137279e-05 6.741417e-16 1.02603925e-08 -6.435554e-05 -5.4047287e-05
1.9840885e-05 -8.111599e-05 -0.0006894503 -0.024051778 9.868388e-18 -0.0025059066 -1.0308237e-05 -0.043527212
4.5086574e-13 1.3936477e-07 0.032552283 0.040178582 0.010014047 6.809199e-07 -4.4448635e-07 3.677393e-08
-6.806045e-07 -6.673795e-07 -2.6282319e-06 -5.517018e-12 -3.373515e-07 2.6328522e-07 1.4167029e-09 4.0214935e-08
2.0362555e-07 2.3923727e-10 -7.641791e-09 6.990181e-08 1.6003684e-09 1.12108715e-07 -1.0271866e-07 2.99154e-06
4.0594506e-07 8.220668e-10 -6.833944e-10 2.1492588e-07 6.606558e-08 2.3695776e-10 -2.2004322e-07 0.0
0.0 -5.973472e-07 -0.0054837894 -0.009368468 -0.0005179099 -0.00029132434 -2.8055094e-05 -3.1444528e-05
7.839804e-06 -8.523352e-06 1.4964603e-05 -1.9211683e-08 4.3981178e-08 4.6084784e-07 -1.6893212e-08 -1.637888e-08
-2.9007374e-06 -3.0224587e-07 4.5729835e-06 -1.4516125e-07 4.7321893e-05 0.00543207 0.00048960967 0.00096902583
4.370749e-06 0.026936464 -1.4867362e-06 -8.297298e-07 -0.025756795 -0.04393128 -0.0049226265 -0.03199255
-0.003243114 -0.0004284753 -0.0001116031 0.0 -4.5215658e-17 0.0 -2.7129403e-17 -1.8086254e-17
0.0 -1.4109354e-18 3.617251e-17 -2.5718443e-17 0.0 0.0 0.0 7.632198e-18
9.043127e-18 4.6626576e-17 0.0045864875 0.0034584415 0.00020526908 0.0 0.11641509 0.0
-7.632198e-18 -0.105506 -0.19439556 -0.021871947 -0.007390864 -0.0026776546 0.00046589726 0.0005446692
7.228469e-05 8.261825e-06 -4.418857e-06 1.344395e-05 -2.346217e-05 -1.6099552e-12 1.0994573e-08 -1.7239526e-07
3.830986e-07 0.0 -1.3474947e-05 -1.44496025e-05 6.9486464e-06 -1.0407991e-05 -0.00019844994 0.002202486
0.00044641702 0.00029438557 -6.780425e-06 0.077082776 4.2864503e-08 5.68255e-06 -0.07730041 -0.14810388
-0.012139441 -0.008133262 -0.002836226 0.00040008075 0.0002826631 5.383584e-05 1.7815655e-05 -4.8396505e-06
1.3683227e-05 -1.7449382e-05 3.164775e-09 -2.0825194e-08 6.2398744e-06 5.072637e-07 1.1314631e-08 -1.2995276e-05
-1.7936007e-05 7.50171e-08 -1.9571615e-05 -0.00011359008 0.00043760327 0.0011417381 0.00053425995 -2.3705666e-06
0.010766806 3.6215636e-07 3.4881384e-06 -0.00482109 -0.0073212795 -0.0018153802 -0.08000526 -0.03915896
-0.002087373 -0.00046562334 -5.3705815e-05 -1.7562854e-05 1.019045e-05 -1.5285288e-05 2.6488811e-05 0.0
0.0 0.0 -1.2732514e-06 0.0 -1.4519818e-06 5.0948365e-06 3.4140119e-06 4.7705453e-06
6.585829e-05 0.03725655 0.0022083563 0.0047317897 1.4519818e-06 0.19920306 -6.8877955e-07 -4.7705453e-06
-0.1876337 -0.30934012 -0.040751204 -0.0036866025 -0.0046337917 -0.0007376201 -0.0012169982 -0.00015955546
-4.3770007e-05 1.0735146e-05 -2.9421688e-05 4.3664048e-05 -1.0167623e-08 4.3866375e-08 -1.3114065e-05 -1.3589585e-06
-1.5176049e-08 3.93729e-05 4.2996988e-05 -9.6828835e-06 4.8994552e-05 0.0005063889 0.0060779797 -1.1075045e-06
0.0001570522 1.0872168e-05 0.0014696058 -5.758432e-07 -9.657492e-06 -0.0022415959 -0.00010717266 -0.0012814626
-0.045996185 -0.01052766 -0.000857277 -0.0009986749 -7.731675e-05 -1.6380784e-05 2.3117111e-06 -8.336113e-06
1.6012205e-05 1.6913805e-09 -6.8532726e-09 -6.0168286e-06 -6.602672e-08 -1.3087244e-09 1.5229814e-05 1.6340395e-05
-5.029473e-06 2.3221408e-05 0.00032729868 0.013384768 0.0056221616 0.0018512148 4.356394e-06 0.14484859

forward_pass.0.bias f4 [64]
00000000: 4c39 e23b e7b8 b6b4 d05a 82bb 8e68 7bbc
00000010: 038b 2bbc 33fa 98ba 8777 ebbc cd48 3aba
00000020: 18c5 a2bc 0ca5 34b6 0000 0000 3d14 8fbc
00000030: 0f42 06bd b467 a4bc f4ab c731 3cdd d83c
00000040: e44a bcbb 545c 223c c230 2c3d a016 25bc
00000050: cc37 b7bc 5892 ac3a 0beb a0bc d5e5 273c
00000060: 0000 0000 07f4 0135 648a 953c 16a8 28b7
00000070: d5f3 0dbc 048f c93a 2c72 413c fb25 6abd
00000080: c48a 0c3c c67d a63c 7806 1bbb 7617 21bd
00000090: 4f3f 19bb f8fe 8ebb a4ae bcbc 7180 b5b3
000000a0: 1a3f 383d 8b83 8e3a 9eb3 8d3c 6e8a 0d3b
000000b0: 4019 4d3a f879 863b 763c e2bc 618b d33b
000000c0: db88 a53b 0000 0000 c608 48bb 31ea 4d3d
000000d0: ac5f b33c 3e34 a23b e48e 0bb6 604a 3438
000000e0: 0df6 9abc d0db e2b9 5780 4039 154b 453a
000000f0: 5d0b 38b7 e204 543d a494 543c 2235 6c3b
0.006903803 -3.4034676e-07 -0.003978111 -0.015344752 -0.010470155 -0.0011671245 -0.028743519 -0.0007106185
-0.019869372 -2.691816e-06 0.0 -0.017465705 -0.032777842 -0.02006898 5.811211e-09 0.02647268
-0.0057462323 0.009909708 0.042038687 -0.010076195 -0.022365473 0.0013166172 -0.019643327 0.010247667
0.0 4.841135e-07 0.018254466 -1.0052716e-05 -0.008664091 0.0015377705 0.011807006 -0.057165127
0.008578006 0.020323645 -0.0023654979 -0.039329015 -0.0023383682 -0.0043638907 -0.023032494 -8.451833e-08
0.044982053 0.0010872943 0.017297562 0.0021597403 0.0007823892 0.0041038953 -0.02761672 0.0064558242
0.005051715 0.0 -0.0030522808 0.05027217 0.021896206 0.0049500754 -2.0795787e-06 4.298461e-05
-0.018916154 -0.00043269852 0.00018358357 0.00075261417 -1.09699e-05 0.05176247 0.012974892 0.0036042412

forward_pass.2.weight f4 [64, 64]
00000000: a086 af3b 231c 4134 8606 883d c030 ab3c
00000010: 47be 623d d431 b43d 942c ea3c 4019 1336
00000020: ac72 533e 441f 7635 0000 0000 d336 423e
00000030: b6fb 9e3d ca6b d63d 0b14 1d33 d457 ed3c
00000040: e125 6f3c 67da 333e ca56 cf3d a499 493d
00000050: aca0 d73b 0000 0000 6209 f93d 9a9a e63d
00000060: 0000 0000 669c 3e35 bae5 623e 6790 2f34
00000070: 5c05 833a c561 b13a d20c 5c3b 8d60 0e3e
00000080: ee23 823d 3ae4 833e fe28 9334 a60e 103c
00000090: 30bd 353e 7134 3a3c b8da 1f3e 0712 2b33
000000a0: cac8 143e 10a4 863a 40b1 933d 58d3 223e
000000b0: 4463 0435 1894 0a3a ddf3 8e3d 042e a93d
000000c0: f8d7 343a 0000 0000 785c 303c 80fb dc3c
000000d0: 67f3 0a3e 3d0b 8f3d 70b1 cc35 e85a ee35
000000e0: c619 c33d 5d67 ff3b 3729 ad33 1e1d 4133
000000f0: bbe4 0231 8d49 033e cd40 2f3e 32c0 883b
00000100: 084c 96b8 8dfd beb0 d8b1 2cb8 254a 2ab7
00000110: 9d82 e5b8 d91a 56b9 b862 4eb8 d0b4 38b8
00000120: 7ec4 8ab9 ce04 d7b2 0000 0000 30d0 e8b8
00000130: 8d8e 2ab9 03a3 25b8 c0ee 79af 026c 21b9
00000140: 7e76 7eb7 bf08 33b9 38e1 23b9 b2b6 fbb7
00000150: 4c3a 03b8 dec4 cbb7 6105 39b9 2088 c1b8
00000160: 0000 0000 a472 28b1 e02d 6db9 d25b 6eb4
00000170: e2eb 1fb8 8a4d 75b8 b3e1 fdb5 f1de 28b9
00000180: f514 48b8 f195 a0b9 c138 a0b7 9314 17b0
00000190: 0713 0fb9 7622 0ab9 2ed7 11b9 5655 29ae
000001a0: 79e2 cab8 4bee 8bb8 3dec 1eb9 7858 2cb9
000001b0: 738f 01b8 b913 1cb2 00b0 3ab9 4fe2 8bb8
000001c0: 2cb3 0db8 0000 0000 dd00 f1b0 fcfa 53b8
000001d0: 314a 22b9 1341 8ab9 633a c3b2 1ccf a5b3
000001e0: 7d62 1cb8 d8f5 e1b8 98bb 24b6 f952 5bb7
000001f0: e8c2 09b2 37fa 19b9 096e 50b9 c5c5 adb8
00000200: 0c27 11bc 7eb0 2bb3 0f52 5bbd f166 89bc
00000210: e893 48bd 77c4 a7bd e7c3 d5bc 61b6 b0bb
00000220: 85a5 34be 40dd a9b5 0000 0000 ee0e 1dbe
00000230: 99ea 92bd 8017 aabd c4d3 cfb2 caba 0abd
00000240: 11bf 40bc bd09 15be d411 b5bd a9e7 24bd
00000250: ba66 f4bb 5f9e 43bb e185 d3bd a62c c0bd
00000260: 0000 0000 7633 24b4 bac9 3ebe 4632 ddb7
00000270: 31b0 b3bb be1e ecbb 26e9 3dbb 9a41 f2bd
00000280: 507c 53bd 2e90 5ebe 03b0 19bb 4884 e4bb
00000290: d6b3 13be 8b49 b3bc 4f05 03be 1d58 1db0
000002a0: 09f7 f3bd e1ba 06bc 998f 84bd 6ef5 06be
000002b0: 9822 77bb 68da dbb9 7a87 8bbd 221c 90bd
000002c0: 1b49 88bb 0000 0000 e6dd 0bbc ebc6 cebc
000002d0: 91b3 ebbd bc00 9abd d7af 4cb5 3b11 f5b6
000002e0: 5eff 9abd 2a79 71bc 2c43 9bb9 8c0d d2ba
000002f0: e2d0 7cb5 5c43 e3bd 622c 15be 46d7 39bc
00000300: 0000 0000 848d ba2f 6341 8231 0000 0000
00000310: 0000 0000 4a08 1f2f 0000 0000 63fd 4431
00000320: 7660 be30 5f91 b72f 0000 0000 0000 0000
00000330: 0000 0000 0000 0000 0000 0000 4a4c 9031
00000340: 0bc7 fb2f d7e6 4431 0000 0000 0000 0000
00000350: 0000 0000 0000 0000 f87e c130 0000 0000
00000360: 0000 0000 7b12 c130 0000 0000 0000 0000
00000370: 0000 0000 3a5a 2731 6038 ae30 0000 0000
00000380: eb21 dd30 c54a 2131 cd18 4630 7e8e 3f30
00000390: 0000 0000 0000 0000 cebc 8431 fbab cd30
000003a0: 0000 0000 0000 0000 0000 0000 ed28 ca30
000003b0: 0000 0000 4f85 1f30 0000 0000 0000 0000
000003c0: f1d5 af30 0000 0000 881e 9e30 0000 0000
000003d0: 3f2a fb30 0000 0000 7ba1 7931 6bbd 9c31
000003e0: 3296 3a31 b4b9 952f 0000 0000 0000 0000
000003f0: 0000 0000 0000 0000 0000 0000 0000 0000
0.0053566247 1.7984762e-07 0.06641869 0.02089727 0.055357244 0.087985665 0.02858571 2.1919404e-06
0.20649213 9.168764e-07 0.0 0.18966226 0.07762854 0.10469778 3.657264e-08 0.028972544
0.014596433 0.17563783 0.101239756 0.04921879 0.006580433 0.0 0.12159993 0.11259957
0.0 7.1008105e-07 0.22157946 1.6350678e-07 0.0009996104 0.0013533166 0.0033576977 0.13904019
0.06354509 0.2576006 2.741071e-07 0.008792555 0.1774795 0.011365042 0.15610778 3.9830436e-08
0.1452972 0.0010272283 0.07211542 0.15900934 4.931828e-07 0.000528635 0.06980107 0.0826073
0.0006898637 0.0 0.010764234 0.026975393 0.13569413 0.069845654 1.5250826e-06 1.7758839e-06
0.095264 0.0077943043 8.063437e-08 4.4962796e-08 1.9047508e-09 0.12821026 0.17114563 0.004173302
-7.166719e-05 -1.3896383e-09 -4.1173626e-05 -1.0150053e-05 -0.000109438995 -0.00020418632 -4.9206166e-05 -4.4037413e-05
-0.0002646781 -2.5031479e-08 0.0 -0.000111014 -0.00016265568 -3.9490882e-05 -2.2731239e-10 -0.00015394393
-1.5167168e-05 -0.00017074028 -0.00015628792 -3.0006606e-05 -3.1287127e-05 -2.429116e-05 -0.00017644979 -9.2283124e-05
0.0 -2.4512383e-09 -0.00022619171 -2.2198881e-07 -3.8128237e-05 -5.8484766e-05 -1.8915656e-06 -0.0001610478
-4.7703234e-05 -0.00030629293 -1.9099914e-05 -5.496272e-10 -0.00013644631 -0.00013173543 -0.00013908438 -3.8501945e-11
-9.6742944e-05 -6.672422e-05 -0.0001515606 -0.00016436155 -3.0889594e-05 -9.0848795e-09 -0.00017803907 -6.67019e-05
-3.3783886e-05 0.0 -1.7535303e-09 -5.0540068e-05 -0.00015477162 -0.00026369895 -2.2727539e-08 -7.721084e-08
-3.7285023e-05 -0.00010774628 -2.4547098e-06 -1.3072736e-05 -8.018766e-09 -0.0001468443 -0.00019877417 -8.28612e-05
-0.008859407 -3.997456e-08 -0.053545054 -0.01677272 -0.04896918 -0.081917696 -0.02609439 -0.005392835
-0.17641266 -1.2655873e-06 0.0 -0.15337726 -0.07173652 -0.083052635 -2.4194271e-08 -0.033869542
-0.011764304 -0.14554496 -0.08841291 -0.04025999 -0.007458535 -0.0029849035 -0.1032827 -0.09383516
0.0 -1.5292412e-07 -0.1863164 -2.6368663e-05 -0.00548365 -0.007205813 -0.0028978079 -0.11828919
-0.051632226 -0.21734688 -0.0023450858 -0.006973777 -0.1442407 -0.021885654 -0.12794994 -5.7241484e-10
-0.119123526 -0.008223266 -0.064727016 -0.13179561 -0.0037709828 -0.0004193366 -0.068129495 -0.07036616
-0.0041591055 0.0 -0.008536791 -0.025241336 -0.11508859 -0.07519671 -7.62518e-07 -7.303575e-06
-0.07568239 -0.01473836 -0.0002961395 -0.0016025766 -9.418128e-07 -0.11096832 -0.14567712 -0.011342829
0.0 3.3933756e-10 3.7909316e-09 0.0 0.0 1.446391e-10 0.0 2.8665788e-09
1.3851735e-09 3.3390798e-10 0.0 0.0 0.0 0.0 0.0 4.1996246e-09
4.5798063e-10 2.865297e-09 0.0 0.0 0.0 0.0 1.4078685e-09 0.0
0.0 1.4047851e-09 0.0 0.0 0.0 2.4352986e-09 1.2676189e-09 0.0
1.6089506e-09 2.3471085e-09 7.2067224e-10 6.968789e-10 0.0 0.0 3.8631702e-09 1.4964593e-09
0.0 0.0 0.0 1.4709066e-09 0.0 5.8033306e-10 0.0 0.0
1.2793732e-09 0.0 1.150469e-09 0.0 1.8274661e-09 0.0 3.632606e-09 4.561732e-09
2.7151938e-09 2.7234892e-10 0.0 0.0 0.0 0.0 0.0 0.0

forward_pass.2.bias f4 [64]
00000000: b252 963d b8af 06b9 031a 87bd d3ea dd30
00000010: fcac 9fbd 54b3 843d c0cc 4d3d 0000 0000
00000020: ffc9 a0bc 8e77 04bb 32da 8d3d 80fa 44bc
00000030: c3b5 863d 3a2b 0739 4856 282e fb30 1b3d
00000040: 71da 8abd e510 483d f848 9f27 3764 352c
00000050: ac0e 4b3a a9f7 8cbb e3fc b03d ae7c c43d
00000060: 5836 38bc d9b6 c03c 24c6 a9bd d478 8a3a
00000070: df03 9e30 a78f 2abb 08f2 3cbb 0000 0000
00000080: 7948 4fbd 43b3 9a3c dc37 ccbc 9e35 a03c
00000090: 3893 263c 6006 25bb 9085 223a 365a 34bd
000000a0: fadb f4ba d7f1 9abb 70a1 023d 53c9 b6bb
000000b0: 0a7c ce33 d596 3d3c 329b 8eb9 5da1 823d
000000c0: 8c65 aa3d 0c79 6b37 e689 b43d a12d 6839
000000d0: e1aa 3e3d e1f6 e6b6 6d6a f1b8 c514 b9b3
000000e0: de77 61bc 1300 22bd 2250 0e3a e56b 67bb
000000f0: 99b7 abbd 4142 d33c 233e 263b 5128 be3a
0.07339992 -0.00012844696 -0.06596758 1.6146607e-09 -0.07796666 0.064795166 0.050244093 0.0
-0.01962757 -0.0020212862 0.06926383 -0.0120226145 0.06577637 0.00012890706 3.827541e-11 0.03788851
-0.06779946 0.048844237 4.421048e-15 2.5777277e-12 0.0007746022 -0.0043019843 0.08641984 0.09594093
-0.011243425 0.023524689 -0.082897455 0.0010564574 1.1497113e-09 -0.0026025565 -0.0028830785 0.0
-0.050606225 0.018884307 -0.02492898 0.019556817 0.010166936 -0.0025180802 0.0006199712 -0.044031344
-0.0018681281 -0.0047285366 0.03189224 -0.005578199 9.615185e-08 0.011571606 -0.0002719998 0.06378434
0.0832015 1.4035275e-05 0.088153645 0.00022142242 0.04654968 -6.8832746e-06 -0.00011511599 -8.618512e-08
-0.013761489 -0.039550852 0.0005428811 -0.0035312113 -0.08384628 0.025788428 0.0025366626 0.0014507865

forward_pass.4.weight f4 [1, 64]
00000000: 6ebb fdbe a4db 10bd 9d2d 54bf a5e3 5db1
00000010: aaa5 6ebf 91a7 36be d41f aabf 0000 0000
00000020: e663 acbf 495d 31ba 5e4d 61bf deb5 44bd
00000030: 8a25 ddbe f5b1 f8b8 8d10 9cad 2180 3dbf
00000040: 06c8 11bf 12c8 a2bf fa29 7ca7 1080 7dad
00000050: 4f18 d7be a56c 1abc c3b9 f6be c058 4cbe
00000060: 08e6 febd 6953 30bd 72af a4bf fe9e 0ebb
00000070: 2cef 9ab3 34d8 b9bc 108b 49bc 0000 0000
00000080: add5 cbbd 9029 23be 3ee0 8bbe 319b bdbd
00000090: 4541 4cbd b48c dcbb 9041 17bb 1ab4 3bbf
000000a0: b1c6 bcbb c362 7fba b697 27bd a72f 5abd
000000b0: 85fc f2b3 0501 c5bc dc74 0aba 506b 54be
000000c0: 994d efbe 3573 23b7 e2d9 4ebf 4ff4 4eb9
000000d0: df3e abbd 16b2 14b7 f885 8fb9 a4fa 14b6
000000e0: 7672 04bc 4535 d5bd cc92 8fbb baba 80bf
000000f0: 466a dabe 40a1 ffbc ed0f 54bb e36a 35bb
-0.4955706 -0.035365716 -0.828821 -3.2289134e-09 -0.93221533 -0.17837359 -1.3290963 0.0
-1.3467987 -0.0006765915 -0.8800868 -0.048025005 -0.43192703 -0.000118587086 -1.7742497e-11 -0.74023634
-0.56945837 -1.2717307 -3.499478e-15 -1.44098206e-11 -0.42010733 -0.009425317 -0.481886 -0.1995573
-0.12446219 -0.043048296 -1.2866042 -0.0021762247 -7.214689e-08 -0.022686101 -0.0123012215 0.0
-0.09952865 -0.15933824 -0.2731952 -0.09258116 -0.049866933 -0.0067306403 -0.002307985 -0.7332169
-0.0057609905 -0.00097421947 -0.040916167 -0.0532681 -1.1314936e-07 -0.024048338 -0.00052816956 -0.20744061
-0.4673889 -9.742381e-06 -0.8080121 -0.00019736703 -0.08361601 -8.862951e-06 -0.000273749 -2.219961e-06
-0.00808393 -0.10410551 -0.004381513 -1.0056984 -0.42659205 -0.03120482 -0.0032358125 -0.0027682118
