src/willse_backgammon/AI_Agents/Saved_NNs/01-0000-0003.pt (torch, 27450 bytes, 5 tensors)

forward_pass.0.weight f4 [64, 29]
0.16246226 0.103128836 -0.18146864 -0.041267943 -0.108500615 0.021211894 -0.010756428 0.17922828
0.108978294 0.046972167 -0.07382931 -0.07034129 0.15513313 0.15560852 -0.0019664648 0.12055509
-0.074264795 0.00090424257 -0.03914036 0.062706985 0.08776715 -0.04819585 0.087294266 -0.14545035
0.03000297 -0.059446223 -0.19476509 -0.09163624 -0.1279494 -0.15446429 -0.20196752 -0.0045561944
-0.042896982 -0.16455127 0.0051935753 0.16697867 0.14955929 -0.12179844 -0.18403716 -0.07151146
0.062395003 0.031127993 -0.089073315 -0.13192427 0.11584632 0.09918116 0.0999164 -0.027061809
-0.010853077 -0.056294467 0.049733624 -0.06151664 0.05959914 -0.11798994 0.08660117 -0.078440845
-0.011224835 -0.0027768242 -0.35627362 -0.05264629 -0.005869615 -0.05731774 -0.094878584 0.19846533
-0.032317005 0.11085618 0.0007544828 0.04001441 0.033283703 0.016294818 0.0026803908 -0.044968337
0.1824034 0.023797426 0.049706765 0.07774165 0.016964622 0.03960308 0.1067136 0.03079808
0.046898644 -0.031288363 0.0355503 -0.046473887 -0.056018736 -0.054175425 0.08753701 0.016061833
0.06865433 0.09535464 -0.14738834 0.051496167 0.032046117 0.018899817 -0.12807517 0.16578686
0.13947727 0.13326673 -0.06892854 -0.016038245 0.0071802684 0.039640818 0.19743113 -0.11107356
-0.03824436 -0.07382643 0.067860514 0.13292602 0.16377555 -0.0700367 0.03847601 -0.10031312
0.079682305 0.31510878 -0.123168655 0.17870368 0.2389958 -0.12444882 0.09574702 0.18619804
0.13756517 -0.03304199 0.13539131 0.060261354 -0.02291017 -0.1131055 -0.019632915 0.1646962
-0.10390156 0.014138117 -0.049746986 -0.04033973 -0.06773215 -0.050542988 0.012690344 -0.029136429
0.119840406 0.040388424 0.073567204 0.0017489046 0.013705666 -0.03750256 -0.1725633 0.11454962
-0.11183802 0.059207752 -0.034265816 -0.055364475 0.010363978 0.168821 -0.079404406 0.040410407
0.13942565 0.02967065 -0.1343947 -0.045082748 -0.11852442 -0.15500675 -0.069583766 -0.008860834
0.08322224 -0.09326393 -0.027993387 -0.14264816 -0.032924835 -0.15759318 -0.066082306 0.084834605
-0.08534124 0.09967989 0.015725676 0.083954096 -0.09423231 0.12824202 -0.03814762 -0.023441656
-0.095173046 0.051355787 0.09944765 -0.078918 -0.0921126 0.07181645 -0.09405754 0.10272674
-0.065986104 0.0779231 0.0355868 -0.08087899 0.16841267 -0.024081053 -0.113236085 0.00212558
0.28414214 0.0032386077 0.29674497 0.087927185 -0.10144437 -0.21733242 0.043774392 0.020862095
0.36073646 -0.0997396 -0.2785244 -0.29720983 0.07738061 0.039958406 -0.06698304 -0.13163674
0.39695713 0.116567954 -0.09190296 0.122303315 0.021593258 0.09988257 -0.071726054 0.10136378
0.09514349 -0.0750576 0.0117055625 0.023847392 -0.053314112 -0.059361354 -0.1060679 0.0063503063
0.06359836 -0.009101693 0.058415413 0.22986253 -0.07893808 -0.3560272 0.12984864 -0.016745351
0.094944514 -0.30291113 0.18406254 0.053217217 -0.11377242 0.07860933 -0.08581935 0.09410311
0.14860627 -0.05673147 -0.061287735 -0.17421894 -0.11182924 -0.05957204 0.01917409 -0.060879037
0.1092405 0.14181429 -0.0069257724 -0.11502324 0.023692288 0.12784486 0.097156726 0.119154245
00000000: 825c 263e 3635 d33d ead2 39be 9308 29bd
00000010: 9235 debd 91c4 ad3c bb3b 30bc 9e87 373e
00000020: 0330 df3d e365 403d d233 97bd 180f 90bd
00000030: 38db 1e3e d757 1f3e cedf 00bb 96e5 f63d
00000040: 2418 98bd b10a 6d3a a451 20bd 856c 803d
00000050: 43bf b33d 0369 45bd 56c7 b23d f0f0 14be
00000060: cac8 f53c e27d 73bd 8070 47be c8ab bbbd
00000070: 2b05 03be e32b 1ebe 93d0 4ebe 214c 95bb
00000080: bfb4 2fbd 2180 28be de2e aa3b 75fc 2a3e
00000090: 1226 193e 7671 f9bd 3d74 3cbe 9a74 92bd
000000a0: e791 7f3d 2200 ff3c 126c b6bd 2817 07be
000000b0: d640 ed3d 7e1f cb3d f8a0 cc3d bab0 ddbc
000000c0: 1bd1 31bc 0795 66bd 7cb5 4b3d dff8 7bbd
000000d0: 3a1e 743d b6a4 f1bd f45b b13d 98a5 a0bd
000000e0: 5fe8 37bc 61fb 35bb 7f69 b6be a3a3 57bd
000000f0: e655 c0bb 02c6 6abd b44f c2bd 7f3a 4b3e
00000100: d65e 04bd 9108 e33d 7cc8 453a 26e6 233d
00000110: 7e54 083d b67c 853c 7fa9 2f3b b830 38bd
00000120: f5c7 3a3e d2f2 c23c 5299 4b3d 0437 9f3d
00000130: 64f9 8a3c d736 223d a98c da3d 414c fc3c
00000140: cb18 403d 3a28 00bd 319d 113d 675b 3ebd
00000150: e773 65bd 0de7 5dbd 9b46 b33d 1b94 833c
00000160: a49a 8c3d 4b49 c33d f8ec 16be a5ed 523d
00000170: ca42 033d cad3 9a3c 2326 03be 08c4 293e
00000180: 21d3 0e3e 1377 083e 682a 8dbd a362 83bc
00000190: 7548 eb3b 695e 223d 632b 4a3e 897a e3bd
000001a0: 1ea6 1cbd 5032 97bd 74fa 8a3d c21d 083e
000001b0: c7b4 273e 676f 8fbd 0599 1d3d f770 cdbd
000001c0: 7a30 a33d f055 a13e d93f fcbd 19fe 363e
000001d0: 51bb 743e 06df febd 0317 c43d b3aa 3e3e
000001e0: e2dd 0c3e 0a57 07bd 05a4 0a3e 9cd4 763d
000001f0: 1cae bbbc dba3 e7bd 35d5 a0bc 1fa6 283e
00000200: 57ca d4bd 90a3 673c 7fc3 4bbd 463b 25bd
00000210: 27b7 8abd 2a06 4fbd 29eb 4f3c 85af eebc
00000220: e36e f53d 556e 253d 67aa 963d 803b e53a
00000230: bb8d 603c 499c 19bd 6fb4 30be fe98 ea3d
00000240: 550b e5bd d483 723d 505a 0cbd dcc5 62bd
00000250: adcd 293c 6adf 2c3e c79e a2bd 6285 253d
00000260: 99c5 0e3e dd0f f33c c49e 09be b0a8 38bd
00000270: eebc f2bd 17ba 1ebe ef81 8ebd 082d 11bc
00000280: 6c70 aa3d 2901 bfbd 6352 e5bc 5c12 12be
00000290: 31dc 06bd 1b60 21be 2956 87bd c4bd ad3d
000002a0: 63c7 aebd f824 cc3d 22d3 803c 20f0 ab3d
000002b0: dffc c0bd e051 033e ae40 1cbd b708 c0bc
000002c0: 16ea c2bd 725a 523d 36ab cb3d c39f a1bd
000002d0: 88a5 bcbd 8114 933d 3da1 c0bd 6662 d23d
000002e0: b923 87bd 2596 9f3d 77c3 113d e2a3 a5bd
000002f0: 5f74 2c3e a145 c5bc 52e8 e7bd 514d 0b3b
00000300: 147b 913e d23e 543b f5ee 973e 2b13 b43d
00000310: 11c2 cfbd 648c 5ebe c74c 333d fce6 aa3c
00000320: 73b2 b83e 4744 ccbd c09a 8ebe e32b 98be
00000330: ba79 9e3d 6dab 233d 672e 89bd c8cb 06be
00000340: f73d cb3e 2ebb ee3d 9e37 bcbd 297a fa3d
00000350: 58e4 b03c 3c8f cc3d 1ce5 92bd d097 cf3d
00000360: 97da c23d cdb7 99bd b0c8 3f3c 9b5b c33c
00000370: e65f 5abd e424 73bd 213a d9bd 3b16 d03b
00000380: db3f 823d 441f 15bc 0045 6f3d 1561 6b3e
00000390: 4aaa a1bd 3249 b6be 0bf7 043e 8c2d 89bc
000003a0: 4572 c23d 2b17 9bbe e47a 3c3e 4cfa 593d
000003b0: 8401 e9bd eefd a03d 0ec2 afbd 22b9 c03d
000003c0: 3e2c 183e 425f 68bd d908 7bbd 7366 32be
000003d0: bb06 e5bd d001 74bd fb12 9d3c 4c5c 79bd
000003e0: 7cb9 df3d c437 113e 97f1 e2bb 4e91 ebbd
000003f0: 5416 c23c c3e9 023e 1bfa c63d 2407 f43d

forward_pass.0.bias f4 [64]
0.031084826 -0.070797145 -0.0031457106 -0.111771524 0.035472482 0.086456664 -0.088009775 -0.061525587
0.035471972 -0.13984121 -0.1625345 -0.16536012 -0.026280407 -0.06556695 -0.04647952 0.1202265
0.16162236 0.1625281 -0.06389726 0.1789326 -0.05374939 -0.15814584 -0.17761458 -0.039986815
-0.13955085 0.06485488 -0.0469158 0.07554743 -0.06791504 -0.057188578 0.055715803 0.11826277
-0.036965303 0.034995355 0.042227693 0.058147606 -0.14622027 0.1371727 -0.037766792 0.11357064
-0.084568106 -0.057516556 0.17405112 0.037684765 -0.05128338 -0.11741027 0.014152391 -0.08891726
-0.0062130317 0.18059406 0.07415403 -0.19073005 -0.12447389 0.0047074924 -0.087186985 -0.14114869
-0.06664062 0.039284807 0.021111034 -0.14126138 -0.13006568 0.078390874 -0.17520703 0.13775116
00000000: 9ba5 fe3c 18fe 90bd 4428 4ebb 78e8 e4bd
00000010: 984b 113d 3110 b13d 783e b4bd 4102 7cbd
00000020: 0f4b 113d 8932 0fbe 726f 26be 2a54 29be
00000030: 024a d7bc f747 86bd 4f61 3ebd 5039 f63d
00000040: 5580 253e c46d 263e 91dc 82bd 1c3a 373e
00000050: 5228 5cbd fcf0 21be 99e0 35be 37c9 23bd
00000060: 6be6 0ebe a3d2 843d c82a 40bd 9cb8 9a3d
00000070: 0a17 8bbd 923e 6abd 4136 643d c033 f23d
00000080: ee68 17bd 4a57 0f3d f2f6 2c3d 2f2c 6e3d
00000090: c4ba 15be 0077 0c3e 5ab1 1abd b997 e83d
000000a0: 0b32 adbd 7b96 6bbd 753a 323e 575b 1a3d
000000b0: 850e 52bd cc74 f0bd 6edf 673c 411a b6bd
000000c0: b096 cbbb a6ed 383e 11de 973d bd4e 43be
000000d0: 2bec febd 4f41 9a3b 178f b2bd 4889 10be
000000e0: e17a 88bd 1be9 203d 0cf1 ac3c d3a6 10be
000000f0: f02f 05be 658b a03d 7969 33be a40e 0d3e

forward_pass.2.weight f4 [64, 64]
0.07447684 -0.031967074 0.103412695 -0.11131588 0.012174841 0.04131076 0.07907865 -0.09330515
0.05286322 0.01671416 -0.03273338 0.045410827 -0.077582695 0.010503226 -0.09693488 -0.0085133705
-0.084299825 0.05010668 0.09246991 0.054155234 -0.09580152 0.039845318 0.08445643 0.041813713
-0.12457424 0.053974353 0.022928197 -0.10388302 0.021628022 -0.013177016 0.110401765 -0.03218138
0.07191471 -0.01930477 0.021239158 -0.11070626 -0.0726532 -0.124775074 0.026317272 -0.05434421
0.067354225 0.08376202 -0.12850015 -0.059369434 0.07947742 -0.09283218 -0.120987326 -0.031699695
0.034940537 0.051465664 -0.071883276 0.11788297 0.08333983 -0.12606975 -0.069636405 0.028241917
-0.031748828 -0.106434725 -0.033433642 -0.014040756 -0.11608495 0.004844654 0.059242148 -0.10789206
0.02811225 0.07419629 0.063592575 -0.124955036 -0.09503889 0.12416467 0.006825814 -0.06892629
0.06292775 0.07673666 -0.034352493 -0.056345414 -0.10817437 0.08143997 -0.09629062 0.03533881
0.0053544836 -0.09682957 0.016322844 -0.0057686283 -0.0040582786 0.1159054 0.106688924 -0.03595159
0.09331055 -0.11752372 0.01346418 0.009701092 -0.020014314 -0.015322355 -0.024828453 -0.014002416
0.023947956 -0.06431452 0.091799945 -0.074832685 0.09722966 0.039294455 0.0072821504 -0.085398704
-0.07550261 -0.024055662 -0.05171721 -0.07583077 -0.0039756116 0.073018484 -0.011575933 -0.08233664
0.095033266 0.038151693 0.015153454 0.09831441 0.030702775 0.087056726 -0.038629085 -0.08502581
0.01952167 -0.04508195 0.0022144015 0.09047822 -0.06273273 -0.030763708 -0.022307884 -0.053622298
-0.10875582 -0.112979 0.061562702 -0.05629457 -0.06211628 0.07965351 -0.008774285 -0.017124325
0.007954168 0.03678614 -0.018196352 -0.070992514 0.08976177 0.0056596403 0.043850742 0.01130249
0.11710624 -0.02856554 -0.07347238 -0.005148697 0.11544683 -0.089038886 0.07491315 -0.078398615
-0.033974 -0.038101964 0.102743596 0.061257605 0.019642059 -0.014996657 -0.09786316 0.0452515
-0.115656935 0.10278702 0.11753925 0.094789915 0.012953599 0.07758525 0.017902073 0.008991633
-0.025140513 0.10857057 -0.015491644 0.08831613 -0.06765175 0.07168624 0.018821748 0.052738916
-0.09332043 -0.028635489 0.03238113 -0.10970447 -0.035214685 0.013497445 -0.07995285 -0.11143118
0.07469525 0.048249666 0.02658978 -0.09925368 -0.07884795 -0.12929909 0.068295345 -0.1003412
0.062480487 -0.023387054 0.07428036 -0.10734853 -0.07787146 -0.0074420534 -0.066794 -0.028929578
-0.044006642 -0.061663743 0.091158815 0.07537785 -0.05547314 0.016378386 -0.054718427 -0.004072876
-0.037118077 -0.04468644 -0.08051767 -0.0152244875 0.10706308 -0.012291928 0.076959275 -0.11037662
-0.10945266 -0.062430434 -0.070255466 -0.121988125 -0.115759015 -0.08775332 -0.03237047 0.031103574
0.058866873 0.09227702 0.099214606 0.035777096 -0.04360741 0.052410748 0.04051328 0.009689116
-0.017185997 0.019705204 -0.07135758 0.044303045 -0.120725624 0.09527715 -0.07306922 0.026495429
0.08572187 0.06721625 -0.09811924 -0.063914016 -0.09561101 -0.09930285 0.055827405 -0.11480243
0.11122844 0.0092710145 0.017884267 -0.05886299 -0.06385031 -0.06807087 -0.09405753 0.06647737
00000000: 5087 983d e8ef 02bd 09ca d33d 95f9 e3bd
00000010: fc78 473c 7935 293d fdf3 a13d c516 bfbd
00000020: 1b87 583d 22ec 883c 7013 06bd b400 3a3d
00000030: ade3 9ebd b915 2c3c cb85 c6bd aa7b 0bbc
00000040: 63a5 acbd a93c 4d3d dd60 bd3d e1d1 5d3d
00000050: 9633 c4bd d834 233d 7ef7 ac3d db44 2b3d
00000060: c720 ffbd 3614 5d3d ead3 bb3c 9fc0 d4bd
00000070: 402d b13c 69e4 57bc 521a e23d 9fd0 03bd
00000080: 0548 933d 0925 9ebc befd ad3c f7b9 e2bd
00000090: 33cb 94bd 138a ffbd 5297 d73c 0998 5ebd
000000a0: 03f1 893d 6c8b ab3d 8b95 03be 5d2d 73bd
000000b0: 0fc5 a23d cc1e bebd 34c8 f7bd 8ad7 01bd
000000c0: cf1d 0f3d a9cd 523d 8a37 93bd a06c f13d
000000d0: 13ae aa3d 6e18 01be 889d 8ebd 985b e73c
000000e0: 0f0b 02bd 73fa d9bd b7f1 08bd 330b 66bc
000000f0: f2bd edbd e7bf 9e3b e5a7 723d 83f6 dcbd
00000100: a94b e63c 39f4 973d d33c 823d 6de8 ffbd
00000110: c0a3 c2bd 0c4a fe3d 14ab df3b 3a29 8dbd
00000120: 44e0 803d 1c28 9d3d 33b5 0cbd 73ca 66bd
00000130: 868a ddbd 00ca a63d 0434 c5bd 6ebf 103d
00000140: aa74 af3b 954e c6bd 7cb7 853c c306 bdbb
00000150: 4ffb 84bb cf5f ed3d b97f da3d f941 13bd
00000160: 9a19 bf3d 47b0 f0bd dd98 5c3c 54f1 1e3c
00000170: 0ff5 a3bc 9d0a 7bbc 0a65 cbbc 646a 65bc
00000180: 812e c43c 55b7 83bd 9c01 bc3d e141 99bd
00000190: 5820 c73d 39f3 203d 1b9f ee3b 84e5 aebd
000001a0: 1da1 9abd 6110 c5bc 6dd5 53bd 2a4d 9bbd
000001b0: d945 82bb b78a 953d fba8 3dbc 1da0 a8bd
000001c0: cda0 c23d f344 1c3d 3146 783c 1159 c93d
000001d0: 6384 fb3c cc4a b23d 8839 1ebd 0322 aebd
000001e0: e9eb 9f3c daa7 38bd 7e1f 113b a54c b93d
000001f0: 047a 80bd 2c04 fcbc 06bf b6bc 0ea3 5bbd
00000200: 5fbb debd 8961 e7bd 2c29 7c3d 2395 66bd
00000210: a46d 7ebd 6121 a33d 05c2 0fbc 5048 8cbc
00000220: 3352 023c 10ad 163d 8410 95bc 8664 91bd
00000230: 05d5 b73d 8174 b93b d69c 333d 142e 393c
00000240: 65d5 ef3d 4802 eabc b078 96bd 67b6 a8bb
00000250: 636f ec3d 055a b6bd 116c 993d 748f a0bd
00000260: 5228 0bbd ce10 1cbd 3c6b d23d 41e9 7a3d
00000270: 62e8 a03c 8ab4 75bc 7b6c c8bd a359 393d
00000280: 8bdd ecbd 0082 d23d 6bb8 f03d 3721 c23d
00000290: 553b 543c 04e5 9e3d 5ea7 923c a451 133c
000002a0: 7af3 cdbc 3f5a de3d aad0 7dbc 16df b43d
000002b0: 008d 8abd 3cd0 923d 1130 9a3c c304 583d
000002c0: c81e bfbd f994 eabc 13a2 043d bdac e0bd
000002d0: 463d 10bd 6324 5d3c 52be a3bd 0836 e4bd
000002e0: d3f9 983d 71a1 453d cfd2 d93c 8345 cbbd
000002f0: 097b a1bd fb66 04be 6ede 8b3d b07f cdbd
00000300: 8aeb 7f3d 3596 bfbc 4d20 983d 8cd9 dbbd
00000310: 127b 9fbd 78dc f3bb 4bcb 88bd b9fd ecbc
00000320: 4f40 34bd 1f93 7cbd 79b1 ba3d b45f 9a3d
00000330: ce37 63bd f72b 863c 6e20 60bd c375 85bb
00000340: 2009 18bd 2109 37bd 73e6 a4bd 2170 79bc
00000350: e343 db3d 1564 49bc d39c 9d3d 230d e2bd
00000360: b728 e0bd 0eb7 7fbd 19e2 8fbd e9d4 f9bd
00000370: 1013 edbd 03b8 b3bd e696 04bd eccc fe3c
00000380: 641e 713d bcfb bc3d 0731 cb3d 018b 123d
00000390: af9d 32bd a7ac 563d 41f1 253d 19bf 1e3c
000003a0: a6c9 8cbc cf6c a13c ec23 92bd 1c77 353d
000003b0: ff3e f7bd ab20 c33d 51a5 95bd f10c d93c
000003c0: f38e af3d aca8 893d bdf2 c8bd 5ae5 82bd
000003d0: b5cf c3bd 4b5f cbbd 47ab 643d 891d ebbd
000003e0: bdcb e33d 74e5 173c 0782 923c 521a 71bd
000003f0: f4c3 82bd be68 8bbd 3ca1 c0bd 4a25 883d

forward_pass.2.bias f4 [64]
0.06012382 0.10615417 0.027672302 -0.06466229 -0.055950996 -0.09276907 -0.08636514 0.06310633
0.061564263 0.08632336 -0.05795563 -0.06984043 0.05221386 0.08822253 0.037669484 0.06514453
-0.0950448 0.12922925 -0.009264753 -0.064312294 -0.034826826 -0.06584095 0.12483351 0.017946938
0.03062878 0.1067979 0.029799 -0.078116365 -0.048690412 0.1086465 0.07474576 -0.012828018
0.018430304 -0.022481397 0.00020085394 -0.11243908 -0.06840992 -0.03884714 0.0031296648 -0.060593776
-0.013886672 -0.12452073 0.02217753 0.05287495 -0.091117114 0.08370564 -0.11420975 -0.011625369
0.068937995 -0.0015040103 0.104591414 -0.06567029 0.110374324 0.03515127 -0.012240734 0.052190036
0.03669133 0.10399889 -0.010720406 0.071574114 -0.087030634 -0.04513339 -0.0069229053 -0.06549354
00000000: 6544 763d 5c67 d93d 06b1 e23c aa6d 84bd
00000010: df2c 65bd b6fd bdbd 35e0 b0bd e43d 813d
00000020: cf2a 7c3d 4dca b03d e262 6dbd 8008 8fbd
00000030: 33de 553d 04ae b43d 514b 1a3d 7f6a 853d
00000040: d9a6 c2bd ac54 043e 31cb 17bc 2ab6 83bd
00000050: 93a6 0ebd 9fd7 86bd b6a8 ff3d 7505 933c
00000060: 35e9 fa3c dbb8 da3d 081d f43c 79fb 9fbd
00000070: 996f 47bd 0e82 de3d 4e14 993d 9b2c 52bc
00000080: 26fb 963c e82a b8bc 529c 5239 7646 e6bd
00000090: 801a 8cbd 2e1e 1fbd 101b 4d3b 2e31 78bd
000000a0: ed84 63bc b904 ffbd a7ad b53c 6793 583d
000000b0: 9c9b babd dd6d ab3d cde6 e9bd 5578 3ebc
000000c0: 5d2f 8d3d 3622 c5ba 0634 d63d 257e 86bd
000000d0: ef0b e23d c7fa 0f3d 5c8d 48bc 38c5 553d
000000e0: a649 163d 5ffd d43d a4a4 2fbc 7395 923d
000000f0: 1e3d b2bd cadd 38bd 8ad9 e2bb 7a21 86bd

forward_pass.4.weight f4 [1, 64]
-0.09678164 0.016971407 0.05768008 -0.05386338 0.26097065 -0.093834914 -0.13304925 -0.039611343
0.103038885 0.28032014 -0.35370678 0.26862147 -0.2110332 -0.09659302 -0.05356316 -0.15399502
-0.0265415 -0.31239206 -0.15286478 0.015819214 -0.113899305 0.18634216 -0.15302333 -0.095627524
-0.015527714 -0.062610574 0.11458559 -0.071121745 -0.0079727825 0.014134308 -0.087174445 0.0973716
0.10064868 -0.14388698 0.04572681 0.2653204 -0.029599132 0.07423378 -0.037110034 0.004959181
0.0756804 0.22243157 -0.14981963 0.061022874 -0.0781803 -0.30730727 0.04652229 -0.30649382
-0.2938267 -0.19915988 -0.1915922 -0.08273781 -0.0057663284 0.18537767 -0.0053693666 -0.019654527
0.17044614 -0.01656232 -0.029106863 0.102132685 0.3399896 -0.09318947 -0.076315984 0.05979505
00000000: 7435 c6bd 9f07 8b3c f341 6c3d d99f 5cbd
00000010: f29d 853e 852c c0bd 103e 08be 813f 22bd
00000020: 0d06 d33d 1f86 8f3e 0e19 b5be c188 893e
00000030: 1619 58be 90d2 c5bd 0b65 5bbd dfb0 1dbe
00000040: 8f6d d9bc daf1 9fbe 9688 1cbe 4c97 813c
00000050: 0a44 e9bd 7bd0 3e3e 26b2 1cbe 5dd8 c3bd
00000060: f467 7ebc f939 80bd daab ea3d 47a8 91bd
00000070: 46a0 02bc 9693 673c 8488 b2bd c36a c73d
00000080: e520 ce3d 1c57 13be 094c 3b3d 13d8 873e
00000090: e179 f2bc e107 983d b100 18bd a080 a23b
000000a0: 53fe 9a3d 1ac5 633e 516a 19be 1ff3 793d
000000b0: fe1c a0bd 6157 9dbe 288e 3e3d c2ec 9cbe
000000c0: 7470 96be 91f0 4bbe bf30 44be 7172 a9bd
000000d0: 78f3 bcbb a5d3 3d3e 83f1 afbb 8802 a1bc
000000e0: 6f89 2e3e b4ad 87bc 8471 eebc f12a d13d
000000f0: 1e13 ae3e 1fda bebd 8e4b 9cbd a8eb 743d
