src/willse_backgammon/AI_Agents/Saved_NNs/01-0000-0002.pt (torch, 27450 bytes, 5 tensors)

forward_pass.0.weight f4 [64, 29]
0	0x3e55a831	0.20864941
1	0x3d3c8e0d	0.046033908
2	0xbe258415	-0.16163667
3	0xbd5f70f9	-0.0545511
4	0xbdd74173	-0.1051053
5	0xbd26b864	-0.040703192
6	0xbb3f6f42	-0.0029210602
7	0x3e214f1b	0.15752833
8	0x3deb8ac9	0.115010805
9	0x3d5095ae	0.050923996
10	0xbd8a9899	-0.06767387
11	0xbd63d288	-0.0556207
12	0x3e0558e0	0.13022184
13	0x3e24e53a	0.16103068
14	0xbb6dcac0	-0.0036284178
15	0x3df73041	0.120697506
16	0xbd8739a6	-0.066027924
17	0x3b2a67ae	0.002600174
18	0xbcbc2545	-0.02296699
19	0x3d52e06f	0.051483568
20	0x3dd3640c	0.10321817
21	0xbd5970c4	-0.053086057
22	0x3da8192f	0.082079284
23	0xbdeed75b	-0.116621695
24	0x3d0386fa	0.032111146
25	0xbd70a561	-0.058751468
26	0xbe615f76	-0.22009072
27	0xbdc807ea	-0.097671345
28	0xbe260faf	-0.1621692
29	0xbe0d1a2a	-0.13779512
30	0xbe8c08e5	-0.27350536
31	0xbbbea5c1	-0.0058180992
32	0xbc640bfc	-0.013918873
33	0xbe1c2a5b	-0.15250532
34	0x3ba3ac5b	0.0049949116
35	0x3e3ed221	0.18634845
36	0x3e095e06	0.13414773
37	0xbdc243d4	-0.094855934
38	0xbe2e8a82	-0.17045024
39	0xbd5e80af	-0.05432194
40	0x3d8f50c2	0.06997825
41	0x3d1e5ae1	0.038660888
42	0xbdaf6b39	-0.08565373
43	0xbe023dc3	-0.12718873
44	0x3dbe78cd	0.09300385
45	0x3d8a3f07	0.06750303
46	0x3db2fa07	0.08739095
47	0xbd27de9b	-0.040983777
48	0xbc194e7f	-0.009357094
49	0xbd92b62a	-0.07163651
50	0x391bd5ce	0.000148616
51	0xbc872d15	-0.016500989
52	0x3c507072	0.012722122
53	0xbe11925f	-0.14215992
54	0x3dd9c266	0.10632782
55	0xbdc9e81d	-0.09858725
56	0x3ab6c308	0.0013943622
57	0xbb76e29a	-0.0037671686
58	0xbe0b4669	-0.13601078
59	0xbcba8d95	-0.02277259
60	0xbb369f1f	-0.002786584
61	0xbd912a0d	-0.07088099
62	0xbe050d61	-0.12993385
63	0x3dfc59c1	0.12321807
64	0xbca86568	-0.020556167
65	0x3dba0ca2	0.09084441
66	0xbba7e274	-0.005123431
67	0x3d3c7a80	0.046015263
68	0x3d278c65	0.040905375
69	0x3b9faf59	0.004873198
70	0xbd191300	-0.037371635
71	0xbcd55337	-0.026040656
72	0x3e39f3a6	0.18159351
73	0x3d0b27e9	0.03397361
74	0x3dabbe85	0.08385948
75	0x3dfe4b0e	0.12416659
76	0x3c4b556c	0.012410503
77	0x3ac3bd52	0.0014933741
78	0x3e316df8	0.17327106
79	0xbd37488d	-0.044746924
80	0x3dd858bd	0.105638005
81	0xbe2714cc	-0.16316527
82	0x3c1ac97c	0.009447452
83	0xbc911a0c	-0.017712615
84	0xbd15ad5e	-0.03654229
85	0xbe1aab9a	-0.15104523
86	0x3e0d33a8	0.13789237
87	0x3d49650a	0.049168624
88	0x3d18194a	0.037133493
89	0x3dc3c083	0.09558203
90	0xbe2dfbb7	-0.16990553
91	0x3cb3d736	0.021953207
92	0x3df0e162	0.11761738
93	0x3c8b3628	0.016993597
94	0xbde913e6	-0.113807485
95	0x3e4164c5	0.18886097
96	0x3dee1870	0.11625755
97	0x3df77f68	0.12084848
98	0xbe25dbb6	-0.16197094
99	0x3d59ea06	0.053201698
100	0x3d021748	0.031760484
101	0x3d49ed19	0.04929838
102	0x3e381c19	0.17979468
103	0xbd61f7c8	-0.055167943
104	0x3b4112f8	0.002946077
105	0xbd951592	-0.07279505
106	0x3db8bef2	0.09020795
107	0x3e24cb77	0.1609324
108	0x3d2cec06	0.042217277
109	0x3d87e7ec	0.066360325
110	0x3df3f562	0.119120374
111	0xbd5e710a	-0.05430702
112	0x3dcee767	0.1010273
113	0x3ede4f7c	0.43420017
114	0xbe80b988	-0.2514155
115	0x3e850500	0.25980377
116	0x3dbc8891	0.092057355
117	0xbe1df32e	-0.15424797
118	0x3dcca91b	0.09993192
119	0x3e3ec5df	0.1863017
120	0x3e17987b	0.1480426
121	0x3d9905b4	0.07471791
122	0x3deaf8ad	0.114732124
123	0x3d840026	0.06445341
124	0xbd6f4efb	-0.05842493
125	0xbe05305c	-0.13006729
126	0xbc0a1361	-0.008427472
127	0x3e15cd50	0.14629102
128	0xbd567230	-0.05235499
129	0x3be4a2c0	0.006977409
130	0xbd68ecee	-0.05686658
131	0xbd234b35	-0.039866645
132	0xbdae85e6	-0.08521633
133	0xbd061448	-0.032734185
134	0xbc89cf98	-0.016822621
135	0x3a337b78	0.00068467064
136	0x3db2c38a	0.08728702
137	0x3d929654	0.07157579
138	0x3dbb5e20	0.09148812
139	0x3d10e0d0	0.035370648
140	0x3bc80bd1	0.0061049243
141	0xbd77c5f0	-0.060491502
142	0xbe938c7e	-0.28818125
143	0x3d65fb2a	0.05614773
144	0xbdf7aec8	-0.12093884
145	0x3d91f787	0.0712729
146	0xbd8b2699	-0.06794471
147	0xbdad7acf	-0.084706895
148	0x3bc80c92	0.006105014
149	0x3e48c47d	0.19606204
150	0xbd6da815	-0.058021624
151	0x3d23e980	0.040017605
152	0x3e06e058	0.13171518
153	0x3cc8b210	0.02449897
154	0xbe0ddf6a	-0.13854757
155	0xbd2d8d23	-0.042370927
156	0xbdf88684	-0.12135032
157	0xbe24c11b	-0.16089289
158	0xbd8c107a	-0.0683908
159	0xbc635c37	-0.013876966
160	0x3dabcd99	0.08388824
161	0xbdb6d9e8	-0.08928281
162	0xbd025571	-0.031819765
163	0xbe028591	-0.12746264
164	0xbcfe22a2	-0.031022374
165	0xbe227976	-0.15866646
166	0xbd1cd57b	-0.03828953
167	0x3d072424	0.03299345
168	0xbd2a1013	-0.041519236
169	0x3dd31485	0.10306648
170	0x3c5388b6	0.012911012
171	0x3d3e60cc	0.04647903
172	0xbe0343fc	-0.12818903
173	0x3de4e475	0.11176387
174	0x3cd31b0c	0.025769733
175	0x3d0772e7	0.033068564
176	0x3c6dd8b7	0.014517001
177	0x3cdce1fe	0.02696323
178	0x3d32da12	0.043665
179	0x3c9d85d5	0.019228855
180	0xbd9faee4	-0.077970296
181	0x3da9782a	0.082748726
182	0xbd3662a8	-0.04452768
183	0x3dc52a4f	0.0962721
184	0xbd5cec30	-0.053936183
185	0x3c5525a5	0.013009463
186	0x3ddc58c7	0.107591204
187	0xbd5ee611	-0.054418627
188	0x3e13454b	0.14381902
189	0x3c37115b	0.011173571
190	0xbd3c1afd	-0.045924176
191	0x3da49a08	0.08037192
192	0x3df31dbb	0.11870905
193	0x3da4855f	0.08033251
194	0x3e138150	0.14404798
195	0x3c18d4d7	0.009328089
196	0x3d2b99fb	0.041894894
197	0xbecbb280	-0.39784622
198	0x3d8eb1ca	0.06967504
199	0x3dd9e4e7	0.10639363
200	0x3ed5c94c	0.4175514
201	0xbe871bbb	-0.26388344
202	0xbe316332	-0.17322996
203	0xbeb1e814	-0.34747374
204	0x3d9c745d	0.07639382
205	0x3d632f55	0.05546506
206	0xbd150eaf	-0.036390956
207	0xbe2f1b19	-0.1710018
208	0x3e735d7f	0.23766135
209	0x3e1ccab7	0.15311705
210	0xbdb42f05	-0.08798031
211	0x3e1034e0	0.1408267
212	0x3d8bbd27	0.06823187
213	0x3de08357	0.10962551
214	0xbd25eb95	-0.04050787
215	0x3d49ca17	0.049264994
216	0x3d9a8655	0.07545153
217	0xbd8458cc	-0.06462249
218	0x3cd30869	0.025760846
219	0x3afa5b82	0.0019100758
220	0xbd29c7e1	-0.041450385
221	0xbdbc8b18	-0.092062175
222	0xbddabf99	-0.106810756
223	0x3cdd099e	0.026982125
224	0x3ceb9601	0.02875805
225	0xbb8568c6	-0.004071328
226	0x3c9cddf9	0.019148814
227	0x3e1a8496	0.1508964
228	0xbd4f8d16	-0.05067166
229	0xbefd2ac1	-0.4944668
230	0x3da58d5c	0.08083603
231	0xbd1eb85c	-0.038750038
232	0x3dedd6c4	0.11613229
233	0xbea77648	-0.3270743
234	0x3db50547	0.08838897
235	0x3dd40d87	0.10354143
236	0xbdc9a5ac	-0.098460525
237	0x3d977bb4	0.073966414
238	0xbdbb2f58	-0.091398895
239	0x3d9c6cbf	0.07637929
240	0x3e1d6f6a	0.15374532
241	0xbd4c11c6	-0.049821638
242	0xbd2c8612	-0.042120047
243	0xbe1be58c	-0.15224284
244	0xbde1fdfa	-0.1103477
245	0xbd520f9b	-0.051284414
246	0x3cb68e5d	0.022284681
247	0xbd8ba8f1	-0.068193324
248	0x3da33222	0.079685465
249	0x3e05e4a8	0.13075507
250	0xba742b2c	-0.00093142944
251	0xbdccff8e	-0.10009681
252	0xbb9dd859	-0.0048170504
253	0x3df6ac53	0.12044587
254	0x3dc5fe67	0.09667664
255	0x3e0019b7	0.1250981

forward_pass.0.bias f4 [64]
0	0x3d3cc327	0.04608455
1	0xbd5f5d8f	-0.054532584
2	0x3cb884ef	0.022524325
3	0xbe034ee8	-0.12823069
4	0x3d8b0a82	0.067891136
5	0x3dc08712	0.094007626
6	0xbce5f545	-0.028071055
7	0xbcc43586	-0.023951303
8	0x3d2df815	0.042472918
9	0xbdef09fc	-0.11671826
10	0xbe1aa82a	-0.15103212
11	0xbe26b1ca	-0.16278759
12	0xbce534ac	-0.027979217
13	0xbd777cd1	-0.06042177
14	0xbd1694f1	-0.036763135
15	0x3e0e526f	0.13898633
16	0x3e36c2f9	0.17847814
17	0x3e102e09	0.14080061
18	0x3dcdd856	0.100510284
19	0x3e3b1164	0.18268353
20	0xbd808970	-0.06276214
21	0xbe0e44dc	-0.13893455
22	0xbe35ae67	-0.1774231
23	0xbd0ee8f2	-0.034890123
24	0xbe0d4d21	-0.13798954
25	0x3d9ff9ae	0.078112945
26	0xbd7d0604	-0.061773315
27	0x3d950e2d	0.072780944
28	0xbca398ec	-0.01997038
29	0xbd958a8b	-0.073018156
30	0x3d8e8d45	0.06960539
31	0x3d8905f7	0.06690591
32	0xbc8716ef	-0.016490428
33	0x3da4a3ce	0.08039056
34	0x3d363517	0.044484224
35	0x3d2aae45	0.041670103
36	0xbdee7fc4	-0.11645463
37	0x3e03e71e	0.12881133
38	0xbd471021	-0.048599366
39	0x3e040102	0.1289101
40	0xbd955ed3	-0.07293477
41	0xbd430a9c	-0.04761754
42	0x3e5405a8	0.20705283
43	0x3d90bb2f	0.070669524
44	0xbd1e0ad1	-0.038584534
45	0xbdc33eff	-0.095335
46	0x3ce3053a	0.027712453
47	0xbd9ffbbf	-0.07811689
48	0x3d06baa6	0.032892846
49	0x3e4f04b3	0.20216636
50	0x3daa81f4	0.08325568
51	0xbe3a6804	-0.18203741
52	0xbe3345d6	-0.17507109
53	0xbcfaf194	-0.030632772
54	0xbd8ff8e4	-0.07029894
55	0xbe066b81	-0.13126947
56	0xbd840169	-0.064455815
57	0x3d2cf903	0.042229664
58	0x3d89d101	0.067293175
59	0xbde8424e	-0.113407716
60	0xbdf9a0cc	-0.12188873
61	0x3d5e3f11	0.054259364
62	0xbe13cf80	-0.14434624
63	0x3e394de6	0.18096122

forward_pass.2.weight f4 [64, 64]
0	0x3da0396a	0.07823451
1	0xbd38bc22	-0.045101292
2	0x3dacebf8	0.08443445
3	0xbdf6005f	-0.120117895
4	0x3cdd5791	0.027019294
5	0x3cfefc29	0.031126099
6	0x3dba50a0	0.09097409
7	0xbdfe53f6	-0.12418358
8	0x3d4f27bd	0.050575007
9	0x3c7e8371	0.015534268
10	0xbd186eb6	-0.037214957
11	0x3d98779c	0.07444689
12	0xbd80382b	-0.06260713
13	0x3ce0cb50	0.027440697
14	0xbdd16ded	-0.10226045
15	0xbc5f98e9	-0.0136472965
16	0xbd8c9ec1	-0.068662174
17	0x3d837834	0.06419411
18	0x3dbfd07d	0.09365938
19	0x3d918492	0.07105364
20	0xbdc12bf4	-0.094322115
21	0x3d2fd570	0.04292816
22	0x3db4806a	0.088135555
23	0x3d796cb8	0.060894698
24	0xbdfaf401	-0.12253571
25	0x3d6f852a	0.058476605
26	0x3d3ca48e	0.04605537
27	0xbdd136d2	-0.10215534
28	0x3cc51f43	0.024062758
29	0xbc67b41d	-0.014142063
30	0x3df55b39	0.1198029
31	0xbd1a6b78	-0.037700146
32	0x3d8d1eeb	0.06890663
33	0xbca3cfec	-0.019996606
34	0x3ca363de	0.019945081
35	0xbdbd5d5d	-0.09246323
36	0xbd8cc74d	-0.06873951
37	0xbe03d99f	-0.12875985
38	0x3cb2abc2	0.021810416
39	0xbd51e4e1	-0.051243667
40	0x3db5e2b6	0.08881132
41	0x3da69b73	0.08135118
42	0xbe02915c	-0.12750763
43	0xbd9a060d	-0.07520685
44	0x3d9e0dab	0.07717451
45	0xbdaf0275	-0.085453905
46	0xbde123dd	-0.109931685
47	0xbbcfd4ad	-0.0063424916
48	0x3d18ccb4	0.037304595
49	0x3d55b5fe	0.052175514
50	0xbd7b7e07	-0.061399486
51	0x3df2d1cd	0.118564226
52	0x3d94f319	0.0727293
53	0xbe08aad1	-0.13346411
54	0xbd9dd00e	-0.07705699
55	0x3c8e6aab	0.017384848
56	0xbc397c3a	-0.011321122
57	0xbdc53428	-0.09629089
58	0xbd16f042	-0.03685022
59	0xbcb54cf8	-0.022131428
60	0xbdfc08e4	-0.12306383
61	0x3ce35245	0.02774919
62	0x3da37229	0.07980759
63	0xbdda8730	-0.10670316
64	0x3cefa1e6	0.029252004
65	0x3d9a524f	0.0753523
66	0x3d8e01c0	0.069339275
67	0xbdffe84b	-0.12495478
68	0xbdc44ce5	-0.09584979
69	0x3e00fa80	0.12595558
70	0x3c28a50e	0.010293258
71	0xbd866a1f	-0.0656321
72	0x3d875043	0.066071056
73	0x3d985e06	0.074398085
74	0xbd039fa0	-0.032134652
75	0xbd6b7ccf	-0.057492074
76	0xbddddb93	-0.10832896
77	0x3da701ce	0.08154641
78	0xbdbff61a	-0.09373112
79	0x3d1be588	0.038060695
80	0x3c28adb6	0.010295322
81	0xbdbec209	-0.09314353
82	0x3c73c519	0.014878535
83	0xbb84b2ef	-0.004049651
84	0xbb5c8dae	-0.0033653784
85	0x3def4580	0.11683178
86	0x3dddcf22	0.10830523
87	0xbd107297	-0.03526553
88	0x3dbf670f	0.09345829
89	0xbdeaf743	-0.11472943
90	0x3c840686	0.016116392
91	0x3c2b9349	0.010472127
92	0xbcc39085	-0.023872623
93	0xbc4f7f71	-0.012664662
94	0xbcc3a4c3	-0.023882275
95	0xbc6bfebf	-0.014403998
96	0x3cc7a929	0.024372654
97	0xbd79c169	-0.060975466
98	0x3dbf2dce	0.093349084
99	0xbd99055b	-0.074717246
100	0x3dbdf9ba	0.09276147
101	0x3d306a0b	0.04306988
102	0x3c387ef4	0.011260737
103	0xbdad2e83	-0.08456137
104	0xbd982727	-0.07429343
105	0xbcbc2c5e	-0.022970375
106	0xbd539cb4	-0.051663116
107	0xbd97af7a	-0.074065164
108	0xbb96b813	-0.00459958
109	0x3d94d33e	0.07266854
110	0xbc8b61a5	-0.017014334
111	0xbda7d00c	-0.08193979
112	0x3dc2e1cd	0.09515724
113	0x3d20c750	0.03925258
114	0x3c9a7ef8	0.018859372
115	0x3dcd3ac2	0.10020973
116	0x3d01f344	0.031726137
117	0x3db56d13	0.08858695
118	0xbd23bea6	-0.03997674
119	0xbdabe881	-0.08393956
120	0x3ca53c33	0.020170307
121	0xbd332513	-0.04373653
122	0x3b245256	0.002507349
123	0x3dc612d5	0.09671561
124	0xbd7dd6f4	-0.061972573
125	0xbd069a5a	-0.032862045
126	0xbcb6bf72	-0.022308085
127	0xbd53fe89	-0.051756416
128	0xbdd2e4f0	-0.102975726
129	0xbdd5f130	-0.104463935
130	0x3d863d5d	0.06554673
131	0xbd8066d7	-0.06269615
132	0xbd845472	-0.06461419
133	0x3daeeb6a	0.085409954
134	0xbd0f364c	-0.03496389
135	0xbc24b40d	-0.010052693
136	0x3ce9f2cc	0.028558157
137	0x3d2ed3ba	0.042682387
138	0xbb8db812	-0.0043249214
139	0xbd8950d4	-0.0670487
140	0x3dc01ab8	0.09380096
141	0x3b9bffc5	0.0047607147
142	0x3d5682e4	0.05237092
143	0x3c51a844	0.012796465
144	0x3dde3346	0.108496234
145	0xbd04ef62	-0.032454856
146	0xbda6fa8a	-0.08153255
147	0xbc607334	-0.013699342
148	0x3de845a3	0.11341407
149	0xbd9e2714	-0.07722297
150	0x3da55b00	0.080739975
151	0xbdb31529	-0.0874427
152	0xbd0fad41	-0.035077337
153	0xbd0b1ca3	-0.033962857
154	0x3dbeea73	0.093220614
155	0x3d89cfd5	0.06729094
156	0x3cc07588	0.023493543
157	0xbba692bd	-0.0050834105
158	0xbdbb0977	-0.09132665
159	0x3d26abe4	0.04069127
160	0xbded40bd	-0.115846135
161	0x3dc95b9c	0.09831926
162	0x3e0535c9	0.13008799
163	0x3db4021e	0.08789466
164	0x3abaf7ca	0.0014264521
165	0x3db5482d	0.08851657
166	0x3c412edb	0.011790956
167	0x3b352176	0.0027638352
168	0xbcd3b83f	-0.025844691
169	0x3ddf076a	0.10890086
170	0xbc57507a	-0.013141746
171	0x3db2fc6c	0.08739552
172	0xbd73a0c9	-0.05947951
173	0x3da0b383	0.07846739
174	0x3c910894	0.017704286
175	0x3d2a3b43	0.041560423
176	0xbd97ba20	-0.074085474
177	0xbcde806e	-0.02716085
178	0x3cfa81e7	0.03057952
179	0xbdcdf03d	-0.100555874
180	0xbd44a9fa	-0.048013665
181	0x3c69a2a9	0.014259973
182	0xbda32c16	-0.07967393
183	0xbdda90bb	-0.106721364
184	0x3d92486d	0.0714272
185	0x3d32eea6	0.043684624
186	0x3d6d3409	0.057910953
187	0xbdb294f2	-0.08719815
188	0xbd954d5d	-0.072901465
189	0xbe204669	-0.1565186
190	0x3d790766	0.06079807
191	0xbdd03059	-0.101654716
192	0x3d7df3f5	0.062000234
193	0xbcc460f0	-0.023972005
194	0x3d984fd7	0.07437103
195	0xbddae762	-0.10688664
196	0xbd9f7761	-0.077864416
197	0xbb8bb031	-0.004262947
198	0xbd891e06	-0.0669518
199	0xbce439e3	-0.027859634
200	0xbd273b50	-0.04082805
201	0xbd74bed8	-0.059752315
202	0x3dbbc201	0.09167863
203	0x3da15dfa	0.07879253
204	0xbd68ac50	-0.056804955
205	0x3c8aa91c	0.01692634
206	0xbd5ea7d3	-0.05435927
207	0xbb949c74	-0.004535252
208	0xbd1905c6	-0.03735902
209	0xbd35f7bf	-0.044425722
210	0xbd9f4ae4	-0.07777956
211	0xbc7ca576	-0.015420308
212	0x3de0ab66	0.10970192
213	0xbc39bb8d	-0.0113362195
214	0x3da1b698	0.07896155
215	0xbde1c50b	-0.11023911
216	0xbde0352e	-0.10947643
217	0xbd827712	-0.06370367
218	0xbd917dba	-0.071040586
219	0xbdf9aa33	-0.12190666
220	0xbdebc132	-0.115114585
221	0xbdb0fb94	-0.08641735
222	0xbd061fb8	-0.032745093
223	0x3d1c5a1a	0.038171865
224	0x3d72ef7f	0.059310433
225	0x3db8aa05	0.09016804
226	0x3dc9ced0	0.098538995
227	0x3d2b788e	0.041863017
228	0xbd33362b	-0.04375283
229	0x3d54f358	0.051989883
230	0x3d2cfe07	0.042234447
231	0x3c1d57d2	0.0096034575
232	0xbc8e8b09	-0.017400282
233	0x3ca15198	0.019692227
234	0xbd8aad98	-0.06771392
235	0x3d3a0ccb	0.045422357
236	0xbdf79a5f	-0.12089991
237	0x3dc2d307	0.095129065
238	0xbd935416	-0.071937725
239	0x3cd6b068	0.026207164
240	0x3db53e71	0.088498004
241	0x3d8a7631	0.067608245
242	0xbdc9238f	-0.098212354
243	0xbd82d375	-0.063879885
244	0xbdc1a82f	-0.094559066
245	0xbdc86f22	-0.09786822
246	0x3d69b406	0.05705645
247	0xbdea2016	-0.11431901
248	0x3ddfdcd6	0.10930793
249	0x3c1d5b14	0.009604234
250	0x3cb10ad0	0.021611601
251	0xbd75da77	-0.060022797
252	0xbd82a105	-0.06378368
253	0xbd8c2638	-0.06843227
254	0xbdbf73fb	-0.093482934
255	0x3d8df9c7	0.06932407

forward_pass.2.bias f4 [64]
0	0x3d85ffb5	0.06542913
1	0x3de96b8c	0.11397466
2	0x3d00c16c	0.03143446
3	0xbd81c064	-0.06335524
4	0xbd38bddf	-0.04510295
5	0xbdab1875	-0.08354274
6	0xbd806f6a	-0.062712505
7	0x3d70f628	0.058828503
8	0x3da95bdf	0.08269476
9	0x3d7db6cc	0.061941907
10	0x3cfbbc1d	0.030729348
11	0xbd3b6aa1	-0.045755986
12	0x3d6e6732	0.058203883
13	0x3dadb9d2	0.08482708
14	0x3d2777fd	0.040885914
15	0x3dc34071	0.095337756
16	0xbdb95fb7	-0.09051459
17	0x3e48145f	0.19539021
18	0x3bccfda7	0.0062558237
19	0xbd88af18	-0.066740215
20	0xbb160d37	-0.002289606
21	0xbd646761	-0.055762652
22	0x3e49b180	0.19696617
23	0x3ce8960c	0.02839186
24	0x3d0c0539	0.03418467
25	0x3dd86134	0.10565415
26	0x3d002421	0.031284455
27	0xbdaceed8	-0.08443993
28	0xbd4681c6	-0.048463605
29	0x3dde2af0	0.108480334
30	0x3d8d2f4d	0.068937875
31	0xbc12c3de	-0.008957831
32	0x3d5a5073	0.05329938
33	0xbcf3e3f7	-0.029771788
34	0x3d00ae75	0.031416375
35	0xbe198c8b	-0.14995019
36	0xbd84f4c5	-0.064919986
37	0xbd25eb77	-0.04050776
38	0x3b45c163	0.0030175082
39	0xbd85e232	-0.06537284
40	0xbb74b6d0	-0.003734041
41	0xbe0e9014	-0.13922149
42	0x3d55ef48	0.05223015
43	0x3d77fc1f	0.060543176
44	0xbdb404c1	-0.08789969
45	0x3de04cb8	0.10952133
46	0xbde29dcd	-0.11065254
47	0x3d9707c1	0.07374526
48	0x3da2e430	0.079536796
49	0x3b08273d	0.002077534
50	0x3e1f3df4	0.15550977
51	0xbd15cc70	-0.03657192
52	0x3dd956f5	0.10612289
53	0x3d55e04e	0.052215867
54	0xbc2df291	-0.010616914
55	0x3d64b682	0.055838116
56	0x3d46dba6	0.048549317
57	0x3deace0f	0.11465084
58	0xbc09fd39	-0.008422189
59	0x3ddb7979	0.107165284
60	0xbdd518a2	-0.10405089
61	0xbd525cb2	-0.051357932
62	0xbc2eb10c	-0.010662328
63	0xbd5b718f	-0.053575095

forward_pass.4.weight f4 [1, 64]
0	0xbe1eabb4	-0.15495187
1	0x3d5ac43d	0.053409804
2	0x3d92401d	0.07141135
3	0xbd70095a	-0.05860267
4	0x3e51a242	0.20472053
5	0xbce083fc	-0.027406685
6	0xbe039044	-0.12848002
7	0x3a838f6c	0.001003725
8	0x3e53431b	0.20631067
9	0x3e8728dc	0.2639836
10	0xbe68f432	-0.22749403
11	0x3eced5bb	0.40397438
12	0xbe13186e	-0.14364788
13	0xbdab34e6	-0.08359699
14	0xbccf7a7c	-0.02532696
15	0xbdeaefbe	-0.114715084
16	0xbd3236de	-0.043509357
17	0xbe577ca8	-0.21043646
18	0xbe0ef777	-0.13961588
19	0x3cb95bf9	0.022626864
20	0xbd86b34e	-0.065771684
21	0x3e782f92	0.24236897
22	0xbe72bf20	-0.23705721
23	0xbdc8d5ee	-0.09806429
24	0x3d2eecbd	0.04270624
25	0xbd8b78bd	-0.068101384
26	0x3e0f4a7b	0.13993256
27	0xbd4cb954	-0.04998143
28	0xbc3cea6a	-0.011530498
29	0x3d6e80c1	0.058228258
30	0x3d27528e	0.040850215
31	0x3daf27d3	0.08552518
32	0x3e42a157	0.19006859
33	0xbdaaff9b	-0.08349534
34	0x3e5cd32d	0.21564932
35	0x3e8821a9	0.2658818
36	0xbd4b3a33	-0.04961605
37	0x3d8b2d5b	0.0679576
38	0xbda91b25	-0.082571305
39	0xbd662344	-0.056185976
40	0x3db4d3ba	0.08829446
41	0x3e94ccc4	0.29062474
42	0xbe2d767e	-0.16939732
43	0x3d9bfc05	0.07616428
44	0xbdad828d	-0.08472166
45	0xbe858d05	-0.26084152
46	0x3d55c887	0.05219319
47	0xbe9dedab	-0.3084539
48	0xbe51e50c	-0.2049753
49	0xbe2dc305	-0.16968925
50	0xbe53e378	-0.20692241
51	0xbd0f2831	-0.03495044
52	0xbd03f413	-0.03221519
53	0x3e6a4e11	0.22881342
54	0xbdacbcff	-0.08434486
55	0x3cbde2e6	0.023179483
56	0x3e79032f	0.2431762
57	0x3d940b7a	0.072287515
58	0xbd395eff	-0.04525661
59	0x3e1d8c3e	0.1538553
60	0x3eba4b7e	0.3638572
61	0xbda245f9	-0.079235025
62	0xbd791f99	-0.06082115
63	0x3d865ad5	0.065602936
