src/willse_backgammon/AI_Agents/Saved_NNs/01-0000-0004.pt (torch, 27450 bytes, 5 tensors)

forward_pass.0.weight f4 [64, 29]
00000000: 38be c83d fbfc cf3d 2594 edbe 43da 93bd
00000010: 05dd d4bd 15e3 743d f8f9 b2bc 5049 2e3e
00000020: e533 b33d 36b2 893c 07b6 aebd f8fc 45bd
00000030: 7049 d73d 2257 223e 6775 96bb f3fe ed3d
00000040: fce2 77bd 1df4 873d 445f 133d b6d8 f83c
00000050: c0bc 893d ae29 0b3d 4232 c53d f1bd 9c3d
00000060: 38ab 6f3d d699 a9bd fc18 78be afdb 4dbd
00000070: 6d57 2abe 6a12 abbd 152c d4be 5aae 71bc
00000080: eec6 57bd 5554 dabd 2063 323b 0de7 3b3e
00000090: ee98 903e 651d 02be 1893 33be 89ac 8cbd
000000a0: f7be bb3c 7536 d8bc bde2 8bbd f649 ccbd
000000b0: 8372 bc3d 18f6 203d 877d 773d 702e 233a
000000c0: aa60 b3bc 2c16 4fbd 1d10 4c3c fd6a 513d
000000d0: fe26 333d 67b0 00be 914a b03d 45c6 b8bd
000000e0: 5ce9 b53b b377 02bd 75d2 2ebf 2d34 253d
000000f0: 85c4 e83c 5a30 14be 2226 1abe 3f69 223e
00000100: dc85 26be 62c5 063e 5daa 4fbd 81e1 9ebc
00000110: 6c28 cabc f970 9c3c 3029 853d c6d7 1bbd
00000120: 2fe3 433e 5ad9 733d 0240 6b3d d1a0 873d
00000130: b48d 863d a460 e13d f7a6 113e f921 5c3d
00000140: 5b70 fb3d f2a7 673d 83fd c93d 0179 76bc
00000150: 7973 85be efbc aabc 1f8c 923d 97b3 80bc
00000160: b5c4 48be 1443 dbbd 3a00 eabc 6c51 1c3c
00000170: eedf e1bd 321f 2bbd 73cc 47bd 75dc 873d
00000180: a0f7 903d d234 d33c 332c d03c 3044 123d
00000190: 9b22 153b f49d 823d b228 4d3e 6850 1ebd
000001a0: d718 803d 9f8e cdbd e7d3 1c3e 4d30 723e
000001b0: 7c76 853f 7503 6bbd def7 67bd 983c b1bd
000001c0: 0685 e83d ceeb f13e e3e2 edbe c658 bc3d
000001d0: 3c21 103e 0096 71be 078c f03d 8fac 463e
000001e0: 0804 303e 62e4 25bc 930d 1d3e a4c2 a13d
000001f0: c342 0bbd d60a e8bd d716 06bd 8f08 033e
00000200: 66c3 e7bd 3031 d5bb f50c 78bd f1fa 52bd
00000210: 30bf ddbd 49fe 90bd ce11 3ebd d621 62bd
00000220: 2167 7d3d d03e ca3d 37e5 123e 9ce7 e13d
00000230: 7048 bd3c 4397 6fbd 4dee 9abe 6aa2 393e
00000240: d0f9 1bbe f154 7bbd 59b7 03bd 0f44 d4bd
00000250: fd36 c3bc 75d2 f33d 355e fbbc 1fbb e53c
00000260: db64 133e 66c7 883c 818a 0abe d62c 39bd
00000270: d5af 00be c92e 12be 91c8 81bd cabd 8c3b
00000280: 709e a53d 6c37 38bd 3ec6 12bd 5b54 a0be
00000290: 6a76 8cbd e3e8 21be 4de3 69bd 1de9 be3e
000002a0: 9b8d a8bb 6e10 bc3d 91e4 913c 2950 903d
000002b0: 92e9 01be 3eda 2f3e e2aa 5abe 362b a0be
000002c0: 98a5 76be cb6c 513e c3c5 373e d4df 95be
000002d0: 2b4e d93d d7f3 6a3e 2d4e 2a3e b263 3d3e
000002e0: c05f c83d f04b 263e 8f9b 6c3d a1d3 af3d
000002f0: 65ca 2c3e 0fb7 ad3d 9fd9 313d 3bad fc3d
00000300: d9c0 413f e918 1a3e 2384 9c3e 1891 bebe
00000310: 0922 e1be 8b7e e5be 585b ccbe ace7 b13e
00000320: b66b 813f 6408 40bf b1dc d5be b4a2 70bf
00000330: 23b9 a03e 5916 983e 8e6d 2ebe ef7a bdbe
00000340: 7df9 b63e 7559 6dbd 9193 1fbe 470a c73d
00000350: 179e bdbc cd4a e43d 32d5 e1bd a2df 873d
00000360: d398 593c e63e 2bbb 6288 21bc 481c 683d
00000370: 845b abbc cd37 8f3d 0f48 bdbd 11ac 61bd
00000380: 7f75 973e 70af 6e3e e4fe 933e a3a9 d13e
00000390: 6abc 78be 762f 26bf e248 853e 4d35 86bd
000003a0: 5b29 b43d 5829 18bf 57e8 8e3e 9d91 9abc
000003b0: c498 03be 9f1b 843e 3232 99bd 4393 093e
000003c0: 178b 143e a46d 90bd 2d8d 89bd 1dcc 51be
000003d0: 1ed5 3ebd 20ab 52bd 1c54 e13c 2070 1dbd
000003e0: 605c 423d 65c0 ba3d a26c 9b3d 4b68 babd
000003f0: e0fc 3dbd bce3 953d df75 0f3e b239 f63d
0.09801906 0.10155674 -0.46402088 -0.072193645 -0.10393719 0.059786875 -0.02184771 0.17020154
0.087501325 0.01680861 -0.08530813 -0.048336953 0.10512054 0.15853551 -0.004591632 0.11620893
-0.060519204 0.06638358 0.035979524 0.030376773 0.06725454 0.033975296 0.096287265 0.07653416
0.058512896 -0.08281295 -0.24228281 -0.050258335 -0.16634913 -0.083531216 -0.41439882 -0.014751041
-0.05267995 -0.10660616 0.0027219728 0.18349858 0.28241676 -0.12706526 -0.1753658 -0.06868846
0.022918208 -0.026393155 -0.06830356 -0.099750444 0.09201529 0.039297193 0.060422447 0.0006224876
-0.021896679 -0.050558254 0.012455014 0.051127423 0.043738358 -0.12567292 0.086079724 -0.09022192
0.0055515002 -0.031852435 -0.6828988 0.04033296 0.02841402 -0.1447157 -0.15053609 0.1586046
-0.16262001 0.13161233 -0.05069958 -0.019394638 -0.024677478 0.019096838 0.065019965 -0.038047574
0.19129632 0.059533454 0.05743409 0.0662247 0.065699965 0.11004761 0.14223848 0.053743336
0.122772895 0.05655665 0.09862807 -0.015043498 -0.2606466 -0.020842044 0.07155632 -0.015710635
-0.19606288 -0.107061535 -0.028564561 0.009540897 -0.11029039 -0.041777797 -0.048778962 0.06633846
0.07078481 0.025782023 0.0254117 0.03570956 0.0022756222 0.063777834 0.20035055 -0.0386509
0.06254738 -0.100369684 0.1531521 0.23651238 1.0426784 -0.057376344 -0.05663287 -0.086541355
0.11353497 0.47250217 -0.46462163 0.0919662 0.14075178 -0.23592377 0.11745458 0.19401763
0.17189038 -0.0101252515 0.1533721 0.07898453 -0.033999216 -0.11330192 -0.032736626 0.12796234
-0.11316566 -0.0065061077 -0.06055923 -0.051508848 -0.10827482 -0.07079751 -0.0464037 -0.05520805
0.06186593 0.09875262 0.14345251 0.11030504 0.02310583 -0.058493864 -0.30259934 0.18128362
-0.15232015 -0.061360303 -0.032157276 -0.10364544 -0.023829931 0.11905376 -0.03068457 0.028043328
0.14393942 0.016696643 -0.13529398 -0.045208775 -0.12567075 -0.1427566 -0.06337083 0.0042950856
0.0808686 -0.04497473 -0.03583359 -0.31314358 -0.06858523 -0.15811495 -0.057101537 0.37287226
-0.005143834 0.09182821 0.017809184 0.07046539 -0.12686756 0.17173097 -0.21354249 -0.31282967
-0.24086607 0.20451657 0.17946534 -0.2927233 0.106106125 0.2294458 0.16631384 0.18495062
0.09783888 0.16239905 0.05776554 0.08585287 0.16874082 0.08482181 0.04342043 0.123377286
0.7568489 0.15048565 0.30569562 -0.37220073 -0.4397128 -0.44823107 -0.3991344 0.34747064
1.0110996 -0.75012803 -0.41769937 -0.93998265 0.31391248 0.2970455 -0.1703398 -0.37007853
0.3573722 -0.05794664 -0.15583636 0.09718757 -0.023146672 0.111470796 -0.11026992 0.066344514
0.013281065 -0.002613002 -0.009859176 0.056667596 -0.020917661 0.06993065 -0.0924226 -0.055095736
0.2958183 0.23309112 0.28905404 0.40949735 -0.24290624 -0.6491617 0.26032168 -0.06553135
0.087969504 -0.59438086 0.27911636 -0.018868262 -0.12851244 0.25802323 -0.07480277 0.13435082
0.14506184 -0.07052162 -0.0671638 -0.2048802 -0.046589963 -0.05143273 0.027505927 -0.03843701
0.047451377 0.091187276 0.075890794 -0.091019236 -0.04638374 0.073188275 0.14009808 0.12022723

forward_pass.0.bias f4 [64]
00000000: 16e5 f83c a2a8 afbd b3f3 1c3d 0cbd d1bd
00000010: d860 4f3c 077b d23d fbdc 78be 8177 82bd
00000020: adb9 743d 7548 0ebe 576b 16be 2885 35be
00000030: c66e b3bc 0d4d ffbd 1a5f 06bd 339b 243e
00000040: 6b70 3e3e dce5 4b3d e652 c8bd 1ad7 223e
00000050: a61b c83b 084c 17be 9487 43be 6c14 57bd
00000060: 2a0a 17be 1775 6b3d 4792 75bd f1d1 c83d
00000070: 2d1f 67bd 5a13 2ebe 4111 ec3d c3f9 503d
00000080: 32b0 22bd 7612 7b3d c3f5 b33c 3890 f738
00000090: 0f38 0abe 8df9 2c3e f0e3 2abc bebf 053e
000000a0: e141 b9bd 9480 5ebd 3ee9 283d b745 82bd
000000b0: acbb 19be 5405 ecbd 4560 7ebd 1d9c adbd
000000c0: 855a 24bd 4069 3b3e f76f ad3d 75ec 51be
000000d0: 6a7a 38be 4c57 e7bc 2321 95bd 8dad dabd
000000e0: 7de2 cbbd 8b5a b73c b355 5c3c bd09 18be
000000f0: d07f c1bd a692 803d a6b8 4ebe 0677 5e3e
0.030382674 -0.08577086 0.038318347 -0.10241136 0.012657367 0.10277372 -0.24303047 -0.0637045
0.059747387 -0.13894828 -0.14689384 -0.17726576 -0.021903407 -0.12465868 -0.03280554 0.16074829
0.18597572 0.049779758 -0.097814366 0.15902367 0.0061068116 -0.14775097 -0.19094688 -0.05250971
-0.14749971 0.057484712 -0.059953954 0.09805668 -0.056426216 -0.1699957 0.115267284 0.05101944
-0.039718814 0.061296903 0.021967774 0.00011804741 -0.13497947 0.16892071 -0.010430321 0.13061425
-0.090457685 -0.05432184 0.041238062 -0.06360953 -0.15012997 -0.11524454 -0.06210353 -0.08477042
-0.04012539 0.18301868 0.08468621 -0.20500357 -0.18015447 -0.028239869 -0.07281711 -0.106776334
-0.099553086 0.022382041 0.013448167 -0.14847465 -0.094482064 0.06277971 -0.20187625 0.21725091

forward_pass.2.weight f4 [64, 64]
00000000: e351 ab3d c5e4 26bd 4aff 0f3e 4884 0cbe
00000010: 3649 de3b 8c6c 823d 7900 a73d 3a80 bebc
00000020: 26b5 08bd c36d 843d 36c1 89bd 341c 873d
00000030: ba21 a5bd 7425 ddba d8be 0ebe eb2b 8cbc
00000040: 2b8a 7bbd 39a1 8f3c 4d22 0c3e 0beb 813d
00000050: 3de4 0bbe 1cc3 c03c 5a3b 613d 838c b83d
00000060: 8445 07be 3190 043d 9c96 29bd eb5d 8ebd
00000070: caee ea3c 2a1b a0bc 7272 e83d f333 bebd
00000080: 2321 da3d 0ea3 f2ba 7387 253c 4f7d 3fbe
00000090: 3e63 d7bd bbcc f0bd 698b 9b3d 22b0 30bd
000000a0: 5bff 8d3d 1bd5 8f3d 27fa 8abd 0458 9ebd
000000b0: 1d92 043e da8d 81bd df35 20bd 1712 01bc
000000c0: 5a62 953c 015a f83c 01b0 a7bd b3be c83d
000000d0: 73b9 e03d 86c9 0cbe 92cd 5ebd 0093 053d
000000e0: 8c73 3dbd 9d4c fcbd 72c7 73bd f95e 12be
000000f0: dc9a 35ba a158 443d 2263 ba3d 2b69 04be
00000100: 0c62 493d 3796 cb3d 4e4d 2b3d b72a f9bd
00000110: 67fc 97bd f24d 173e b94d 92bd 763c d5bd
00000120: 4264 033e b92a 953d 27e9 63bd 2f0e 8ebd
00000130: 861f ffbd bf93 ec3d 8b3e 9cbd db4a b23c
00000140: cc2f 8cbc 683a a0bd 57cb 49bd 41ba 0bbc
00000150: 973c 0ebd 35aa e53d a55f dc3d 0cdb 26bd
00000160: 4cb0 c53d 14e0 c3bd ff3b 6cbd 570d 333d
00000170: 209b 43bd 2674 b7bc c06f bc3b a9c5 7bbd
00000180: 5d75 ce3c 7727 08bd 6b63 ab3d 8a5c 0fbe
00000190: 1805 d93d a2f2 c33b 364e 343c 7a03 afbd
000001a0: c669 8fbd cca1 8dbc 3182 3fbd 21ea 58bd
000001b0: 2fb3 b33b 03ad 9a3d 3ff7 e1bc 67e1 a1bd
000001c0: 1432 0b3e ae7b fd3c 808f 2e3c 11bf b03d
000001d0: 1b5e cbbb 9499 bc3d c2e2 33bd 10a1 abbd
000001e0: fd9a f83c ff58 2abd 8d42 1b3d 9a1b d83d
000001f0: 82be c4bd 9590 62bd 7411 d3bc 243a 88bd
00000200: efe3 16be 1791 f8bd b3bd 283c e80d d4bc
00000210: b01d 93bd b98b 9b3d 8895 85bc 7188 98bd
00000220: 7898 dabb fdef 8f3c 5d84 243d 15bc 90bd
00000230: 1ee6 173e 7ba1 1dbd d53e 403d aea6 073d
00000240: 18a8 a43d 0a3b 94bc c639 b0bd 1e72 25bd
00000250: 2ae0 353e a93e c0bd ef3a b43d 08b0 a8bd
00000260: e8af 01bd 2110 87bc d414 0abd 3824 243e
00000270: a098 203d 7962 113d afd8 0bbe 0c5b 0dbd
00000280: c3fc 05be e770 2f3d a517 f33d 5cbb 9d3c
00000290: feaa c1bc ee58 793e 9ac8 5bbb 58be 16bc
000002a0: 3670 44bd 67c2 e53d ce45 dbbc 9a24 103d
000002b0: 9d1c 83bc c252 6f3d cb44 9c3c 8ce0 c43c
000002c0: f6f4 dcbd d1ed 69bd 562a 8d3c 80ae c0bd
000002d0: 5fd5 0dbd 7f6c d3bc 9f5e c2bd 9f30 f1bd
000002e0: 15e6 1a3d 0374 e43c 969d fc3c 35ce 52bd
000002f0: 902f 10be 2f88 f9bd 1cfc 4c3d ed3d 79bd
00000300: ed3c 843d 401e b3bc 89ac 9d3d dc0f dabd
00000310: a219 a0bd 6b0b 55bb 67c8 93bd 37a9 c4bc
00000320: 4df6 18bd 81bc 77bd 8669 b03d c38a 9c3d
00000330: 1f41 67bd 3b29 853c f876 5dbd df74 41ba
00000340: 4e51 21bd 1d5c 45bd 69ec 8dbd 456f 6cbc
00000350: d08e df3d 2f23 50bc a227 a23d 49f3 e4bd
00000360: a70d e0bd b27f 83bd 2f0a 9bbd 6e33 f8bd
00000370: b1fd eabd 213e b5bd efc4 02bd f376 063d
00000380: d75a 6c3d 52ed c13d f7e6 cb3d 957d 143d
00000390: d924 1fbd ba1b 4e3d 6108 373d cdb4 ed3b
000003a0: 4e23 a3bc 8ed9 a13c c88c 8dbd 1341 383d
000003b0: 0669 fabd 5ce1 c53d fc8e 8abd 5481 a33c
000003c0: 28e3 ac3d 5356 823d 2e92 cabd da12 88bd
000003d0: d500 bdbd 1d12 c6bd d5d0 7f3d bbc0 eabd
000003e0: ec5b e23d 27db 123c 7f32 a93c e1c0 7abd
000003f0: b9f5 80bd 9f0a 8cbd d67e c1bd 10bf 8d3d
0.08365228 -0.040745515 0.14062229 -0.13722336 0.00678363 0.0636836 0.08154387 -0.023254503
-0.03337588 0.06466248 -0.06726305 0.06597176 -0.080630735 -0.0016872124 -0.13939989 -0.017110785
-0.061411064 0.017532932 0.1368496 0.06343659 -0.13661285 0.023530535 0.054988243 0.090111755
-0.13210112 0.032364074 -0.041403398 -0.06951507 0.028678317 -0.019544203 0.11349954 -0.09287252
0.106508516 -0.0018511729 0.010103094 -0.18700145 -0.10516976 -0.11757799 0.0759495 -0.043136723
0.06933471 0.070230685 -0.06785994 -0.077316314 0.12946363 -0.06325884 -0.039113875 -0.007877848
0.018235374 0.030316355 -0.08187867 0.09801998 0.10972872 -0.1374875 -0.054395266 0.032610893
-0.046252772 -0.123193 -0.059516378 -0.14294042 -0.0006927678 0.047936086 0.09100939 -0.12930743
0.04916577 0.099407606 0.04182177 -0.1216635 -0.07421189 0.14775828 -0.07143731 -0.10411923
0.12831214 0.07283539 -0.055642273 -0.06936299 -0.124571845 0.11551618 -0.076291166 0.02176421
-0.017112635 -0.0782364 -0.049266186 -0.008528293 -0.03472575 0.11214105 0.1076043 -0.040736243
0.096527666 -0.09564224 -0.057674404 0.043713894 -0.04775536 -0.022394251 0.0057506263 -0.0614678
0.025202448 -0.03324076 0.08368572 -0.14000145 0.10596675 0.005979852 0.011004975 -0.08545585
-0.070025966 -0.017289065 -0.04675502 -0.052957658 0.005484007 0.075525306 -0.027583716 -0.0790432
0.13593322 0.030942764 0.01065433 0.08630193 -0.0062062866 0.0920898 -0.043917425 -0.083803296
0.030347342 -0.04158878 0.037905265 0.105521396 -0.09606649 -0.055313665 -0.025765158 -0.066517144
-0.14735387 -0.12137049 0.010299134 -0.025885537 -0.07183397 0.07595009 -0.016306654 -0.07447899
-0.0066710077 0.01757049 0.040165294 -0.07067124 0.14833876 -0.038484078 0.04693492 0.033117943
0.08039874 -0.018094558 -0.086047694 -0.040392034 0.17761293 -0.093869515 0.08800303 -0.082367
-0.031661898 -0.016487183 -0.03371127 0.16029441 0.039208055 0.0354943 -0.13656877 -0.034510657
-0.13084702 0.04283228 0.11869744 0.019254379 -0.023641106 0.2435033 -0.0033536316 -0.009200655
-0.047958575 0.1121872 -0.026766684 0.035191156 -0.016004855 0.058428533 0.019075772 0.024032854
-0.1078891 -0.057111565 0.017232101 -0.09408283 -0.034627315 -0.02580857 -0.09490704 -0.11776852
0.03781708 0.02788735 0.030836862 -0.051466186 -0.14080644 -0.12184178 0.050045118 -0.060850073
0.06456933 -0.02186501 0.07698924 -0.10647556 -0.07817389 -0.0032508026 -0.07215958 -0.02400647
-0.037344266 -0.060482506 0.08613877 0.07643654 -0.05645859 0.016255012 -0.054068536 -0.0007379781
-0.03938418 -0.04818355 -0.06929857 -0.014430826 0.10915911 -0.012703701 0.079177156 -0.111792155
-0.10940104 -0.0642084 -0.07570302 -0.121191844 -0.11474169 -0.08849741 -0.03192609 0.032828283
0.05770382 0.094690934 0.099561624 0.036252577 -0.0388535 0.05031941 0.044685725 0.007254219
-0.019914296 0.019757058 -0.069116175 0.044983935 -0.12227063 0.096621245 -0.06765553 0.01995913
0.08441764 0.06364121 -0.09891163 -0.06644221 -0.09228674 -0.096714236 0.062455017 -0.11462542
0.11052689 0.008963383 0.020653961 -0.0612191 -0.06296868 -0.06837963 -0.0944802 0.06921208

forward_pass.2.bias f4 [64]
00000000: 4a7e b83d b915 8f3d a8e2 20bc 2e34 86bd
00000010: 7990 c4bd f4a9 bfbd 7730 cbbd cd1d 743d
00000020: 534e 1e3a af2b 403d d771 a5bd 0d17 06be
00000030: e136 ec3b c4d0 b13d e3a2 673d b202 323d
00000040: 1cb2 e6bd 6450 2c3e a065 79bd 36c4 9abd
00000050: fa5b 5abd e0a3 1cbe 487b 1f3e fb3d 0a3c
00000060: e1b0 233d 17b5 c23d ec71 d5bc d026 9dbd
00000070: 6577 68bd 4e35 ba3d 4b38 5d3d 2134 3fbd
00000080: fafd 17bd 5c38 05bd 922c 30bd 0337 70be
00000090: 738f c2bd af56 67bd 82af cdbb 23c9 9bbd
000000a0: 9236 85bb 047d 05be 674a fc3b 2a77 963d
000000b0: ffbb b2bd 5a4e 2c3e 0b39 00be 3508 5f3c
000000c0: 0f46 5c3d 8fbc f93c 1851 d33d 1c8e 98bd
000000d0: b331 da3d 7c94 443d 666d e63c b9b4 9b3d
000000e0: 860d 4c3c 6c04 763d b6cd 313c e74f 9f3c
000000f0: b0e7 d3bd 3298 3fbd e444 65bc b548 95bd
0.09008463 0.06986565 -0.009819664 -0.06552921 -0.095978685 -0.09358588 -0.09921353 0.059598733
0.0006038893 0.04691666 -0.08078354 -0.1309473 0.0072086905 0.08682397 0.056551825 0.0434596
-0.112644404 0.16827542 -0.060887933 -0.075569555 -0.053310372 -0.15296888 0.15574372 0.008437629
0.039963607 0.095071964 -0.026055299 -0.076734185 -0.05675449 0.09092198 0.054008763 -0.046680573
-0.037107445 -0.03252445 -0.043011256 -0.23458485 -0.09500017 -0.056479152 -0.0062770257 -0.07606723
-0.004065343 -0.13035971 0.007699299 0.073469475 -0.08727264 0.16826764 -0.1252176 0.013612797
0.05377775 0.03048542 0.10318202 -0.0744898 0.106540106 0.04799317 0.028128337 0.076028295
0.012454396 0.06006281 0.010852268 0.01944728 -0.10346925 -0.046776004 -0.013993476 -0.072892584

forward_pass.4.weight f4 [1, 64]
00000000: 2a58 f9bd 776e 9bbd 9cfa e23d 6c1d 43bd
00000010: ac38 7a3e 3dee 10be 8505 1bbe 4f00 9fbd
00000020: b334 2e3c 917e 043e d059 febd 6243 d13c
00000030: ce7b e4bd fc5b 7abd c877 c2bd 1725 e6bd
00000040: 0a1b 8fbd 86a5 3fbe 10ef ffbd ab04 99bd
00000050: 1e59 ccbd dd81 533e 73fa 28be 9707 62bd
00000060: 41ba 01be 7d75 05be 8742 3d3d 8e0b c4bd
00000070: b660 b2bd d663 7fbd 6666 08bd 0141 2e3e
00000080: 2559 bc3d 10e8 45be 051b 23bd b519 dd3e
00000090: 5e38 42bb e830 a13d cc7e 18be 33d9 99bd
000000a0: 373c a13d 12e8 0b3e dacd 03be 85d8 b6bd
000000b0: 8f1d 85bd 5f3b 65be 9bfd 783c bf80 47be
000000c0: cb57 5ebe 5e21 a9bd 6e21 f2bd de52 0b3d
000000d0: dc8e 44bd 1ced 1a3e e6f1 15be d2fc 24be
000000e0: 8323 e83d ef2b e43d d897 b7bd 1330 b03d
000000f0: e57b df3d bb0a 71bd e152 36bd 3db9 353d
-0.12175019 -0.07589429 0.11082956 -0.04763548 0.24435681 -0.1415338 -0.15138824 -0.07763731
0.010632682 0.12938906 -0.12419474 0.025544826 -0.11156426 -0.06112288 -0.09495503 -0.11237543
-0.06987579 -0.18715486 -0.124967694 -0.074715935 -0.09977935 0.20655008 -0.16501789 -0.05518302
-0.12668706 -0.130331 0.046206024 -0.095725164 -0.087098524 -0.06235107 -0.03330078 0.17016985
0.091966905 -0.19326806 -0.03982069 0.43183675 -0.0029635648 0.07870656 -0.14892119 -0.075121306
0.07872813 0.13662747 -0.12871495 -0.089280166 -0.064997785 -0.2238593 0.015197183 -0.19482706
-0.21713178 -0.082583174 -0.118227825 0.034014575 -0.047987804 0.15129513 -0.14643058 -0.16112068
0.11334898 0.11141192 -0.08964509 0.086029194 0.10912303 -0.058848124 -0.044512633 0.04436611
