src/willse_backgammon/AI_Agents/Saved_NNs/01-0000-0001.pt (torch, 27450 bytes, 5 tensors)

forward_pass.0.weight f4 [64, 29]
0	0x3e39007f	0.18066595
1	0x3daa6f7f	0.083220474
2	0xbe2a16e9	-0.16610302
3	0xbd1b846f	-0.037968095
4	0xbdc73651	-0.09727157
5	0xbc67adff	-0.014140605
6	0xbbce582d	-0.0062971325
7	0x3e290592	0.16506031
8	0x3dd9e223	0.10638835
9	0x3d2d6a95	0.042337973
10	0xbd85a898	-0.06526297
11	0xbd6f63a1	-0.058444623
12	0x3e1878a1	0.14889766
13	0x3e284f8a	0.16436592
14	0x3ac0202a	0.0014658023
15	0x3df87eab	0.12133535
16	0xbd9aaa21	-0.07551981
17	0x3c77daa4	0.015127812
18	0xbd1e5b12	-0.03866107
19	0x3d8bf8b7	0.06834548
20	0x3dc14b23	0.09438159
21	0xbd8a331b	-0.06748029
22	0x3df02d6c	0.117274135
23	0xbe352800	-0.1769104
24	0x3cc0a6ea	0.02351709
25	0xbd5b67f9	-0.053565953
26	0xbe377dc3	-0.17919068
27	0xbdc5931e	-0.09647201
28	0xbdf03c8f	-0.11730301
29	0xbdca57f7	-0.09880059
30	0xbe29a88f	-0.16568206
31	0x3c009ca1	0.007849843
32	0xbd2921e4	-0.041292086
33	0xbe308a1b	-0.17240183
34	0x3c658cb8	0.014010601
35	0x3e1ed2c6	0.15510091
36	0x3e16b9bd	0.14719291
37	0xbdf6c193	-0.1204864
38	0xbe33844d	-0.17530937
39	0xbd9e3a1f	-0.077259295
40	0x3d537b09	0.051631007
41	0x3d04f062	0.03245581
42	0xbdc19055	-0.09451357
43	0xbe110aad	-0.14164229
44	0x3dfcd1a4	0.12344673
45	0x3dd53584	0.10410598
46	0x3dd2369e	0.10264324
47	0xbd1d01a9	-0.03833166
48	0xbcfbf539	-0.03075658
49	0xbdbb74a0	-0.09153104
50	0x3d6e2293	0.05813844
51	0xbdb04f3e	-0.08608864
52	0x3d955d1e	0.07293151
53	0xbdf9eaa9	-0.12202961
54	0x3dac3f2b	0.08410486
55	0xbd8874ea	-0.066629246
56	0xbc9ed600	-0.019389153
57	0x3c021119	0.007938647
58	0xbe217732	-0.15768126
59	0xbc36628a	-0.011131892
60	0x3dcf9870	0.10136497
61	0xbd688de0	-0.056775928
62	0xbdfd4ec1	-0.12368537
63	0x3e299ffd	0.16564937
64	0xbcd15ec7	-0.025557889
65	0x3dc88c56	0.09792392
66	0xbbea8302	-0.0071567306
67	0x3d5261dc	0.051362857
68	0x3d11826c	0.03552477
69	0x3d055ed2	0.03256113
70	0xbd1c6821	-0.038185243
71	0xbd221525	-0.039570946
72	0x3e39e2c5	0.18152912
73	0x3cf32347	0.029679907
74	0x3d48f35c	0.04906021
75	0x3db1ae23	0.08675792
76	0x3cdd28f3	0.026997065
77	0xbc033832	-0.0080090035
78	0x3e1e94b7	0.15486418
79	0xbc9da82c	-0.01924523
80	0x3d492645	0.049108762
81	0xbe4c071c	-0.19924587
82	0x3c53f729	0.012937346
83	0xbd66510f	-0.056229647
84	0x3d76bfab	0.060241383
85	0xbcd19151	-0.025581988
86	0x3dd0e1d9	0.10199327
87	0x3db714e5	0.08939532
88	0x3d979262	0.07400967
89	0x3e125f30	0.14294124
90	0xbe212cc8	-0.15739739
91	0x3d523efd	0.0513296
92	0xbc2e8677	-0.010652176
93	0x3c8c4ea0	0.017127335
94	0xbe03c0d7	-0.12866531
95	0x3e403361	0.187696
96	0x3e14bc14	0.14524871
97	0x3e055f15	0.13024552
98	0xbd8ad144	-0.067781955
99	0xbce27993	-0.027645862
100	0xb8f74ad5	-0.00011791816
101	0x3d03ef61	0.03221071
102	0x3e3622e6	0.1778675
103	0xbdcd13a7	-0.10013514
104	0xbd7053f6	-0.05867382
105	0xbcc61b47	-0.024182929
106	0x3d78887c	0.060677037
107	0x3dda09a3	0.10646369
108	0x3e0cfba7	0.13767873
109	0xbd4d0aaf	-0.050059017
110	0xbc904963	-0.017613119
111	0xbdacab2b	-0.08431085
112	0x3d8c26bc	0.068433255
113	0x3e9ef229	0.3104413
114	0xbdc4425b	-0.09582969
115	0x3e29b539	0.16573037
116	0x3e25bebb	0.16186039
117	0xbdcfbe94	-0.10143772
118	0x3e43f273	0.19135456
119	0x3e22b22f	0.15888284
120	0x3e0b490f	0.13602088
121	0xbd8ef298	-0.06979865
122	0x3e06d5ef	0.13167547
123	0x3d5abfc6	0.053405546
124	0xbc6f7fea	-0.014617899
125	0xbde38dfd	-0.111110665
126	0xbc8f5511	-0.017496618
127	0x3e2e4f17	0.17022358
128	0xbdbd3dff	-0.092403404
129	0x3c42a44b	0.011879991
130	0xbd1d1040	-0.038345575
131	0xbcc43af5	-0.023953894
132	0xbda0e280	-0.078557014
133	0xbd1722ed	-0.036898542
134	0xbd81d6cf	-0.063397996
135	0xbc698774	-0.014253486
136	0x3e1f397a	0.1554927
137	0x3d76292b	0.060097855
138	0x3d3a4a5e	0.04548108
139	0x3b31a5a0	0.0027106777
140	0x3ad6968e	0.0016371773
141	0xbc1e8376	-0.009674897
142	0xbe27d103	-0.16388325
143	0x3dbedb06	0.09319119
144	0xbd8e7a64	-0.06956938
145	0x3d9a1bd4	0.07524839
146	0xbc8c3593	-0.01711539
147	0xbc212966	-0.00983653
148	0x3bf3694d	0.0074283243
149	0x3e2c2c48	0.16813767
150	0xbda3a6f7	-0.079908304
151	0x3d213295	0.03935488
152	0x3e065783	0.1311932
153	0x3d1bbd9a	0.038022615
154	0xbe04926f	-0.12946485
155	0xbd0bec0a	-0.03416065
156	0xbddc35a0	-0.10752416
157	0xbe1d6b50	-0.15372968
158	0xbd86c444	-0.065804034
159	0xbbb1c91e	-0.0054255864
160	0x3dac2990	0.08406365
161	0xbdaa0747	-0.08302169
162	0xbca2a11c	-0.019852214
163	0xbdf06c2b	-0.117393814
164	0xbd050f2b	-0.03248517
165	0xbe32ad07	-0.17448817
166	0xbd9a1a7c	-0.07524583
167	0x3d37a2f5	0.044833142
168	0xbe06a8b6	-0.13150296
169	0x3dbac130	0.09118879
170	0x3ca9d558	0.020731613
171	0x3de9ab59	0.11409635
172	0xbdf453b1	-0.11930025
173	0x3e0593ec	0.13044709
174	0x3bbf1b45	0.005832108
175	0x3d4cf16a	0.050034918
176	0x3ca45461	0.020059766
177	0x3d8aee6d	0.06783757
178	0x3de30794	0.1108543
179	0xbd282608	-0.041051894
180	0xbe1688a1	-0.14700557
181	0x3d805e03	0.06267931
182	0xbdfd7557	-0.123758964
183	0x3df8d674	0.12150279
184	0xbde429fd	-0.11140821
185	0x3d2557d9	0.04036698
186	0x3e061bf7	0.13096605
187	0xbdf37878	-0.11888212
188	0x3e30fbe1	0.17283584
189	0xbd1ece88	-0.038771182
190	0xbe0a40ce	-0.13501284
191	0xbc614f08	-0.013751753
192	0x3e28cc78	0.16484249
193	0x3d535590	0.05159527
194	0x3e2a9fd7	0.16662537
195	0x3dcd99e4	0.10039118
196	0xbd4cfa08	-0.050043136
197	0xbe278fb5	-0.16363414
198	0x3dbdbd72	0.092646495
199	0xbc424dc8	-0.011859365
200	0x3eaec63f	0.34135625
201	0xbdd4f9a7	-0.1039918
202	0xbe479b84	-0.19492918
203	0xbd85d987	-0.06535631
204	0x3e45e3fb	0.19325249
205	0x3d85bea0	0.065304995
206	0xbd392ae5	-0.045206923
207	0xbe3a7c61	-0.1821151
208	0x3e6684d1	0.22511603
209	0x3e197217	0.14984928
210	0xbd8d6d3b	-0.069056
211	0x3e0d33b0	0.13789248
212	0x3d1fd340	0.039019823
213	0x3deb3dfb	0.11486431
214	0xbded9e86	-0.116025016
215	0x3df80dc7	0.12112003
216	0x3dd93e6d	0.1060761
217	0xbdd800e4	-0.10547045
218	0x3cc40902	0.023930077
219	0x3c0c72cb	0.008572291
220	0xbd5544de	-0.05206763
221	0xbe2a8d3d	-0.1665544
222	0xbe240724	-0.16018349
223	0x3d8efc53	0.06981721
224	0x3c3aa8bb	0.011392768
225	0xbd057690	-0.032583773
226	0x3d95fd12	0.0732366
227	0x3e4cfbfc	0.20018
228	0xbdbf2ee1	-0.09335113
229	0xbe6cd03d	-0.23126312
230	0x3e2b51d3	0.16730432
231	0xbc94e224	-0.018174239
232	0x3c89cc66	0.016821098
233	0xbe14cced	-0.14531298
234	0x3e6ef6d2	0.23336342
235	0x3d3fc576	0.046819173
236	0xbe0066a3	-0.12539153
237	0x3ddeca71	0.108784564
238	0xbd8e1e6b	-0.069393955
239	0x3dc500bb	0.0961928
240	0x3e12e4fb	0.14345162
241	0xbd49316a	-0.04911939
242	0xbd634bb8	-0.055492133
243	0xbe3698dc	-0.17831749
244	0xbde7c6dd	-0.11317227
245	0xbd815bab	-0.063163124
246	0x3d1fa1f8	0.038972825
247	0xbd3dcb6d	-0.04633658
248	0x3df20f7d	0.118193604
249	0x3e2aabbf	0.16667078
250	0xbd258ef5	-0.040419538
251	0xbe1dcb7c	-0.15409654
252	0xbce5d3be	-0.028055068
253	0x3e1ead95	0.15495904
254	0x3de47661	0.111553915
255	0xbca205d4	-0.01977817

forward_pass.0.bias f4 [64]
0	0x3d01b637	0.031667914
1	0xbd8cf9c2	-0.06883575
2	0xbc7a7cbb	-0.015288527
3	0xbdf37cf3	-0.118890665
4	0x3d6eef96	0.058333956
5	0x3db19290	0.08670533
6	0xbccb76c2	-0.024836902
7	0xbdaa64e5	-0.08320025
8	0x3d48a808	0.048988372
9	0xbe082bb8	-0.13297927
10	0xbe2600b6	-0.16211209
11	0xbe23cdf4	-0.15996534
12	0xbcc32465	-0.023821065
13	0xbd8a458e	-0.06751548
14	0xbd4f1c5e	-0.050564162
15	0x3df76af3	0.12080946
16	0x3e21c542	0.15797904
17	0x3e3d8836	0.18508992
18	0xbd43c637	-0.047796454
19	0x3e379883	0.17929272
20	0xbd90252b	-0.07038339
21	0xbe1d65ee	-0.15370914
22	0xbe3901a7	-0.18067037
23	0xbd1df789	-0.038566146
24	0xbe0c9b71	-0.13731171
25	0x3d91f286	0.07126336
26	0xbd0d8660	-0.034551978
27	0x3d9bf1d0	0.076144814
28	0xbd73f4d4	-0.05955966
29	0xbd344e83	-0.044020187
30	0x3d831395	0.06400219
31	0x3dc4880c	0.095962614
32	0xbd0f835a	-0.035037376
33	0x3d4911dd	0.0490893
34	0x3d025013	0.031814646
35	0x3d61caf5	0.055125196
36	0xbde04261	-0.10950161
37	0x3e116215	0.14197572
38	0xbd0957fa	-0.033531167
39	0x3df86885	0.121293105
40	0xbdb0db60	-0.086355925
41	0xbd751465	-0.059833903
42	0x3e3f80cc	0.18701476
43	0x3d2f45ed	0.042791296
44	0xbd58b576	-0.05290743
45	0xbdda2949	-0.10652406
46	0x3d383c61	0.044979457
47	0xbda8369b	-0.0821354
48	0x3b404029	0.0029335117
49	0x3e39babc	0.1813764
50	0x3db4cfd3	0.08828702
51	0xbe3e3250	-0.1857388
52	0xbdf67c0c	-0.12035379
53	0x3cae3ead	0.02127012
54	0xbdd166aa	-0.1022466
55	0xbe18b346	-0.14912137
56	0xbd8f3a60	-0.06993556
57	0x3d235b1e	0.039881818
58	0x3bb086fc	0.005387185
59	0xbde38a5c	-0.11110374
60	0xbe0e87b5	-0.13918956
61	0x3dfd0f92	0.123564854
62	0xbe1fe1c5	-0.15613468
63	0x3e0f93ee	0.14021274

forward_pass.2.weight f4 [64, 64]
0	0x3d8e9ae6	0.06963138
1	0xbd13e5f9	-0.03610799
2	0x3dd8f711	0.10593999
3	0xbddc28bb	-0.10749956
4	0x3c7c23f5	0.015389432
5	0x3d2ab4c0	0.041676283
6	0x3daa565a	0.083172515
7	0xbdbb8c29	-0.09157593
8	0x3d624564	0.055241957
9	0x3ca15f94	0.019698896
10	0xbd02fc2e	-0.03197878
11	0x3d6fff0f	0.058592852
12	0xbd953ccf	-0.07286989
13	0x3c91b28a	0.01778533
14	0xbdd2d86c	-0.102951854
15	0xbc470e3b	-0.012149389
16	0xbda1a95b	-0.0789363
17	0x3d8302d6	0.06397025
18	0x3dd9088f	0.105973355
19	0x3d671480	0.056416035
20	0xbdc25692	-0.09489168
21	0x3d21261e	0.039342992
22	0x3db2c2bd	0.0872855
23	0x3d4980d5	0.04919513
24	0xbdff9d27	-0.12481146
25	0x3d40ee15	0.047102053
26	0x3d26964f	0.04067069
27	0xbdd29d37	-0.102838926
28	0x3cdee40c	0.02720835
29	0xbc697015	-0.014247914
30	0x3de57b77	0.1120519
31	0xbcd6a115	-0.026199857
32	0x3d961dae	0.0732988
33	0xbbb84501	-0.0056234603
34	0x3ca8bb75	0.020597199
35	0xbdd37588	-0.10325152
36	0xbd7cf0b9	-0.06175301
37	0xbe01ec77	-0.1268786
38	0x3d0327b3	0.032020282
39	0xbd66e84f	-0.05637389
40	0x3d975b24	0.073904306
41	0x3daa3089	0.083100386
42	0xbdfb561c	-0.122722834
43	0xbd3534a7	-0.044239666
44	0x3da1ab76	0.07894032
45	0xbdbe62dd	-0.092962004
46	0xbdd68723	-0.10474994
47	0xbcbe3bd9	-0.023221897
48	0x3d0d394f	0.03447848
49	0x3d583335	0.05278321
50	0xbd8d4ef1	-0.068998225
51	0x3df2a7d5	0.11848418
52	0x3dc50eea	0.09621985
53	0xbdf410be	-0.11917256
54	0xbd950f4c	-0.07278308
55	0x3ccb38dc	0.024807386
56	0xbcec1700	-0.028819561
57	0xbde07326	-0.10959463
58	0xbd1c78e5	-0.03820123
59	0xbc640156	-0.013916334
60	0xbdf58d9c	-0.119899005
61	0x3c985e7d	0.018599743
62	0x3d86614a	0.06561525
63	0xbdddef65	-0.108366765
64	0x3ce4d0b2	0.027931545
65	0x3d963e1b	0.073360644
66	0x3d8680bd	0.06567524
67	0xbdfdf4c9	-0.12400205
68	0xbdc74f35	-0.097319044
69	0x3e0011bd	0.12506767
70	0x3c1b534e	0.009480311
71	0xbd8b2814	-0.06794754
72	0x3d7b0041	0.06127954
73	0x3d9a80c2	0.0754409
74	0xbd0e4221	-0.034731034
75	0xbd66fcdb	-0.056393486
76	0xbddd7227	-0.108127885
77	0x3da59b0c	0.080862135
78	0xbdc4e70e	-0.09614383
79	0x3d1598e9	0.03652278
80	0x3bfecd89	0.0077759665
81	0xbdbe835e	-0.093024
82	0x3c5ab94a	0.01334984
83	0xbbc67139	-0.0060559777
84	0xbb92dc6d	-0.004481843
85	0x3df14312	0.11780371
86	0x3ddb950e	0.10721789
87	0xbd1585a5	-0.036504406
88	0x3dbe4921	0.09291292
89	0xbdef3e6d	-0.11681829
90	0x3c78941f	0.015172034
91	0x3c0f36b7	0.008741072
92	0xbcb2cab4	-0.021825172
93	0xbc3e2a52	-0.01160677
94	0xbcc8cec8	-0.024512663
95	0xbc5087b4	-0.012727667
96	0x3cbac794	0.022800244
97	0xbd8175c2	-0.06321289
98	0x3dbb6849	0.0915075
99	0xbd991939	-0.07475514
100	0x3dc449e1	0.09584404
101	0x3d318918	0.043343633
102	0x3c0d13d2	0.008610683
103	0xbdb04589	-0.08607013
104	0xbd9885a0	-0.07447362
105	0xbcc78bbb	-0.02435862
106	0xbd4fb8d6	-0.050713383
107	0xbd999801	-0.074996956
108	0xbbaf2d59	-0.005345982
109	0x3d94b926	0.07261877
110	0xbc5869b1	-0.013208793
111	0xbda865cc	-0.08222541
112	0x3dc456c4	0.09586862
113	0x3d19058e	0.037358813
114	0x3c8a8b4c	0.016912125
115	0x3dca4d7c	0.0987806
116	0x3d071451	0.03297836
117	0x3dba9f25	0.09112386
118	0xbd23f6bd	-0.04003023
119	0xbdacbb3a	-0.08434148
120	0x3c9aff41	0.018920543
121	0xbd2dc6a4	-0.042425767
122	0xb9aa7117	-0.00032509185
123	0x3dc0bf85	0.094115295
124	0xbd80d2d9	-0.06290216
125	0xbd04c55a	-0.03241477
126	0xbcba7f60	-0.022765815
127	0xbd5a069e	-0.053228967
128	0xbde4e6d2	-0.11176838
129	0xbddefffe	-0.108886704
130	0x3d86ad60	0.065760374
131	0xbd3ca7f2	-0.046058603
132	0xbd84a5c8	-0.06476933
133	0x3dae12e1	0.084996946
134	0xbc2462c2	-0.010033311
135	0xbc39756b	-0.0113194985
136	0x3cb4ea45	0.022084365
137	0x3d2ec027	0.04266372
138	0xbc91c92e	-0.017796125
139	0xbd7d43eb	-0.06183235
140	0x3dbc2105	0.091859855
141	0x3b95272f	0.00455179
142	0x3d31c7a8	0.043403298
143	0x3c2680e1	0.010162563
144	0x3df627b5	0.12019292
145	0xbc69fc7a	-0.0142813865
146	0xbd98f989	-0.0746947
147	0xbc088c3c	-0.008334216
148	0x3ddc064e	0.1074339
149	0xbdaac084	-0.08337501
150	0x3da1746b	0.07883533
151	0xbda8babb	-0.08238741
152	0xbd164c85	-0.03669407
153	0xbd18f450	-0.03734237
154	0x3dcf6087	0.10125833
155	0x3d80a610	0.06281674
156	0x3c165acb	0.00917692
157	0x3acfd4b9	0.0015856243
158	0xbdcb4701	-0.09925652
159	0x3d6e4f25	0.058180947
160	0xbde872ce	-0.11350022
161	0x3dd150b4	0.10220471
162	0x3df46846	0.11933951
163	0x3dc9877f	0.09840297
164	0x3c36cb56	0.0111568775
165	0x3db03719	0.08604259
166	0x3ca7ff9e	0.02050763
167	0x3b9eb3e5	0.0048432224
168	0xbcb130a6	-0.021629643
169	0x3ddc1a96	0.10747258
170	0xbc43b21e	-0.011944322
171	0x3db7c7f0	0.08973682
172	0xbd8a2e7c	-0.067471474
173	0x3da41272	0.08011331
174	0x3cb6432b	0.022248825
175	0x3d628db1	0.05531091
176	0xbda2a326	-0.07941274
177	0xbcf8d0e0	-0.030373037
178	0x3ce794b8	0.028269157
179	0xbddd2f27	-0.10800009
180	0xbd036bde	-0.032085292
181	0x3cbfbc39	0.023405181
182	0xbdaa96c9	-0.08329541
183	0xbde4674f	-0.11152517
184	0x3d94778f	0.072493665
185	0x3d64317a	0.055711247
186	0x3d4d5a91	0.0501352
187	0xbdc58552	-0.096445695
188	0xbd9ce0f3	-0.07660093
189	0xbe079f9a	-0.13244477
190	0x3d819054	0.063263565
191	0xbdcef688	-0.10105616
192	0x3d7d13f1	0.061786596
193	0xbcbfa542	-0.02339423
194	0x3d9af525	0.07566289
195	0xbdda9b00	-0.10674095
196	0xbd9f2ed0	-0.07772601
197	0xbb92a6e0	-0.0044754595
198	0xbd88b7c6	-0.06675677
199	0xbce911b2	-0.02845082
200	0xbd278d68	-0.04090634
201	0xbd771895	-0.060326178
202	0x3dbd21bc	0.0923495
203	0x3d9f0822	0.07765223
204	0xbd67b814	-0.056572035
205	0x3c8b95e0	0.01703924
206	0xbd5b189c	-0.053490266
207	0xbb75e9f3	-0.0037523478
208	0xbd1119b9	-0.03542492
209	0xbd330eae	-0.04371517
210	0xbda234d6	-0.07920234
211	0xbc7dc9a7	-0.015489972
212	0x3de01fb7	0.10943549
213	0xbc3a1aec	-0.011358958
214	0x3da2a710	0.07942021
215	0xbde1f7ca	-0.1103359
216	0xbde05ada	-0.109548286
217	0xbd81e11a	-0.06341763
218	0xbd901df8	-0.07036966
219	0xbdf9b3c7	-0.12192493
220	0xbdec17e7	-0.115279965
221	0xbdb233e9	-0.08701307
222	0xbd0711c8	-0.032975942
223	0x3d179262	0.037004836
224	0x3d72e27a	0.059298016
225	0x3db9e8d4	0.090776116
226	0x3dc9ad35	0.0984749
227	0x3d24cae0	0.04023254
228	0xbd30bba8	-0.043147713
229	0x3d5520f3	0.052033376
230	0x3d2d35ce	0.04228764
231	0x3c19ff8f	0.009399309
232	0xbc8e6ffe	-0.017387386
233	0x3c9ffe20	0.019530356
234	0xbd8b9520	-0.06815553
235	0x3d39a1f4	0.045320466
236	0xbdf77e35	-0.12084619
237	0x3dc274e8	0.09494954
238	0xbd92e07e	-0.07171725
239	0x3cd8d231	0.026467415
240	0x3db4f461	0.08835674
241	0x3d8b77df	0.06809973
242	0xbdc98223	-0.09839275
243	0xbd82cab2	-0.06386317
244	0xbdc20fbe	-0.09475659
245	0xbdc9e512	-0.09858145
246	0x3d670f0c	0.056410834
247	0xbde9e2e6	-0.114202306
248	0x3de086ab	0.10963186
249	0x3c24adeb	0.010051231
250	0x3cad110b	0.02112629
251	0xbd76422f	-0.06012171
252	0xbd82b37c	-0.0638189
253	0xbd8a4a27	-0.06752425
254	0xbdbf9083	-0.09353735
255	0x3d8cc186	0.06872849

forward_pass.2.bias f4 [64]
0	0x3d805251	0.062657006
1	0x3dd7a1d8	0.10528916
2	0x3d033936	0.032036982
3	0xbd81cc77	-0.06337827
4	0xbcc9c73d	-0.024631137
5	0xbdb85821	-0.09001184
6	0xbda662b8	-0.08124298
7	0x3d72cb28	0.059275776
8	0x3d667143	0.05626036
9	0x3dca8add	0.09889767
10	0xbd5b1019	-0.05348215
11	0xbd8f8e8b	-0.0700961
12	0x3d1ba958	0.038003296
13	0x3daa3af5	0.083120264
14	0x3d218957	0.039437618
15	0x3d88ea76	0.06685345
16	0xbdba36f1	-0.090925105
17	0x3e05262d	0.13002844
18	0xbc64b25d	-0.013958541
19	0xbd8498e4	-0.06474474
20	0xbcca2590	-0.024676114
21	0xbd87a8a0	-0.066239595
22	0x3e00a10c	0.12561435
23	0x3c852125	0.016251156
24	0x3cff0e50	0.031134754
25	0x3dda7f65	0.1066883
26	0x3cc9e455	0.02464501
27	0xbda3e079	-0.08001799
28	0xbd481193	-0.048844885
29	0x3de64a81	0.11244679
30	0x3d9edcf3	0.077569865
31	0xbbbc33c7	-0.005743477
32	0x3ceb6bf0	0.028737992
33	0xbcabd009	-0.020973222
34	0x3ad77fb6	0.0016441259
35	0xbdbb2e2f	-0.09139668
36	0xbd8989d4	-0.06715742
37	0xbd1b2643	-0.037878286
38	0x3c038ff5	0.0080299275
39	0xbd70cd25	-0.05878939
40	0xbc6621a4	-0.0140461065
41	0xbdf51ea0	-0.11968732
42	0x3cec8c84	0.028875597
43	0x3d61cfc7	0.055129793
44	0xbdb176db	-0.08665248
45	0x3dab7015	0.08370987
46	0xbde91485	-0.11380867
47	0x3b900a8a	0.0043957876
48	0x3db47b26	0.08812551
49	0xbc6eecdb	-0.014582838
50	0x3dd14e7c	0.10220048
51	0xbd679fd1	-0.056548897
52	0x3dd38211	0.103275426
53	0x3d7ef0b4	0.06224127
54	0xbc217efe	-0.009856937
55	0x3d58133c	0.05275272
56	0x3d2b4cf4	0.041821435
57	0x3ddf334d	0.10898457
58	0xbc2952de	-0.0103346985
59	0x3d92bbbb	0.07164713
60	0xbdab73eb	-0.08371719
61	0xbd30ccff	-0.04316425
62	0xbc52f0ea	-0.012874821
63	0xbd924c8d	-0.07143507

forward_pass.4.weight f4 [1, 64]
0	0xbde80742	-0.11329509
1	0x3c0b82c1	0.008515061
2	0x3daf3e21	0.08556772
3	0xbd6df9a6	-0.05809941
4	0x3e46e14b	0.1942188
5	0xbda60f38	-0.081083715
6	0xbdfcfae3	-0.1235254
7	0xbc89e479	-0.016832577
8	0x3df44dff	0.11928939
9	0x3e86d491	0.2633405
10	0xbedc1c26	-0.42990226
11	0x3e97a091	0.2961469
12	0xbe2dc278	-0.16968715
13	0xbdb51657	-0.088421516
14	0xbd9161a1	-0.07098699
15	0xbe4aaf31	-0.19793393
16	0x3c3d48a9	0.011552968
17	0xbec2d22e	-0.3805098
18	0xbdc70ac5	-0.09718851
19	0x3c33bdcc	0.010970544
20	0xbde781ac	-0.1130403
21	0x3e553f24	0.20824867
22	0xbe51a8a1	-0.20474483
23	0xbdb6ca3d	-0.08925293
24	0x3cb54085	0.022125492
25	0xbd8f75f6	-0.07004921
26	0x3dc0a395	0.09406201
27	0xbd85ad21	-0.06527162
28	0xbb12089c	-0.0022282964
29	0x3d474155	0.04864629
30	0x3cc6b425	0.024255821
31	0x3d8f25a2	0.069896
32	0x3dd6bb2f	0.10484921
33	0xbe1b14b7	-0.15144621
34	0x3d9d1720	0.07670426
35	0x3e3f2680	0.1866703
36	0xbd0a8b4f	-0.03382426
37	0x3d9c7665	0.076397695
38	0xbd4862d7	-0.048922386
39	0x3d046285	0.032320518
40	0x3d9917aa	0.07475217
41	0x3e38d392	0.18049458
42	0xbe37fb08	-0.17966855
43	0x3cc4f508	0.024042621
44	0xbdaf4c01	-0.085594185
45	0xbe650cf2	-0.2236822
46	0x3d17f013	0.037094187
47	0xbeb9a342	-0.36257368
48	0xbe2b764a	-0.16744342
49	0xbdc4754a	-0.095926836
50	0xbe47c5d3	-0.19509058
51	0xbdbb2d46	-0.091394946
52	0xbd102c2b	-0.03519837
53	0x3e2f7158	0.17133081
54	0x3cb1658a	0.021654863
55	0xbb53f50c	-0.0032342104
56	0x3e42ec6f	0.19035505
57	0x3d01e1ea	0.03170959
58	0xbd09eb48	-0.033671647
59	0x3d877369	0.066138096
60	0x3ea785c0	0.3271923
61	0xbdc538c2	-0.09629966
62	0xbd6c2b85	-0.05765869
63	0x3bcbcea1	0.0062197004
