src/willse_backgammon/AI_Agents/Saved_NNs/02-0000-0001.pt (torch, 70714 bytes, 5 tensors)

forward_pass.0.weight f4 [64, 198]
00000000: 1fbd 8b3d 3da1 043d fbea 7fbd 78cf 75bc
00000010: 4528 0bbd 9155 6cbb 8fd9 523a c2da 8a3d
00000020: 5836 263d 6424 833c a48b cabc d3d8 a5bc
00000030: fb74 683d 119b 823d d76d 0b3b a1bb 403d
00000040: d658 eabc 825a e53b dea2 4fbc 5123 da3c
00000050: 0acd 1e3d d1d0 d6bc 28ce 403d 39fe 8fbd
00000060: 627a be3b aec3 b2bc ab5d 88bd 4c90 20bd
00000070: 2fe9 28bd f89a e4bc 2fbc 7dbd 6535 9b3b
00000080: e2eb 7fbc 7ad8 86bd 5711 b339 dd52 703d
00000090: 3e3a 663d 6ac7 3cbd 90ae 88bd bf98 f8bc
000000a0: 0ac4 9e3c 7aba 4e3c 2e5c 14bd e8b0 61bd
000000b0: dc1f 4b3d 3ff6 2a3d 0773 203d 1fdb 7dbc
000000c0: 6430 5cbc 62b7 18bd b49a c83c abdc 1abd
000000d0: d49d 033d c62b 3fbd 4d76 053d e282 bfbc
000000e0: a33f d3bb ad06 3e3b ff28 8bbd c012 93bb
000000f0: e43f 363d 5141 acbc 77db 4fbd f7a2 7d3d
00000100: fd0e 3fbc 5472 163d 27bb fcbb b8b2 8f3c
00000110: c98b 173c fa9a fe3b 6008 2dbc d006 8ebc
00000120: 84e6 8a3d f62b 143c bcee 753c a8ac f83c
00000130: b140 e33b e6c9 29bb 053b 6f3d 2b66 dfbb
00000140: ae7e bb3c f98b 7fbd c39a fd3b 8cd2 bcbc
00000150: 5245 ca3b 0a86 79bb b7f1 1f3d 805c ff3c
00000160: c8fa 2fbd ebc9 703d 0a50 7ebd 1fa7 503c
00000170: a1e2 26bd 0e1e 233b 710e 54bd d7f9 853d
00000180: d574 563d 6041 303d 84bd 05bd 107b d1bb
00000190: 2461 a5bb 7530 ca3b 5270 883d 8a6d 45bd
000001a0: eb6d d0bc a650 4ebc c79a 013d c12d 683d
000001b0: bfb0 573d f34c 253d 9583 ac3c 4993 c5bc
000001c0: 5d68 b53c 22a1 883d e1b2 aebc 54af 7a3d
000001d0: 153a 7c3d f32e b9bc 5dfc 8d3d 0976 723d
000001e0: cc87 5c3d d425 88bc fab6 533d a701 a93c
000001f0: 6361 a739 a807 24bd 5bc8 56bb c52a 863d
00000200: 9242 22bd af40 f83b b1ef 1ebc 642f a1bb
00000210: 6346 e3bc 9e5f 7abc 39cd e6bc d52f 61bc
00000220: f4e3 5c3d aad7 d13c b2ad 2c3c 99b1 c5bb
00000230: 5116 a2bb 00c6 b33a 3af3 1abd 722e 043d
00000240: 50ca 0bbd 49d6 213d d7be 87bc 706e 18bc
00000250: 9a50 a83b ff52 853d c4fe 16bd c878 7c3c
00000260: 1e6f 573d 9c88 0e3c 0b50 54bd c50e 90bc
00000270: 7def 31bd 58ad 75bd 089a d3bc 17c4 93bb
00000280: f081 013d 3dcb 0cbd fd52 40bc 1d53 57bd
00000290: 7fd2 3abc 5eb4 74bd 2ff0 fbbc 0c84 ad3c
000002a0: 44f7 2dbd 7128 1b3d c83d b53b 6d46 213d
000002b0: e514 d6bc c932 4c3d a021 fdbb ce8c 043d
000002c0: d905 b6bc 617a 053d 06ce 323d 57a1 d4bc
000002d0: 73a1 8bbd 2e0a 953c b6dd 89bd c7f2 2e3d
000002e0: 407c 88bd 0d78 f73b 3723 843d 406f 67bd
000002f0: fdcb 8a3d 68ed cfbc c416 83bd 90ff 51bc
00000300: 1f10 7b3d a5cf b83c 5fc8 543d 9159 363d
00000310: 205f 9e3d 003d 77bc c24d 3e3d 7038 0ebc
00000320: e54a 683d 03ff 94bc 573c 74bd 5414 d33b
00000330: a7b1 753d 1bd4 123d 9fb5 9bbc c877 73bd
00000340: dabb 6a3d e4e5 6d3d 8699 ccbc 8247 833d
00000350: f800 ac3c 28f2 713d d380 1cbd 82f9 343d
00000360: 9e85 333d 24e2 27bd d115 883c dd8c 2c3c
00000370: a18f bdbc 50df 88bd 38dc 89bd 764a 563d
00000380: d8d0 073c ab6e 16bd 6158 473d 79fa 893d
00000390: 5771 03bd 8b67 7bbd 3170 683d ee4c 1fbc
000003a0: fdd4 a93c 6bca d5bc c452 913d 89ed 8b3c
000003b0: 2ebf 3dbd 42d0 023d dc04 cdbc c6df 183d
000003c0: d3fd 733d 8cd2 82bc db30 90bc 8f27 87bd
000003d0: 13c2 39bd c93d 9fbc a478 913c 3ee5 85bc
000003e0: dc08 3d3d 1fc3 863d 6495 90bc 466c 91bd
000003f0: ea2e 5ebc c97e 853d d209 663d a097 d4bc
0.06823181 0.03238033 -0.062479954 -0.015003078 -0.03397395 -0.0036061744 0.0008043283 0.06780006
0.04057917 0.016008563 -0.024724789 -0.020244991 0.056752186 0.06377233 0.0021275186 0.047053937
-0.028606813 0.0069993148 -0.012673108 0.026628168 0.03876976 -0.026222618 0.047071606 -0.07030911
0.005812929 -0.021821823 -0.06658491 -0.039200112 -0.041238006 -0.027905926 -0.061947044 0.0047365897
-0.015620204 -0.065842584 0.0003415446 0.058672775 0.056207888 -0.046088614 -0.0667392 -0.030346273
0.019380588 0.012617702 -0.036220722 -0.05510035 0.04959093 0.041738745 0.0391722 -0.015494137
-0.013439272 -0.037284262 0.02448783 -0.0378081 0.03213294 -0.046672605 0.032583524 -0.02337784
-0.006446795 0.0028995678 -0.06794929 -0.004488319 0.044494525 -0.021027239 -0.050746407 0.061922994
-0.011661288 0.036730126 -0.00771274 0.017541274 0.009249636 0.0077699395 -0.010561079 -0.017337233
0.067822486 0.009043684 0.015010532 0.030355766 0.006935202 -0.0025907694 0.058405895 -0.0068175993
0.022887554 -0.062389348 0.0077393963 -0.023049615 0.0061728144 -0.0038074278 0.039048877 0.031172037
-0.042963773 0.058786314 -0.06208805 0.012735157 -0.040743474 0.002488974 -0.051771585 0.06541794
0.052357513 0.043031096 -0.03265144 -0.006392844 -0.0050469805 0.0061703273 0.066620484 -0.048200168
-0.025443038 -0.01259247 0.031641748 0.05668426 0.052658793 0.040356588 0.021058837 -0.024118083
0.02214449 0.06671359 -0.02132553 0.061202362 0.06157883 -0.022605395 0.069329 0.0591946
0.053840443 -0.0166196 0.051688172 0.02063067 0.0003192528 -0.040046364 -0.003277323 0.065511264
-0.039614268 0.0075760703 -0.009700702 -0.0049189795 -0.027743524 -0.015281586 -0.02817403 -0.013744314
0.05392833 0.025615532 0.010539459 -0.006033134 -0.004946508 0.0013715625 -0.037829615 0.032270856
-0.034128487 0.039511 -0.016570492 -0.009303674 0.0051365616 0.06509971 -0.036864057 0.015409656
0.052596204 0.008699562 -0.051834147 -0.017585168 -0.043441284 -0.059979767 -0.025830284 -0.0045094597
0.03161806 -0.03437351 -0.011738536 -0.052569497 -0.011402725 -0.059742324 -0.030754177 0.021181129
-0.04247214 0.037880365 0.0055310465 0.039373804 -0.02613301 0.04985312 -0.0077249557 0.032360844
-0.022219585 0.032587413 0.04365351 -0.02595584 -0.06817903 0.01819333 -0.06731741 0.042712
-0.06664324 0.007552153 0.06452029 -0.05650258 0.06777189 -0.025381759 -0.064008266 -0.0128172785
0.06129467 0.02255995 0.0519489 0.04451901 0.077329874 -0.015090227 0.046460874 -0.008680448
0.05671205 -0.018188005 -0.059627857 0.0064416323 0.059983876 0.03584681 -0.019007502 -0.059440404
0.057308055 0.05808057 -0.02497555 0.064101234 0.020996556 0.05906883 -0.038208794 0.04418326
0.0438286 -0.04098715 0.016611965 0.010531631 -0.023139777 -0.066832185 -0.067314565 0.052317105
0.008289538 -0.036726635 0.04866827 0.06737227 -0.03209051 -0.061378043 0.05674762 -0.009722931
0.020731444 -0.026097497 0.070958644 0.017081039 -0.0463249 0.03193689 -0.025026731 0.037322782
0.059568238 -0.015969537 -0.017601421 -0.06599342 -0.0453511 -0.019438641 0.017757721 -0.016344663
0.046151027 0.06580185 -0.01764936 -0.0710073 -0.01356099 0.06518323 0.05616171 -0.025951207

forward_pass.0.bias f4 [64]
00000000: 5637 643d 364c 4abd 2332 2c3d 3cb9 70bd
00000010: f9a9 893c 41fa 0e3c ab5a 54bd 88fe cd3c
00000020: f700 6dbb 0538 a23c 372d 35bd fe5b 163d
00000030: 4384 2d3c d3d7 83bd be38 493d 373e fbbc
00000040: 6e1a 1abd 6cce 983c 6557 6dbd f69c 943c
00000050: ff6f 443d 4539 0d3d b0fe ba3d 8add 84bd
00000060: 3507 85bc ce31 143d 1ac0 a4bb bb90 733d
00000070: 85a2 613d 9ae7 26bd 98b2 2eb9 5c25 40bc
00000080: 4e34 fb3c 1307 b63c a999 58bd 1c7f 97bc
00000090: a9bc 69bd 3262 0c3c 2a24 ca3b 810f 0bbc
000000a0: 105e 7bbb f249 523d cdeb 89bd 2cac 7dbb
000000b0: 7664 18bd 7127 a1bc 4878 e1bc 9719 84bd
000000c0: 578d 633d 9fba 803d 71d2 27bd ca0d 5d3d
000000d0: 72da ce3a 87bf bc3d 651f 603d c8bb 603d
000000e0: d38a 913d ec41 283d b8bd 313b 3331 3c3d
000000f0: 88a3 71bd 9ae6 34bd 6ca7 173d 3203 763d
0.055716835 -0.049389087 0.04204 -0.058770403 0.016804682 0.008726657 -0.05184428 0.025145784
-0.0036163905 0.019802103 -0.044232573 0.036708824 0.010590616 -0.064376496 0.04912638 -0.030669315
-0.03762286 0.018653117 -0.057944674 0.018141251 0.04795837 0.034478445 0.09130609 -0.06487568
-0.016238788 0.03618031 -0.005027783 0.059464198 0.05508663 -0.040748216 -0.00016660464 -0.011727657
0.03066459 0.02222017 -0.052880917 -0.018493228 -0.057064686 0.008568333 0.006168862 -0.008487583
-0.0038355626 0.05134005 -0.067344286 -0.0038707359 -0.037205182 -0.019672127 -0.027523175 -0.064501934
0.055554714 0.06285595 -0.040972177 0.05396823 0.0015781655 0.092162184 0.05471744 0.054866582
0.07106557 0.041078493 0.0027121138 0.045945358 -0.058993846 -0.04416523 0.0370249 0.06006164

forward_pass.2.weight f4 [64, 64]
00000000: 467f b43d 6887 c0bd 9ddc a13d b836 273c
00000010: 94a6 dd3d 6417 3abd 69ba 5f3d 628a 503c
00000020: 530c d4bb 6501 a8bd 48b4 67bd 2910 ab3c
00000030: a722 b03d c240 c73d bc6c cdbc 1580 31bd
00000040: 4f9a bbbd aa3a 433d 4c54 aa3b 7d91 aebd
00000050: f98f 5dbd ba10 223d 76ba 5abd 8acf a93d
00000060: a84b a9bd 9762 b7bd df81 ef3c b226 8f3b
00000070: f2d9 c23d bcfe c93d 5bbb 9fbd 1415 e93c
00000080: df8c 233d 35f7 10bd 7e38 76bd 858b 95ba
00000090: 542f c4bd 965f 883c 5c04 db3d 6065 8dbd
000000a0: 705e bcbd deb7 21bd d91b f33c aff1 a9bd
000000b0: ab12 843c a295 9d3d a862 323d 8813 87bd
000000c0: d4f4 57bd 9bc6 f63c e537 b23d 7410 f33d
000000d0: 4ed2 413c 8621 bb3d c82f aabc e913 693d
000000e0: bc8c b6bd 9a4c 073d abd5 983b e859 e9bc
000000f0: c785 8dbd bff2 e83c 3d3f 0bbd 7586 cc3d
00000100: 4c1a 693c 7bff 84bd 8182 90bd 8d61 f13d
00000110: 20a3 3fbd b11f b33c 0d6f 283c f5d3 4bbd
00000120: d718 723d fef4 e5bd 248a 27bc 9d76 bc3b
00000130: a6ba 423c ac0e 9f3d 9a46 d93c 59d8 933d
00000140: 2e1a 6c3d 01aa 423d 06c8 ad3d c150 153b
00000150: 9587 abbd 2b0f b6bd 7236 36ba cb17 82bd
00000160: 25dd 98bd df22 d23d 7589 82bc 344e cebd
00000170: 6ef5 a53d 70aa 8dbd d58b 67bd 2236 843d
00000180: 0ecc 91bb 3828 733d a736 753d d98b b4bd
00000190: 3659 80bd f986 cbbd 10a6 6e3d 696d 5b3d
000001a0: 47fe 09bb bfff debd 1219 bebd c0fb 6ebd
000001b0: 0259 73bc 2f53 eabd d491 f03d 6bb2 8a3d
000001c0: 7e7e d5bd edf2 5a3d d2e5 27bd 2b3d 01bd
000001d0: 212a 853d 65ac 733d ab20 00bc 8f2a 803d
000001e0: 4713 a6bc 98e9 483d 86ee 653c 8799 bcbd
000001f0: 2a5a e83c 9acc ac3d 66a9 dcbd 33b5 f63d
00000200: 5741 e23d a959 b1bc 3882 bcbd a90f 45bc
00000210: 764a c63c 1ba3 b2bd 2c56 dd3d c9bb 6e3d
00000220: c138 da3d 5217 813d 5415 1e3d 0622 a5bc
00000230: 4d13 82bc b664 a1bd 8eee b1bb 015a 6d3d
00000240: a716 bc3c 60f1 323c cfaf a6bc a60e a1bd
00000250: 0a68 cabd 48e1 b43c b261 acbc 42e5 0ebd
00000260: 1fbe 423d 3070 93bd b53a d33c 368f be3c
00000270: 8065 793d e541 c53d a628 00be ed94 943d
00000280: 1e5e 36bd 2871 c2bd adf1 5fbd 3afb 75bc
00000290: 7663 f2bc c057 b93c dca8 a3bd 401f 6dbc
000002a0: bd65 f8bd fe1c 4d3c 4158 03bd 3659 0abd
000002b0: 01fb 9b3b 18f0 f93d 97d5 92bd ed6f 77bd
000002c0: 256d 3b3d 702e dd3d ac7c 973d d9bf bcbd
000002d0: c6ad 0f3d 5348 e1bb d82a d2bd 4ac1 9cbd
000002e0: ea83 9cbd 2642 f6bd db10 1b3d 51d0 aabd
000002f0: ccf2 59bd a176 313d 87f4 4abd e554 febb
00000300: f3bf 6dbc 97b9 2fbd 63c1 1ebd 83f1 e0bd
00000310: 8da8 89bd 6f78 a4bd bd11 823d 48ba e3b7
00000320: c1ff 53bd aa02 d6bd 9de1 bfbc 0182 58bd
00000330: adf4 65bd 3a3d dbbd 268f a73d bc59 94bd
00000340: 12cd ffbc 523a d8bd 7db5 64bd 9994 823d
00000350: 06f1 a23d 942e f5bd 83a9 133b ddf3 aabc
00000360: ee25 4fbd 2eac 14bd f63e e83d 84ea 19bd
00000370: 0823 ca3c 5900 a13d 422c 4fbd 6f2c 083d
00000380: ea58 0dbb 3850 d4bd 48d6 f73d 19a5 dc3c
00000390: e57b d5bd d7c4 1fbd cb0a aabd b29f 81bd
000003a0: 2200 edbd 8c6d aa3d 1af8 8b3d d1af fabd
000003b0: 431d 7abd df7c fdbd a7f8 ef3d 9f2b fd3d
000003c0: 2bca 86bd ac81 fbbd 4859 4f3c b39e 85bd
000003d0: fde7 b03d c653 bc3d 0f8d e0bd 1501 dd3d
000003e0: f06a a3bd 552e 963d 70f7 323c 8083 9ebc
000003f0: d341 bf3c 487f 723d 4ce2 f13d 34b0 443c
0.08813338 -0.09400827 0.07903407 0.010205917 0.10822788 -0.045432463 0.054621134 0.0127283055
-0.0064711957 -0.08203391 -0.056568414 0.02088173 0.086003594 0.097291484 -0.025076263 -0.04333504
-0.091602914 0.04766337 0.0051980373 -0.085238434 -0.05409238 0.039566733 -0.05340048 0.08291538
-0.082663834 -0.089543514 0.029236732 0.0043686265 0.09514226 0.0986304 -0.07799407 0.028452434
0.039929267 -0.035392005 -0.06011247 -0.0011409378 -0.095793396 0.016647141 0.10694191 -0.06904101
-0.091977 -0.03948199 0.029676365 -0.082980506 0.016122183 0.07694556 0.043551117 -0.06595522
-0.05272372 0.030124 0.08702067 0.118683726 0.011829926 0.091372535 -0.020774737 0.056903753
-0.08913562 0.033032037 0.004664143 -0.028485253 -0.06910282 0.028436063 -0.033995856 0.09986583
0.014227461 -0.064940415 -0.07056142 0.117861845 -0.046786427 0.021865698 0.010280383 -0.049762685
0.05910572 -0.11228369 -0.010225806 0.0057514445 0.011885321 0.0776647 0.026522923 0.072189994
0.057642154 0.04752541 0.08485417 0.0022783729 -0.083754696 -0.08889612 -0.0006950862 -0.063521944
-0.07464055 0.102605574 -0.015934685 -0.1007351 0.081034526 -0.06917274 -0.05652984 0.064556375
-0.004449374 0.059364527 0.059866574 -0.08815736 -0.06267016 -0.09937853 0.05826384 0.05357114
-0.0021056102 -0.108886234 -0.092821255 -0.058345556 -0.014852764 -0.11441647 0.117465645 0.06772312
-0.10424517 0.05345433 -0.040990658 -0.031552475 0.06502176 0.05949058 -0.007820289 0.062581174
-0.020272864 0.049050897 0.014033919 -0.092089705 0.028363306 0.08437462 -0.10774498 0.1204628
0.11047619 -0.021649199 -0.09204525 -0.012027659 0.024205428 -0.08722516 0.108074516 0.058284555
0.10655356 0.06303276 0.03859456 -0.020157825 -0.015878344 -0.07880537 -0.0054300493 0.057947163
0.02296002 0.010921806 -0.020347504 -0.07864122 -0.09883125 0.022080079 -0.021042679 -0.034886606
0.047544595 -0.071991324 0.02578483 0.023261648 0.060887814 0.09631709 -0.12515506 0.07254968
-0.04452335 -0.09494239 -0.05467384 -0.01501351 -0.029588442 0.02262485 -0.07991192 -0.014472783
-0.1212878 0.012519119 -0.032066587 -0.033776484 0.0047601466 0.122039974 -0.07169645 -0.060409475
0.045758385 0.10799873 0.07396826 -0.092162795 0.035077833 -0.006875077 -0.10262078 -0.076540545
-0.07642348 -0.120243356 0.03785787 -0.083405145 -0.053210065 0.043326024 -0.049549606 -0.007761585
-0.014511096 -0.0429016 -0.038758647 -0.10983565 -0.06721602 -0.080307834 0.063510396 -2.7147253e-05
-0.051757578 -0.10449727 -0.02342301 -0.052858356 -0.056141544 -0.107050374 0.081816 -0.07243678
-0.031225715 -0.10557999 -0.055837143 0.06375999 0.07956128 -0.11971775 0.0022531457 -0.020868236
-0.050573282 -0.036297016 0.11340134 -0.037577167 0.024674907 0.078613944 -0.050579317 0.0332455
-0.002156789 -0.10366863 0.12101418 0.026934193 -0.10424022 -0.03900608 -0.0830284 -0.063292876
-0.11572291 0.08321676 0.06834431 -0.122405656 -0.061063062 -0.12377333 0.117173485 0.12361836
-0.06581529 -0.12280592 0.012655564 -0.0652441 0.08637998 0.09195666 -0.10964405 0.10791222
-0.07979381 0.07333056 0.0109232515 -0.019349813 0.023346817 0.059203416 0.11810741 0.012004901

forward_pass.2.bias f4 [64]
00000000: 51d2 a83d cbfb 013d eb74 a63d e68d 4dbc
00000010: 03d9 01be ce7c cebd 7e1d ff3d 1797 403d
00000020: 75e9 eebc 1899 a3bd abc7 c13d 568b 6bbd
00000030: d43e 223d 049c da3d d19a 37bd df5b b2bc
00000040: 1ffa c9bd 7658 adbd 549f d2bc 3bbb b0bd
00000050: c05f 9abd 5ed8 3abd 53a1 d1bd d215 893d
00000060: a1c0 0b3e 160e 52bd bc54 083d 5545 763d
00000070: ea31 88bd 02e7 81bc 44d7 4f3d 044c b6bd
00000080: d434 683c 3324 efbc 238c a93c 39d0 863d
00000090: aaef e4bd ed10 d83d 6cea 6a3d a6fa c33d
000000a0: 8994 bebc 5318 dcbd 5bf9 b6bd 68bc ebbb
000000b0: 7726 053d 5648 c23d 8949 003c 259d 2abd
000000c0: 3f9d 08ba 941f 9cbd 3672 ccbd 82b2 adbd
000000d0: 0108 033d dc59 1e3b 21a8 a6bd e51b 723d
000000e0: 3bbc cf3d a1ee 343d b8c6 adbd 738a ba3c
000000f0: 2e69 b4bd c936 cc3c 2fc2 43bd 00b7 91bc
0.0824324 0.03173427 0.08127769 -0.012546038 -0.1268044 -0.10082398 0.12456797 0.04701909
-0.029164055 -0.07988185 0.09461912 -0.057505928 0.0396107 0.10674289 -0.04482538 -0.021772323
-0.0986216 -0.08464138 -0.02571074 -0.086294614 -0.07537794 -0.0456165 -0.10235848 0.06693615
0.13647701 -0.051282965 0.033283934 0.060124714 -0.06650145 -0.015857223 0.050742403 -0.089012176
0.014172751 -0.029192066 0.020696705 0.06582684 -0.11178525 0.10550103 0.05735247 0.09569292
-0.023264186 -0.10746827 -0.089342795 -0.0071940906 0.032507386 0.09486453 0.007830032 -0.04165377
-0.000521142 -0.076232105 -0.099827215 -0.08481313 0.031990055 0.0024162447 -0.08137537 0.059108634
0.10143324 0.044172887 -0.08485168 0.022771096 -0.08809124 0.024928467 -0.04779261 -0.017787457

forward_pass.4.weight f4 [1, 64]
00000000: 6ab0 803d 2965 873d 491c 443d fc04 223d
00000010: 8133 c4bd 4056 97bd 416c a4bd 1c70 513d
00000020: e5f0 8e3e ddf5 c2bd cc90 1b3e 8c4d abbd
00000030: fe58 39bd 245a 1c3c bcac c9bd 3503 2bbe
00000040: 1fd9 37bd e2bb 2abb 4419 fcbc 5d07 84bc
00000050: a647 153e ab27 553c 5f1a 213d 7afa c83d
00000060: c8f1 8cbe 3d0b e5bd 1baf 08bd 6a2d cdbd
00000070: 6ff5 653d a8a5 87bc d13e e7bd 9b9c cebb
00000080: 91b8 04be 37ec 71bd 07c0 253d 5cd7 b1bd
00000090: bf9f c6bd 95cc 6fbe 3113 f13d 0f7c a0bd
000000a0: 2f20 eb3d fa51 d8bd 96d0 39be d302 893d
000000b0: 9524 2e3e af93 f2bd efdd bdbd 9643 2bbe
000000c0: 3385 c8bd 367a f9bd dcdf 09be 1747 d2bd
000000d0: f169 9fbd e383 babd aa44 c23d 4f28 acbd
000000e0: 5e04 f0bd 08a3 a7bd 8805 c73d e82c d03d
000000f0: 8dd2 03bd 6882 df3d 191c ccbd 8453 d43d
0.06283648 0.06611092 0.047878537 0.039555535 -0.09580136 -0.07389498 -0.0802846 0.051132306
0.27918163 -0.09519551 0.15191954 -0.083644 -0.045250885 0.009542976 -0.098473996 -0.16700442
-0.044884797 -0.0026051928 -0.030773766 -0.016116792 0.14578113 0.013009946 0.03933179 0.098133996
-0.27528214 -0.11183784 -0.03337012 -0.10018428 0.056142267 -0.016558483 -0.11291278 -0.00630529
-0.12961031 -0.059063163 0.040466335 -0.08683655 -0.09698438 -0.23417886 0.117712386 -0.07836162
0.11480748 -0.10562511 -0.18145975 0.06689992 0.17006142 -0.11844575 -0.09270846 -0.16725
-0.09791031 -0.12181513 -0.13464302 -0.102674656 -0.077838786 -0.09107187 0.09485753 -0.08406126
-0.11719583 -0.081853926 0.09717852 0.10164815 -0.03218322 0.10913545 -0.09966297 0.10367492
