src/willse_backgammon/AI_Agents/Saved_NNs/02-0000-0002.pt (torch, 71482 bytes, 6 tensors)

forward_pass.0.weight f4 [64, 198]
000000 1d cc 27 be eb 7b 70 be 12 0b 82 be fe bf 07 be
       -0.16386457 -0.23484771 -0.2539907 -0.13256833
000010 73 91 aa bd 82 65 a5 be 88 84 f7 bd 13 af a9 be
       -0.083285235 -0.32304007 -0.12085825 -0.33141384
000020 56 c5 ac bd 14 91 4b be 97 83 3a be 5a e9 05 be
       -0.08436076 -0.19879562 -0.1821426 -0.13077298
000030 bf 24 60 bd 51 8d 8e be 7c 6d 44 be 92 6c 7b be
       -0.054722544 -0.2784219 -0.1918239 -0.24553135
000040 5a 4c 64 bd 58 d8 0b be 20 72 1f be 43 4b bf bd
       -0.055736877 -0.13656747 -0.15570879 -0.09340527
000050 d8 f7 16 bd 85 cb c4 be 52 59 12 be 67 df 58 be
       -0.036857456 -0.38436523 -0.14291885 -0.21178971
000060 c2 7c 6d bd 3d 2e b2 bd d9 29 2f be 7b 00 19 be
       -0.057980306 -0.087002255 -0.17105807 -0.1494159
000070 35 64 8c bd c0 22 d6 be 02 51 24 be 61 13 09 bd
       -0.068550505 -0.41823387 -0.16046527 -0.033465747
000080 16 1a d6 bd de b4 ea bd 1e e9 ef bd 21 9c 35 bd
       -0.10454194 -0.11460279 -0.117143854 -0.04433835
000090 47 87 ce 3c d8 25 d3 be e4 1b 2b be 6c d6 ae bd
       0.02521099 -0.4123981 -0.16709858 -0.085369915
0000a0 9c c0 96 bc 04 2b 33 bd bd b0 81 bd 80 2e 94 bd
       -0.01840239 -0.043742195 -0.06332538 -0.07235432
0000b0 aa db 82 bd 54 4b b3 be 2b c2 a4 bd 84 e1 17 bd
       -0.06389554 -0.35018408 -0.08044847 -0.037080303
0000c0 7b ac 4c bd d7 da 41 bd e7 9b 6a bc bc a8 61 bd
       -0.049969178 -0.047327843 -0.014319397 -0.05509256
0000d0 d8 ff 88 3c 33 d9 65 be 93 f5 95 3b 0a db 91 bc
       0.016723558 -0.22446136 0.004576394 -0.017804641
0000e0 b4 82 92 bd 9a a2 d0 bc 29 19 b9 bd d2 8c aa bc
       -0.07153836 -0.02546816 -0.09038002 -0.020819101
0000f0 2f 13 24 3d 4c a3 82 be 08 b0 05 be ca c0 df bb
       0.040057357 -0.2551521 -0.13055432 -0.006828402
000100 56 d9 58 bd c8 f3 ab 3b 60 8c 88 bb a9 fa 8c 3c
       -0.052941643 0.005247567 -0.0041671246 0.017209368
000110 ab 35 f0 3c 53 d2 96 bd 02 8a b2 bc 6d e4 97 bc
       0.029322466 -0.07364335 -0.021794323 -0.01854154
000120 2b c4 13 3d 87 b0 cb 3c 98 02 26 3c 98 9e 98 3c
       0.036075752 0.024864448 0.010132454 0.01863031
000130 46 c2 a4 3d 76 37 90 bc da 51 89 3d 70 75 be bb
       0.08044867 -0.01760457 0.06705065 -0.0058123395
000140 e7 49 81 bc 13 f0 bd bd 86 7e 2f b9 a0 ae c0 bc
       -0.01578231 -0.09274306 -0.00016736434 -0.023520768
000150 b4 51 c5 3d 70 c9 b4 bc 9a d7 fc 3c ff c4 02 3d
       0.09634724 -0.02206871 0.030864526 0.03192615
000160 60 67 bd bc 75 56 b5 3d 21 ca 63 bd 9f 28 75 bd
       -0.023120582 0.08854381 -0.055612687 -0.059853192
000170 06 44 b2 3d c7 73 04 3c 97 f5 41 bd f0 b7 86 3d
       0.08704381 0.008084244 -0.047353353 0.06578052
000180 ea 26 0a 3d 00 b5 44 3d b4 14 0c bd cf 06 d7 bb
       0.033728518 0.048024178 -0.03419943 -0.006562091
000190 1c a3 ff 3d a2 06 a2 bd 46 9d e6 3c ed 03 88 3b
       0.124822825 -0.07911421 0.028151166 0.0041508586
0001a0 4f ab 63 3c e0 b1 b0 bc b9 61 a1 3c 58 90 4f 3d
       0.013895824 -0.021569192 0.019699918 0.050674766
0001b0 05 22 7c 3e 9a 43 90 3d 59 e0 f6 3c 5c 30 b8 bc
       0.24622352 0.07044144 0.030136274 -0.022483997
0001c0 9d 2d 1e 3d 37 85 c4 3d 3c 91 75 bc ac 8e 74 3d
       0.03861772 0.09595721 -0.01498824 0.059706375
0001d0 26 15 77 3e 68 7a 7a 3b d8 2d 8e 3d 66 1e 74 3d
       0.24129161 0.0038219932 0.06942338 0.059599303
0001e0 85 4e 87 3d fa 79 68 3c 30 43 83 3d 81 85 b4 3c
       0.06606773 0.014189238 0.064092994 0.022036316
0001f0 a5 bd 81 3e 46 df 55 3c b1 e9 c8 3c 99 7a 91 3d
       0.2534 0.013053721 0.024525495 0.07103462
000200 d5 21 4f bd 7b 29 7d 3c d5 a8 71 3b 2b c3 95 3c
       -0.050569374 0.015451784 0.0036874313 0.01828154
000210 42 f2 69 3e f3 cd 32 3c c7 b2 af b9 53 e0 4d bb
       0.2284632 0.01091336 -0.000335118 -0.0031414225
000220 fd 1e 78 ba 69 90 ed 3b 0a c5 cf 3c 2b 8e 02 bc
       -0.0009465067 0.007249881 0.02536251 -0.007968466
000230 a0 e3 83 3e b0 e8 ed 3b 14 e3 a5 3c ec 89 7b 3d
       0.25759602 0.0072604045 0.02024988 0.06141083
000240 9b 01 15 bd a4 ac 96 3e ed 2e bf 3d e6 09 0c 3e
       -0.036378484 0.2942859 0.09335122 0.13675651
000250 3d 44 7b 3e 46 2f ff 3d d2 26 70 ba 15 36 1a 3d
       0.2453775 0.124601886 -0.0009161058 0.037649233
000260 01 c4 c3 3d 3d 9e 92 3e 54 92 fe 3d 4c 6f 05 3e
       0.09558869 0.2863635 0.124302536 0.13030738
000270 72 11 6b 3e 6f 20 eb bd 2b 7e 85 3b 5e fe b3 3d
       0.22955874 -0.114807956 0.0040738783 0.08788751
000280 71 8e d0 3d 31 54 59 3e 1d 3d a6 3d f5 35 1f bd
       0.101834185 0.21223523 0.08117125 -0.038869817
000290 1a dc 76 3e 6c 06 1b 3b 39 7f 7f 3d 27 71 e1 3d
       0.241074 0.002365495 0.06237719 0.1100791
0002a0 7b 71 f2 3d 0f f8 cd 3e 83 cc db 3d 17 c4 4e 3e
       0.11838051 0.40228316 0.10732367 0.2019199
0002b0 d7 67 37 3e ad 5f 22 3d 52 c3 0d 3d dd 57 ca 3d
       0.17910706 0.039642025 0.0346101 0.0988004
0002c0 4b d6 5a 3e 5f 63 da 3e de f0 41 3e 4d 76 6f 3e
       0.21370809 0.4265394 0.1893954 0.23384972
0002d0 53 d1 ea 3d af 7a 73 3d e8 76 24 3d 92 8a 25 3e
       0.11465707 0.059443172 0.04015246 0.16166142
0002e0 69 a0 23 3e 35 bb db 3e 6d bd 69 3e f4 e1 84 3e
       0.1597916 0.42916265 0.22826166 0.2595364
0002f0 c6 1a 87 3e 77 77 b2 3d ee 07 99 3d 50 7a ea 3d
       0.26387614 0.08714192 0.074722156 0.114491105
000300 cc 6b 98 3e 33 34 22 be 20 4a d8 be 91 e5 80 3f
       0.29769742 -0.15840225 -0.42244053 1.0070058
000310 36 b3 ef bc bd e8 13 bd a3 3a 73 3e 2e b9 1e bd
       -0.02926026 -0.03611063 0.23752837 -0.03875082
000320 a6 69 01 3e 3c 8f d4 3d 88 1e b3 3e 9f 30 08 3f
       0.12637958 0.10378882 0.3498423 0.5319919
000330 09 26 cd 3e 8f a9 1a 3f 16 1a 25 3c 98 da 9e bd
       0.4006808 0.60414976 0.01007702 -0.07756537
000340 c7 25 94 3d 9e ee 09 3e 6a 01 ba 3e ed 85 1b 3f
       0.07233768 0.13469931 0.36329204 0.6075123
000350 13 95 d0 3e 38 98 09 3f 92 e3 1b bd b0 1d 2c 3c
       0.40738735 0.5374789 -0.038058825 0.010505125
000360 09 93 47 3d 23 9f 0e 3d e5 b4 9c 3e 93 ff fa 3e
       0.048724208 0.034819733 0.30606762 0.49023113
000370 26 c4 d4 3e 64 dd 6a 3e 38 8c 83 3c 44 3f cf 3c
       0.415559 0.22936016 0.016058072 0.025298722
000380 ab 02 af bc ac 70 85 3c 25 25 3e 3e 58 09 da 3e
       -0.021363577 0.016289078 0.18568857 0.42585254
000390 18 8e a2 3e 96 ca 84 3d 92 f7 0f 3e cb 30 49 3d
       0.31749034 0.06483953 0.14059284 0.0491188
0003a0 91 27 31 3c 72 18 cd 3c e8 28 31 3e 86 0d b5 3e
       0.010812656 0.02503607 0.17300761 0.3536188
0003b0 85 08 9b 3e 31 78 55 3e a8 ff 5d 3e 6e ea 18 3e
       0.30279937 0.2084663 0.21679556 0.14933178
0003c0 42 38 c8 3d b9 aa 74 3b 78 e1 26 be 5c a4 21 3e
       0.09776355 0.0037333204 -0.16296947 0.15785354
0003d0 e8 9b 7d 3e a4 5d 93 3e 00 10 8b 3c 1f f1 45 3c
       0.24766505 0.2878238 0.016975403 0.0120814135
0003e0 82 27 5d 3d 89 b3 95 3d 45 1a 1a 3d 59 77 54 bd
       0.053992756 0.07309634 0.03762271 -0.05187163
0003f0 e2 1e 11 3c b2 8d 83 3d a1 4b 85 3e ec a0 35 3d
       0.008857461 0.064235106 0.26034263 0.04434292

forward_pass.0.bias f4 [64]
000000 45 a9 e3 3d b7 d7 6a be 32 8b 0f 3d 75 a0 67 bd
       0.1111627 -0.22933851 0.035044856 -0.056549508
000010 18 6b 12 bd 2a 92 b1 bd 6e b0 27 bc 88 95 93 3d
       -0.035746664 -0.08670457 -0.010234935 0.07206255
000020 23 12 f8 3c 0f 20 86 3c e5 e8 e5 be 4e f5 52 3d
       0.030282086 0.016372709 -0.44904247 0.051503472
000030 5d 06 bb bd 55 c5 84 bd 1c c1 0c 3d a3 d5 16 be
       -0.09132073 -0.064829506 0.03436385 -0.14729933
000040 85 2f 55 3c 6e 78 9e 3d 21 eb 9a bd 13 38 96 3d
       0.013011818 0.07737814 -0.075643785 0.07334914
000050 00 08 9d 3c 48 c3 b5 3d 59 a0 66 3d 7f f1 5c bd
       0.019168854 0.088751376 0.056305263 -0.053941246
000060 95 1d f0 3b ec 6f 3e 3d d8 2d e8 39 ba f6 d9 3d
       0.007327745 0.046493456 0.00044284645 0.106427625
000070 b0 b7 a7 3d 5f a2 b8 bd e7 7c d0 3d 0b 51 a4 bd
       0.081893325 -0.09015345 0.10180073 -0.0802327
000080 cb 31 c9 3d df e4 2b 3d 96 08 70 3b c4 30 06 bc
       0.098239504 0.041966315 0.0036626211 -0.008190338
000090 73 85 a8 bd 71 12 44 be 7a b2 6f 3d fa cc 5a 3c
       -0.082285784 -0.1914766 0.058519818 0.013354534
0000a0 ec 6b 82 3c 99 2f 9a bd f4 c9 8d bd ee b3 90 bd
       0.015920602 -0.0752861 -0.06923285 -0.07065569
0000b0 db 77 95 be ed d6 19 bc 50 b3 a0 be c2 16 46 3d
       -0.29193005 -0.009389621 -0.31386805 0.048361547
0000c0 19 07 b7 3d 14 63 7b 3d 7e 15 b2 bc 36 5f a1 3c
       0.08936901 0.061373785 -0.021738764 0.01969872
0000d0 27 4a 5a bd 9a c8 49 bd be bc 3b 3e 6c 82 c5 3d
       -0.053293373 -0.049263574 0.18333718 0.096440166
0000e0 2e 1f b7 3d 95 b2 78 3d 65 21 1f be b9 64 f2 3d
       0.08941494 0.060717184 -0.15540083 0.118356176
0000f0 6f 29 99 bd 91 9c c4 3b 6a b2 fb 3d a3 7c 31 3c
       -0.07478606 0.0060001095 0.12289889 0.010832938

forward_pass.2.weight f4 [64, 64]
000000 71 e4 fe 3d d8 8e 2a be f8 55 b2 3d e2 97 df 3b
       0.124459155 -0.16656053 0.087078035 0.0068235258
000010 be 3f b6 3d 98 f8 19 be 23 3f b9 3c 96 a8 fd 3c
       0.088988766 -0.15036237 0.022613114 0.030964177
000020 7e 74 33 bb c3 e5 4f bd c7 c7 e3 bd cb 84 ab bc
       -0.0027382667 -0.050756227 -0.11122089 -0.020937344
000030 51 cf de bc e2 cc cb 3d 0b aa 0b bd f8 e6 c0 bc
       -0.027198466 0.09951188 -0.034097712 -0.023547634
000040 65 48 1c be ca 3b 51 3d ab d7 5d 3b eb be b5 bd
       -0.15261991 0.05108241 0.0033850472 -0.08874305
000050 d8 03 c9 3a be 15 a8 bd 05 bc 31 be a2 3b ae 3d
       0.0015336229 -0.08207272 -0.1735688 0.08507468
000060 a0 68 a8 bd a4 11 be bd b5 6d f5 3c 7a 52 dd bc
       -0.08223081 -0.092807084 0.029959539 -0.027016867
000070 22 9b 03 3d 4c 26 13 3d d0 10 47 be a3 81 66 3d
       0.032130368 0.035925195 -0.19440007 0.056275975
000080 85 fc 19 bd 2e a1 85 3b af c0 c5 bd f0 1a 06 bd
       -0.037594337 0.004078052 -0.09655892 -0.032740533
000090 1f 79 cc bd 4c 8a a3 3d 9c 7b c0 3d c5 67 f3 bd
       -0.099840395 0.079853624 0.093985766 -0.11885027
0000a0 5e 2b cd bd f6 21 60 3d 73 02 08 3d d6 cd f1 bb
       -0.10018037 0.054719888 0.03320546 -0.007379274
0000b0 92 98 a6 3d a2 4e 98 3d 58 4e 95 3e d2 47 c4 bd
       0.08134569 0.07436873 0.29161334 -0.09584011
0000c0 12 98 98 bd 8c 95 31 3b 6d 03 e8 3d 77 35 36 3e
       -0.0745088 0.0027097194 0.113287784 0.17793833
0000d0 a4 67 0c bd 48 f0 fd 3d 2f 60 a4 bd de 2b bb 3b
       -0.034278527 0.12399346 -0.08026158 0.0057120165
0000e0 14 d4 ff bd 50 6c 18 bc c9 62 7f bd f6 7f dc bd
       -0.124916226 -0.009303167 -0.06235007 -0.10766594
0000f0 a6 95 ea bd 93 99 e6 bc b1 a5 02 bd a7 d7 17 3e
       -0.114543244 -0.028149402 -0.031896297 0.14828359
000100 e4 dc 3b 3d 42 41 f1 bd 58 d2 8f bd 03 08 ec 3d
       0.045864955 -0.11780025 -0.07022542 0.115249656
000110 ca d6 82 bd 64 72 a6 bd 0b 77 6a bc 2a 83 16 bd
       -0.06388624 -0.08127287 -0.014310609 -0.03674618
000120 2f 66 75 3d d8 f8 b1 bd ec 4c 46 bd 1c b9 83 bc
       0.059911903 -0.08690041 -0.048413202 -0.016079478
000130 94 d7 d6 bd 51 3d a0 3d 00 42 a3 3c 62 7e dc 3d
       -0.10490337 0.07824195 0.019928932 0.10766293
000140 ab ac 4c 3c 0a 99 40 3d 71 4a ab 3d 11 06 7f bb
       0.012492339 0.04702095 0.08363808 -0.0038913528
000150 9d 38 37 bd 5f 42 48 be 4f c4 f9 bd 2c db 7c bd
       -0.044731725 -0.19556569 -0.12195646 -0.061732456
000160 06 1a 9a bd 89 2a d1 3d 2b 2d 58 bc c4 85 fd bd
       -0.07524495 0.10213191 -0.013194363 -0.123790294
000170 cb 6c 09 3d 39 39 d5 bd fc c2 1d be 50 92 a8 3d
       0.03355102 -0.10411305 -0.15406412 0.08231032
000180 c3 c6 6e bd 8f 5c 94 3d d0 38 07 3d 29 21 00 be
       -0.058295023 0.07244217 0.033013165 -0.1251265
000190 70 5c 83 bd 09 0a f2 bc d7 4e 85 3d e0 8a 25 3c
       -0.064141154 -0.0295458 0.06509178 0.010103911
0001a0 6c d5 08 bc 37 06 62 bc 1f e2 bb bd e5 27 63 3c
       -0.008351665 -0.013795427 -0.091739886 0.013864492
0001b0 fe 04 83 3d b7 ab fa bd 1d 47 9a 3e ad 91 06 3d
       0.063974366 -0.12239783 0.3013238 0.03285377
0001c0 f2 bf e9 bd 86 db fc 3c 70 15 c0 bc 9d 16 2f 3c
       -0.11413564 0.030866396 -0.023447722 0.010686544
0001d0 04 63 31 3d ca 84 c9 3d 8c cd 9a bd 14 40 ea 3c
       0.04330732 0.09839781 -0.07558736 0.028595008
0001e0 0d 2b 63 bd 0c 84 44 bc 23 ae f0 bc 95 ce 19 be
       -0.05546098 -0.011994373 -0.02937991 -0.15020211
0001f0 f4 e8 c1 ba 17 f2 0e 3d 1d 2c ec bd 30 97 23 3e
       -0.0014794157 0.034898844 -0.115318514 0.15975642
000200 f5 5e c1 3d d0 32 da bc 8d 9e c0 bd 6f b0 5a bc
       0.0944194 -0.026635557 -0.09405241 -0.013347729
000210 61 05 b1 3c 61 00 bf bd c7 5c d4 3d 8a f9 42 3d
       0.02160901 -0.09326244 0.103692584 0.04760126
000220 2a ff d8 3d f6 85 7e 3d 8a c1 1f 3d 34 d4 c5 bc
       0.10595544 0.062139474 0.039002933 -0.024149038
000230 36 58 9d bc 6e e0 a8 bd af c4 b9 bb e6 ef 64 3d
       -0.019207101 -0.082459316 -0.0056691985 0.055892847
000240 68 e6 8a 3c 44 48 2c 3c 29 c0 a7 bc fd 7c a2 bd
       0.01695557 0.010515276 -0.020477371 -0.07933996
000250 6a e0 d6 bd 9c 2a 7c 3c 4f af ce bc 19 af 0f bd
       -0.10492022 0.015391018 -0.025230078 -0.035079096
000260 9e ed 40 3d a4 99 93 bd a7 31 d2 3c 7b 56 b6 3c
       0.04710161 -0.07207039 0.025658442 0.022258034
000270 c1 02 4d 3d 13 09 ba 3d d0 52 03 be 87 1c 90 3d
       0.050051454 0.09083762 -0.12824559 0.07036691
000280 a2 5b 4d bd 79 8d c4 bd 52 f5 78 bd e0 23 7f bc
       -0.050136216 -0.09597296 -0.06078083 -0.015572518
000290 6f 1e f4 bc 87 a0 b8 3c df 99 ae bd d8 fb 88 bc
       -0.029799668 0.022537483 -0.08525442 -0.016721651
0002a0 30 41 f9 bd bc 1f 5d 3b 2f f2 04 bd ab 79 4b bd
       -0.12170637 0.003374084 -0.032457527 -0.04967658
0002b0 8b 46 94 3b 78 ec f9 3d fb 5d 95 bd f5 7b 84 bd
       0.004525011 0.12203306 -0.07293316 -0.064689554
0002c0 ee d1 1e 3d c8 76 ca 3d 6b 9a 95 3d eb 5b be bd
       0.038774423 0.09885937 0.073048435 -0.09294876
0002d0 58 31 ec 3c 0b 84 f9 bb 79 cc e0 bd 48 37 9f bd
       0.028832123 -0.0076146177 -0.109765 -0.07774216
0002e0 ee 01 9d bd 38 45 ff bd 41 04 0f 3d 3d e0 af bd
       -0.07666384 -0.12464374 0.034916166 -0.08587692
0002f0 26 ed 66 bd 76 63 1c 3d 6c ef 52 bd 7b c3 6d bc
       -0.056378506 0.03818079 -0.05149786 -0.014511938
000300 1c e4 e4 bb 78 ac e6 bc 48 1c 1f bd fc b6 e0 bd
       -0.0069852006 -0.028158411 -0.03884533 -0.109724015
000310 1f 38 8a bd ba 2e 80 bd b5 9d 8a 3d d1 06 57 3c
       -0.067489855 -0.062589124 0.067683615 0.013124184
000320 dc 60 48 bd f7 3e be bd 0d 89 c6 bc f1 06 40 bd
       -0.048920497 -0.09289353 -0.024235273 -0.04688162
000330 98 f3 47 bd 89 14 c7 bd 2e f9 a3 3d 25 6c 92 bd
       -0.048816293 -0.09720714 0.08006512 -0.07149533
000340 a5 d7 d8 bc cd b8 ce bd e1 bc 64 bd 06 b9 99 3d
       -0.026470015 -0.10093842 -0.05584419 0.075059935
000350 fc eb b9 3d 50 5c ef bd 08 b6 f8 3a 3c 6c 9a bc
       0.090782136 -0.11687529 0.0018975148 -0.018850438
000360 a6 2a 5e bd 3d bf 0a bd d4 8a fe 3d 26 ff 20 bd
       -0.05423989 -0.033873785 0.12428823 -0.03930583
000370 50 80 fe 3c da f4 bc 3d f5 1e 81 bd 6a aa 5d 3d
       0.031067044 0.09226389 -0.06304733 0.054117598
000380 e6 94 4e bc fe 3e c7 bd 51 23 f5 3d 02 5f ff 3c
       -0.012608742 -0.09728812 0.11969627 0.031173233
000390 19 f4 d4 bd 81 0a 26 bd 2c dd b3 bd ef 36 3a bd
       -0.103981204 -0.04053736 -0.087824196 -0.045462545
0003a0 7c 8f f2 bd 84 a0 d9 3d d6 9e 8e 3d 14 44 cf bd
       -0.11843774 0.10626319 0.06963889 -0.10120407
0003b0 4e a5 7d bd 21 0f 00 be e0 68 1d 3e 0d 77 f2 3d
       -0.061925225 -0.12505771 0.15372038 0.118391134
0003c0 5b 9b 85 bd 5a f5 f8 bd cf e6 de 3c 77 0a 38 bd
       -0.06523772 -0.12156172 0.027209667 -0.044931855
0003d0 aa c6 cc 3d 71 6d c5 3d 5d 7e ca bd 3c f7 d5 3d
       0.0999883 0.09640015 -0.09887383 0.10447547
0003e0 ee f9 ab bd 31 86 b9 3d 84 ac 82 3c c4 87 95 bc
       -0.0839728 0.09058798 0.015951402 -0.018253215
0003f0 fc 0a d5 3c 3e 11 80 3d 94 6e e4 3d 52 00 09 3d
       0.026006214 0.06253289 0.111539036 0.03344757

forward_pass.2.bias f4 [64]
000000 24 ff 12 bd 7b 20 c1 bd ac 2e 8a 3d dd de 8f 3b
       -0.035887852 -0.09430023 0.06747183 0.004390581
000010 25 ca 0a be 88 14 e4 3d c3 9c 94 3e e5 aa 3e bd
       -0.13553675 0.111367285 0.2902585 -0.046549696
000020 08 8c 60 3e 11 44 79 bd 46 af 23 3e 13 4d 30 bd
       0.21928418 -0.06085593 0.1598483 -0.043042254
000030 33 62 35 3e 8a 83 73 3e d7 14 7b bd 02 67 b6 bd
       0.17713241 0.23780647 -0.06129917 -0.08906366
000040 f7 02 99 bd f6 e6 a3 bd 33 05 23 3c 45 a1 21 bd
       -0.074712686 -0.08003037 0.00994997 -0.03946044
000050 c8 70 95 bd c3 c3 82 bd 31 cc d6 bd 67 61 17 3e
       -0.07296902 -0.06384995 -0.10488165 0.1478325
000060 9e 86 96 3e 57 7f 65 bd ed 57 b4 3d 42 78 ea bc
       0.2939958 -0.056029644 0.08805833 -0.028621797
000070 4b 2a bc bd c3 79 94 3c e9 84 e3 3c 0f e6 ba bd
       -0.09187754 0.018124467 0.027773337 -0.091259114
000080 49 18 b3 bd ec 42 d9 bc 86 26 87 3c 08 09 95 3e
       -0.087448664 -0.026521169 0.016497862 0.29108453
000090 4b f3 e9 bd 73 e7 72 3d bc 12 2e 3d 80 6a 48 3e
       -0.114233576 0.05930276 0.042498335 0.19571877
0000a0 48 b3 07 bd 5b 66 a7 bd 24 de ce bd 16 0c a1 3d
       -0.03312996 -0.0817382 -0.10100964 0.07863633
0000b0 75 bd 60 3d 11 f8 ba 3d d5 92 c0 3c 07 b7 98 3d
       0.05486818 0.09129346 0.023507515 0.07456785
0000c0 16 17 be 3b 98 3e 46 bd b7 80 d2 bc f8 54 bc bd
       0.005801092 -0.048399538 -0.025696142 -0.09195894
0000d0 ca 3d 7f bc be c6 6d 3d 78 58 cc bd ff 92 88 3e
       -0.0155786965 0.058050863 -0.099778116 0.2667465
0000e0 58 34 66 3e 04 38 8b 3d af f5 bb bd bd 5b 10 3d
       0.22480905 0.067977935 -0.0917772 0.03524374
0000f0 4c da ba bd 6d 2c 69 3d 7d b5 79 bd 1f 59 ad bc
       -0.09123668 0.056927133 -0.060964096 -0.02116066

forward_pass.4.weight f4 [4, 64]
000000 3d e8 42 3e c9 7a c2 3d 43 bb 55 3d ef fb a6 3d
       0.19033904 0.09496076 0.05218054 0.08153521
000010 75 f9 b2 bd 66 89 8b 3d 3c b4 cf bd 87 06 3c 3d
       -0.087389864 0.06813316 -0.10141799 0.045904662
000020 25 f2 76 3e 62 4e 3c be 66 db 1a 3e e2 d4 4c be
       0.24115808 -0.18389276 0.15122756 -0.20003083
000030 94 15 57 3e ba 07 a9 bd 74 51 75 bd 91 8b 4b be
       0.21004325 -0.08253427 -0.059892133 -0.19877459
000040 e5 e0 2a be 1b e8 dd 3c 52 bd 97 be d8 2e 1a be
       -0.16687353 0.027088216 -0.29636627 -0.15056932
000050 8e b6 a9 3e 82 eb d4 bc ea 5e 15 3d bf d2 66 bd
       0.3314709 -0.025991205 0.03646747 -0.056353327
000060 b5 7e 67 be cd a5 04 be 35 df 31 be 1f 86 e8 3d
       -0.22606929 -0.12953873 -0.17370303 0.113537066
000070 26 51 88 3e c1 83 7b bd 73 8e bc bc 0a 6d 9d bb
       0.2662441 -0.061404947 -0.023017144 -0.0048042582
000080 3b 31 2d 3d e1 f2 cf 3d 2a 71 35 3d 98 ca 73 3d
       0.042283278 0.10153747 0.044297375 0.05951938
000090 50 8a b8 bd 37 34 28 be d2 e3 8c 3d f7 ce b8 bd
       -0.09010756 -0.16426168 0.06879391 -0.090238504
0000a0 ac 51 ea 3d f3 f0 3d be 0d 16 52 be f3 75 62 3d
       0.11441359 -0.18548946 -0.20516224 0.055288266
0000b0 9c 88 3a 3e 71 62 c9 bd 82 6b 4d 3e 25 0b 21 be
       0.18216175 -0.09833229 0.20060542 -0.15726908
0000c0 0e 2c fe bd 54 16 b0 bd 74 22 79 be 8a df cc bd
       -0.124107465 -0.08598009 -0.24329549 -0.10003574
0000d0 81 15 3b be f0 7e 10 3e bd e3 f7 3d 02 2a 88 be
       -0.18269922 0.14110923 0.121039845 -0.2659455
0000e0 f2 94 4b be b3 27 f1 bd 90 74 b8 3d a1 8c ce 3d
       -0.19881037 -0.1177515 0.090066075 0.100854166
0000f0 3f d3 72 bd 43 4e 37 3e 54 3d fb bc 9f 2d aa 3d
       -0.05928349 0.17900948 -0.030668892 0.08309483
000100 ff b6 d3 3c b4 82 93 3d 09 ce 55 bd d0 f4 07 3e
       0.025844095 0.07202664 -0.052198444 0.13276982
000110 ed 35 97 3d f4 81 b1 3e 70 0b eb bd 82 00 48 be
       0.073833324 0.3466946 -0.11476791 -0.19531444
000120 06 c1 9d 3e 6c 54 32 be 96 67 63 3e 39 f3 3b be
       0.30811328 -0.17415017 0.22207484 -0.18354501
000130 8d a8 94 3e 1b 2d d8 bc 81 82 12 bd 91 eb 0c bd
       0.29034844 -0.026388695 -0.03576899 -0.03440434
000140 61 63 ce 3c 12 f4 e8 3d 2d 92 9e be 95 f4 1d be
       0.025193872 0.11374678 -0.30970898 -0.15425332
000150 e9 1c 94 3e 67 98 83 bd 60 e6 ee bc eb be 03 be
       0.28928307 -0.06425553 -0.029162586 -0.12865798
000160 cb 41 68 3c 82 95 8a bd 39 49 c4 bd 8d 28 0e 3e
       0.0141758425 -0.067667976 -0.095842786 0.13882656
000170 79 1c be 3d ae e1 cd bd 3e d9 a5 bd 69 c3 5c 3d
       0.092827745 -0.100528106 -0.08098076 0.053897295
000180 fd cb 0a 3e 79 11 bd bc 14 29 6d 3c 6f b3 94 3e
       0.13554378 -0.02307962 0.014475126 0.29043147
000190 2d 45 a8 3d 49 16 03 be 15 6e bb 3d cd 2d e0 bc
       0.08216319 -0.1280147 0.09151856 -0.02736559
0001a0 3e 6f 3b bc 23 17 43 3c 83 3a e2 bd ab ae 5c bd
       -0.011440096 0.011907372 -0.110463165 -0.053877514
0001b0 ab b6 42 3c 99 7f 61 bd 93 0f 30 3e 23 ab ea bd
       0.011884372 -0.055053327 0.17193441 -0.11458423
0001c0 56 df ea bd fb d0 94 3d 0c 97 f0 bd ec d8 1e bd
       -0.11468379 0.07266422 -0.1174756 -0.03878109
0001d0 d9 15 cd be 40 42 ad 3e 81 30 0f 3e a0 07 75 be
       -0.4005573 0.33839607 0.13983347 -0.2392869
0001e0 12 3b 23 bc 83 6d 45 bd 15 83 a2 bd ef b7 f5 bb
       -0.009962814 -0.04820014 -0.07935158 -0.0074987332
0001f0 03 1f 8d 3d 21 c9 01 3e 0e 5a b9 3d be 70 16 bd
       0.06890681 0.12674381 0.0905038 -0.036728613
000200 5e ca bf be 0d b2 b9 be 4e 3c ed bd db 12 77 bc
       -0.3745908 -0.36268654 -0.11583768 -0.015080179
000210 d4 3f e5 bd 63 eb 0b 3c 04 f8 02 3f 5c 3f 87 3d
       -0.11193815 0.008540007 0.5115969 0.06603882
000220 08 4a d5 bd 7a 73 90 3e 43 d7 43 bd 0f 3e 50 3e
       -0.10414511 0.28213102 -0.04781271 0.20336173
000230 7d 34 1b be a9 8a d4 3e 06 7b 9f bd fb 9d 23 3d
       -0.15156741 0.4151204 -0.07787137 0.039945584
000240 b6 c8 50 3e c8 a6 8d bc 12 c5 d9 3e ea fa 48 3e
       0.20389065 -0.017291442 0.42533165 0.19626966
000250 23 32 85 be 7a 26 39 bd dc 9a a6 3d bb df a5 3e
       -0.26014814 -0.04520271 0.08135006 0.32397255
000260 1e a6 f7 3e 49 88 f5 bd d9 d1 4f 3e 1c e2 d1 be
       0.48368925 -0.11988885 0.20294894 -0.4099282
000270 56 26 4c be e3 22 4b 3e 82 51 d8 bc 0d 4f 9b 3c
       -0.19936499 0.19837527 -0.026406053 0.018958593
000280 15 08 6b be 9f f7 58 bd b5 a4 e7 bd 50 19 fd 3d
       -0.22952302 -0.052970525 -0.11310712 0.123583436
000290 8d c9 48 bd 72 30 76 bb 6e 88 a2 3c fd 19 5f 3e
       -0.04902034 -0.0037565497 0.019840445 0.21787257
0002a0 65 c6 a4 bd 8a 15 9b 3c ac da 50 3e 3c 1b 40 3e
       -0.08045653 0.018931169 0.20395917 0.18760389
0002b0 e4 67 11 3e 18 64 5d bd 19 c1 fb bd b8 3f c9 3e
       0.14199787 -0.054050535 -0.1229269 0.39306426
0002c0 39 cd 79 3d ef 28 ce 3c b7 9e 02 3f 7e 67 c8 3d
       0.06098673 0.025166003 0.5102343 0.097853646
0002d0 eb 7a 93 3e e1 9a 0c be 9f 7b d9 bc 60 72 29 3f
       0.28804716 -0.13730957 -0.026548205 0.6619015
0002e0 fb da a1 3e af 1f 02 3e b4 2b a3 bd a5 b4 56 3d
       0.3161238 0.12707399 -0.0796732 0.05241837
0002f0 d2 73 84 3d 98 fa 10 be 8f a9 66 be b1 85 4f 3d
       0.064674035 -0.14158094 -0.22525619 0.050664607
000300 05 18 83 3b 39 68 d2 3d 3e 26 33 bd 93 df 82 3d
       0.004000666 0.10273785 -0.043737642 0.063903
000310 58 8e 37 3e c3 62 02 bf d0 07 be bc b9 3c b3 3e
       0.17925394 -0.5093195 -0.023197085 0.35007265
000320 5e 41 43 bf 78 c0 83 3e 04 65 78 be 1a 5b 54 3e
       -0.7627162 0.2573278 -0.24257284 0.20737877
000330 34 7e 15 bf d2 d5 cd 3d 69 b6 18 bd fa d3 1e 3e
       -0.58395696 0.100505486 -0.037283335 0.1551055
000340 bb b6 86 3d be a0 a4 3d c3 49 18 3e 25 fc 1d bc
       0.06577822 0.08038472 0.14871888 -0.0096426355
000350 ae 09 dc be 5d 3d bc bb 03 b8 3f bd f0 6e cb bd
       -0.42976135 -0.0057446198 -0.046806347 -0.09933269
000360 a9 b8 bd bd a6 cc 94 3d 9d b8 4b 3d ca 11 1b be
       -0.09263737 0.07265596 0.049736608 -0.15143505
000370 fe 3f 57 be 6e 7b 88 bd 7d f1 57 3d 65 48 24 3d
       -0.21020505 -0.06664167 0.052720536 0.040108103
000380 df 40 ee 39 89 0d 8f be 93 9c 5c 3d 03 22 e4 be
       0.0004544323 -0.27940014 0.05386026 -0.445572
000390 3e 4f 8c bd ef f5 9f 3d ff 8a bd 3d 0d ef ca bd
       -0.06851052 0.0781058 0.09255027 -0.099088766
0003a0 82 a5 05 3d ff e8 22 3e 33 06 a6 3c 46 54 13 be
       0.032628544 0.15909193 0.020266628 -0.14387617
0003b0 de ec 59 be 02 9f 01 be 63 ee a3 be 98 44 9a bd
       -0.21281764 -0.12658313 -0.32017812 -0.075326145
0003c0 0a 3f 60 bd ba c0 f7 bd 1a d8 26 3e 0b 31 a3 bd
       -0.05474762 -0.120973065 0.16293374 -0.079683386
0003d0 70 68 eb 3e 42 e9 da be bd fd 53 3d 31 25 45 3e
       0.45978117 -0.42756087 0.051755656 0.19252469
0003e0 94 48 4c be e7 f8 3f be e9 fd 2e ba 88 7b ad bd
       -0.19949561 -0.18747292 -0.0006675409 -0.08470827
0003f0 bd df 0d 3e 6b 55 d9 be fc 36 66 3c fd 11 0e 3d
       0.1385488 -0.4244798 0.014051195 0.034685124

forward_pass.4.bias f4 [4]
000000 c3 b7 76 be d1 40 26 3e ed 86 0b 3f 2d 17 dd be
       -0.24093537 0.16235663 0.54502755 -0.43181744
