src/willse_backgammon/AI_Agents/Saved_NNs/03-0000-0001.pt (torch, 70714 bytes, 5 tensors)

forward_pass.0.weight f4 [64, 198]
000000 53 be 86 3d a3 3d f4 3c 33 99 86 bd d2 ca 87 bc
       0.0657927 0.029814547 -0.06572189 -0.016576204
000010 03 97 bf bc 45 35 35 3b a3 e1 34 3a fc 59 7e 3d
       -0.023387438 0.002765016 0.00069000776 0.062097535
000020 54 bf 19 3d a1 d7 64 3c 08 6d cf bc 62 cb a7 bc
       0.03753598 0.013967426 -0.025320545 -0.020482723
000030 d5 08 8b 3d 52 6c 8a 3d 62 8c 59 3b e7 15 37 3d
       0.06788794 0.06758942 0.0033195247 0.044698622
000040 4c 23 fa bc a0 37 a9 3b 24 68 70 bc a0 9d c6 3c
       -0.030534409 0.0051641017 -0.014673267 0.024245083
000050 56 5c 23 3d 2c 68 eb bc e2 f5 37 3d 59 60 94 bd
       0.03988298 -0.028736196 0.044912226 -0.07244939
000060 d1 91 35 3b 47 3c c2 bc 93 f2 89 bd 3c 3a 20 bd
       0.0027705322 -0.023710383 -0.067357205 -0.039118037
000070 c8 10 0b bd b4 78 d0 bc 70 d9 7a bd ad 45 7d 3b
       -0.03395155 -0.02544818 -0.06124252 0.0038646266
000080 3e 2b 95 bc f6 78 8a bd 41 8c a3 ba fe 19 6d 3d
       -0.018209096 -0.06761353 -0.0012477712 0.057886116
000090 1c 75 82 3d bd dc 3e bd 0e 69 89 bd b2 bb f8 bc
       0.06369993 -0.04659723 -0.06709491 -0.030362938
0000a0 33 c8 90 3c b9 3e 25 3c 4d 6f 1a bd e7 af 62 bd
       0.017673587 0.010085755 -0.0377038 -0.055343535
0000b0 5f d3 63 3d 2b c9 39 3d 8c e5 22 3d b3 9b 59 bc
       0.0556215 0.045357864 0.039769694 -0.0132817505
0000c0 0f ea 8d bc 52 c4 25 bd 49 03 b4 3c 63 5c 1f bd
       -0.017323522 -0.04047043 0.021974223 -0.038906466
0000d0 94 4c 06 3d 02 89 3f bd 3f f5 03 3d 32 67 be bc
       0.032787874 -0.04676152 0.032216307 -0.023242567
0000e0 fb 60 0e bc d5 82 a5 3a 37 6c 8c bd 5c ff 93 bb
       -0.008690114 0.0012627492 -0.06856578 -0.004516525
0000f0 9e 84 3d 3d 1d 34 b1 bc 9a 85 4b bd 90 60 7d 3d
       0.04626905 -0.021631295 -0.04968796 0.061859667
000100 7d 6e 38 bc 0a a9 16 3d db 85 01 bc 4c 50 8f 3c
       -0.011256811 0.036782302 -0.007905449 0.017494343
000110 8c 04 17 3c 31 37 e5 3b dd 55 37 bc 34 f4 8b bc
       0.009217393 0.0069951047 -0.011189905 -0.017084219
000120 ac 0e 87 3d 21 9e 0c 3c 70 a3 72 3c 76 68 f8 3c
       0.06594595 0.008582623 0.014809474 0.030323248
000130 be bf 9c 3b 11 af 5e bb 78 c0 6e 3d e2 0c df bb
       0.0047835996 -0.003397886 0.05828902 -0.0068069557
000140 07 7a bb 3c 36 fb 7f bd e2 24 f8 3b ee dd bc bc
       0.022885336 -0.062495433 0.007572756 -0.023055043
000150 02 16 b3 3b a9 e8 83 bb 10 92 20 3d 73 aa ff 3c
       0.00546527 -0.004025538 0.039201796 0.031209206
000160 5d c3 2f bd eb 06 6e 3d 67 c3 7c bd ed b6 5a 3c
       -0.042910922 0.058112066 -0.061709788 0.013349277
000170 f3 45 08 bd 76 3d 09 3c 7e 49 53 bd 51 fc 85 3d
       -0.033269834 0.00837647 -0.05158376 0.06542266
000180 4c 71 5b 3d c1 aa 30 3d 5a bf 05 bd 4b 91 d1 bb
       0.053574845 0.043131594 -0.03265319 -0.006395494
000190 77 2a b3 bb e8 73 c2 3b b1 c1 8d 3d cb 01 3a bd
       -0.0054677087 0.0059342273 0.06921709 -0.045411866
0001a0 fb ea c5 bc 79 78 4c bc 13 fb 01 3d 35 17 68 3d
       -0.024159899 -0.012479895 0.031733584 0.056662757
0001b0 c3 49 71 3d 5c fa 3a 3d db 67 af 3c 65 7a c5 bc
       0.058908235 0.045648918 0.021411827 -0.024106214
0001c0 b4 5d bd 3c 97 ab 88 3d f1 c9 ad bc 2e a6 7a 3d
       0.02311597 0.06673353 -0.021214457 0.061193638
0001d0 fa 9e 83 3d 20 99 b9 bc b5 8c 8d 3d bc ac 72 3d
       0.06426807 -0.022656024 0.06911603 0.059246764
0001e0 36 3e 59 3d 09 48 8e bc 08 08 54 3d 20 1b a9 3c
       0.053037845 -0.017368333 0.05176547 0.020642817
0001f0 bb cd 64 3a d8 c0 24 bd 92 e7 51 bb fe 32 86 3d
       0.0008728166 -0.040222973 -0.0032028896 0.06552695
000200 bc 83 1f bd f0 6f d2 3b 0f 13 0c bc 9b f0 94 bb
       -0.03894399 0.0064220354 -0.008549466 -0.004545284
000210 b7 17 e1 bc ed d3 80 bc 86 52 e8 bc 14 31 61 bc
       -0.027477128 -0.015726054 -0.028359663 -0.013744611
000220 9c d7 66 3d d1 47 e8 3c 9a 0b 4c 3c 2a 49 a2 bb
       0.056357965 0.028354557 0.012453938 -0.0049525695
000230 d3 e2 8e bb 10 0a 1f 3b 46 58 1a bd 0b a5 04 3d
       -0.0043605356 0.0024267472 -0.03768184 0.03238396
000240 8b 3d f6 bc 2a 6d 2f 3d 93 db 65 bc 87 f7 de ba
       -0.030058643 0.042828716 -0.014029401 -0.0017011025
000250 f9 67 00 3c 83 fb 8d 3d 0f 2c 0e bd 81 05 87 3c
       0.007837289 0.06932738 -0.034709986 0.016482117
000260 2d b3 66 3d 38 1b 6b 3c 98 c1 3d bd 14 f5 45 bc
       0.05632322 0.014349751 -0.046327204 -0.012082357
000270 0c 7b 14 bd 40 f4 58 bd 85 4b a8 bc a9 21 ee ba
       -0.03625016 -0.05296731 -0.020543823 -0.001816799
000280 3a a5 1c 3d eb f2 e4 bc c1 53 e2 bb 32 57 35 bd
       0.03824351 -0.027947864 -0.006906957 -0.04427261
000290 c3 42 13 bc 6e 62 70 bd 78 cb f9 bc df a1 ad 3c
       -0.008988085 -0.05868762 -0.03049253 0.02119535
0002a0 3b 7a 0d bd 06 a8 41 3d 61 fc 5d 3c 1b 6f 3d 3d
       -0.034540396 0.04727938 0.013548941 0.046248537
0002b0 e2 c8 c2 bc 35 f5 63 3d f1 c3 a8 bb 9d d6 06 3d
       -0.023777429 0.05565377 -0.005150311 0.032919515
0002c0 9a 0c 27 bc 43 c7 34 3d 4a 5a 55 3d a5 d4 27 bc
       -0.010195876 0.044135343 0.05208806 -0.0102435695
0002d0 77 81 8b bd b1 ec b9 3c 15 47 86 bd 91 2c 30 3d
       -0.06811803 0.022695871 -0.065565266 0.04301125
0002e0 bf 73 72 bd b7 e6 97 3c d5 0d 96 3d 1d 5c 2b bd
       -0.059192415 0.01854263 0.07326857 -0.041835893
0002f0 8d 53 99 3d 59 0f 7f bc 5a d3 6d bd 87 72 2b bc
       0.07486639 -0.015567624 -0.05806289 -0.010464317
000300 ff 7e 89 3d ef cf de 3c 6f 6f 27 3d f1 ee 37 3d
       0.06713676 0.02719876 0.040877756 0.044905607
000310 64 20 84 3d d6 ad 9e bc 3d c9 58 3d 99 bb 14 3c
       0.064514905 -0.01937 0.05292629 0.00907793
000320 68 d4 ab 3d 38 f4 14 bb c5 d3 99 bc ec 4a 87 3d
       0.08390123 -0.0022728574 -0.018777737 0.06606087
000330 0a fb c2 3d 26 83 bf 3d 28 b2 66 bb 3d b4 17 bd
       0.09520538 0.093511865 -0.0035201404 -0.037037123
000340 47 7f 88 3d 2c 0f 76 3d 5a a0 25 3c a0 ed ea 3d
       0.06664901 0.060073063 0.010109032 0.114711046
000350 00 f3 89 3d bf b8 df 3d 77 67 4b bc e9 99 a1 3d
       0.06735802 0.109239094 -0.012414805 0.07890684
000360 98 40 8a 3d e4 d3 a9 bc db f2 ad 3c 37 06 18 3d
       0.067506015 -0.02073092 0.021233967 0.037115302
000370 4c 06 a5 ba a3 39 01 bd 1c 70 4a bd dc a0 9c 3d
       -0.0012590378 -0.031549107 -0.049423322 0.07647869
000380 4c 8e a4 3c 6b 54 10 bd 26 a9 7a 3d b0 e0 d7 3d
       0.020087384 -0.035236757 0.06119647 0.105409026
000390 48 f7 10 bc 6b 1b 12 bd fe 39 93 3d ee 2e 87 3c
       -0.008848019 -0.03567068 0.071887955 0.01650187
0003a0 00 bd 1e 3d 18 2e 95 bc d7 12 a2 3d a4 42 23 3d
       0.038754463 -0.018210456 0.0791375 0.039858475
0003b0 2f f8 05 bd 2e 81 64 3d 1b 4f df bb 9a e3 71 3d
       -0.03270739 0.055787258 -0.00681485 0.05905495
0003c0 16 de 91 3d 4f 8d 6b bc b5 7b 14 bb 97 63 4c bd
       0.07122438 -0.014376952 -0.0022656743 -0.049899664
0003d0 f6 92 09 bd db 50 33 bc cf c2 3d 3d 7e 18 99 3b
       -0.03358742 -0.01094457 0.046328362 0.004672109
0003e0 98 f0 80 3d 39 ef 95 3d 72 8f 12 bd b6 33 98 bd
       0.062958896 0.07321019 -0.03578133 -0.07431738
0003f0 d7 5a 3d bc e5 5a 89 3d 08 39 91 3d e3 2b b9 bc
       -0.011557302 0.0670679 0.07090956 -0.022603935

forward_pass.0.bias f4 [64]
000000 2f 95 87 3d ae 3b 98 bc ef 8d 3c 3d 37 dc 20 bd
       0.066202514 -0.018583145 0.046033796 -0.039272513
000010 dc 91 09 3d 7e a5 48 3c cf f6 57 bd 42 97 1b 3d
       0.033586368 0.012246488 -0.05272561 0.037986048
000020 3f 2e 96 bb 96 b6 97 3c 6e ba 48 bd d0 bb f5 3c
       -0.0045831497 0.018519681 -0.04900592 0.029996783
000030 f6 65 38 3c 2c dc 88 bd b6 c9 9f 3d c4 9b 79 3c
       0.011254778 -0.066826195 0.07802145 0.015234891
000040 dc 61 07 bd d7 1d 0c 3d 6a 3e 68 bd df 53 8d 3c
       -0.03305231 0.034208145 -0.056700148 0.017251907
000050 3e 99 95 3d f1 68 f4 3c bc 10 d0 3d 71 fc 90 bd
       0.07304619 0.029835196 0.10159442 -0.070793994
000060 f0 87 50 bc 66 5a 0d 3d 6e e4 4e 3a c1 94 54 3d
       -0.0127277225 0.03451004 0.0007892315 0.051899675
000070 36 eb 98 3d 57 1a f8 bc fe 23 a5 3d b3 46 39 bc
       0.07466738 -0.030285997 0.080635056 -0.01130836
000080 98 36 61 3d 66 39 a8 3c 1b e2 8a bc 94 5f 90 bc
       0.054983705 0.020535182 -0.016953519 -0.0176237
000090 d7 6e 7c bd 2b dc 23 3c c4 ab 54 3d 20 ba b9 3b
       -0.061629143 0.010001223 0.05192162 0.00566794
0000a0 7e d4 b2 bb 19 ef 4c 3d b7 f4 91 bd 40 07 fe 3c
       -0.00545746 0.05003271 -0.07126754 0.031009316
0000b0 54 cc e8 bc d5 dc 8b bc 39 d2 2a 3c 67 71 2e bd
       -0.028417744 -0.017073074 0.010426098 -0.042588618
0000c0 1f 79 4a 3d 27 d3 89 3d 2c e4 2e bd b1 bf 81 3d
       0.049431916 0.06729727 -0.04269807 0.0633539
0000d0 ca 61 73 3c 69 97 c0 3d a4 c1 cb 3d 8b 2b 78 3d
       0.014854858 0.09403879 0.099490434 0.0605884
0000e0 de f3 ac 3d 08 4a 5d 3d 40 01 f0 3a 48 8f c7 3d
       0.084449515 0.05402568 0.0018310919 0.097441256
0000f0 17 4c 38 bd af d0 e8 bc 25 2b 1b 3d 97 b9 ab 3d
       -0.04499444 -0.02841982 0.037882943 0.08385008

forward_pass.2.weight f4 [64, 64]
000000 5d bd bf 3d ab 1d dc bd 01 2c c3 3d 9a 14 fc 3c
       0.0936229 -0.10747846 0.095298775 0.030771542
000010 89 44 f6 3d cc 59 4b bd 04 f1 60 3d c8 e3 a1 3c
       0.12024791 -0.049646184 0.05491735 0.019761935
000020 a8 25 ad bb fd 08 99 bd 63 ce 6e bd 09 bf a9 3c
       -0.00528403 -0.074724175 -0.058302294 0.020720975
000030 3c 8c ae 3d ca 54 b9 3d c7 50 04 bc 24 ba 52 bd
       0.08522841 0.09049375 -0.008075899 -0.05144705
000040 1b ec b2 bd 90 97 13 3d c3 99 23 3b 1b 3c b0 bd
       -0.0873644 0.036033213 0.0024963475 -0.08605214
000050 49 15 2b bc 98 b6 1c 3d d8 df 62 bd ec b3 a8 3d
       -0.0104420865 0.038260072 -0.055389255 0.082374424
000060 0a a5 aa bd 08 07 ba bd 4b ae e1 3c f9 1d 22 3b
       -0.0833226 -0.09083372 0.02754893 0.0024737103
000070 5c da 05 3e 1b 2a c2 3d cd a3 db bd 81 76 12 3d
       0.13071579 0.09480687 -0.10724602 0.035757545
000080 4a fb c6 3d 32 cd 0c bd e0 27 23 bd 99 6d 46 3b
       0.09715898 -0.034375377 -0.03983295 0.0030277728
000090 2d e5 c4 bd a0 d1 98 3c 10 be 15 3e 44 f3 99 bd
       -0.09614024 0.018654644 0.14623284 -0.07517102
0000a0 bb f6 bd bd c3 1e 2b bd 8f 90 05 3d b3 8a 99 bd
       -0.09275576 -0.041777384 0.032608565 -0.07497158
0000b0 33 63 93 3b 9b 04 91 3d 22 c7 af 3d 14 67 40 bd
       0.0044979095 0.070809565 0.085829034 -0.046973303
0000c0 09 62 56 bd ee bf 05 3d d0 95 b1 3d 43 60 fb 3d
       -0.052339587 0.03265374 0.086711526 0.1227422
0000d0 5d b4 9a 3c 1f 2f 06 3e 9f 1b 30 bd 6e 7b 71 3d
       0.018884832 0.13103913 -0.04299509 0.058955602
0000e0 71 2e 7c bd 4d 27 0a 3d b8 31 11 3b 6f 5c 42 bd
       -0.061567727 0.033728886 0.0022154879 -0.047451433
0000f0 c7 8f 8e bd a9 b0 54 3d f7 e1 00 bd 84 82 f0 3d
       -0.06961017 0.05192629 -0.031465497 0.11743644
000100 ed 42 a0 3c 16 1c 98 bd 71 03 65 bd b0 cb 0a 3e
       0.019563163 -0.07427232 -0.055911485 0.13554263
000110 70 0f 0c bd 81 a7 a6 3c 0e c9 21 3c 20 2d 2e bd
       -0.03419441 0.020343544 0.009874595 -0.042523503
000120 cb 94 76 3d eb 36 d8 bd 7f 76 29 bc 8d 51 d8 3b
       0.060200494 -0.1055735 -0.010343193 0.0066015185
000130 b0 41 44 3c 71 07 94 3d 63 23 27 3d 84 55 87 3d
       0.011978552 0.07227982 0.04080523 0.06608108
000140 45 b9 7b 3d d9 be 21 3d a9 2e a9 3d 1a fe a9 3a
       0.061455984 0.039488647 0.08260853 0.0012969405
000150 b5 4e 40 bd fd b0 b8 bd a5 90 a0 ba 0b f2 82 bd
       -0.04695006 -0.09018133 -0.0012250139 -0.06393822
000160 a1 63 9a bd 9d 20 d0 3d de e5 96 bc 05 d1 d0 bd
       -0.07538534 0.101624705 -0.018420156 -0.10196117
000170 8e 2c e8 3d 31 bc 93 bd f8 9e a1 bd c4 82 91 3d
       0.11336623 -0.07213629 -0.07891649 0.0710502
000180 21 bc 32 3d cc 43 7b 3d 22 74 a0 3d 59 66 ac bd
       0.043636445 0.061343953 0.078346506 -0.08417959
000190 26 4c 80 bd 16 53 c7 bd 5e 38 bd 3d d7 0f 4b 3d
       -0.06264524 -0.09732644 0.09239267 0.049575653
0001a0 27 98 4d bb 26 40 e1 bd 9d 6d b8 bd c8 e2 3f bd
       -0.0031371207 -0.109985635 -0.09005282 -0.046847135
0001b0 24 3d ca bc 7a 7e f4 bd 58 7d 1d 3e 6a 1a ab 3d
       -0.024687357 -0.11938186 0.15379846 0.083546475
0001c0 ac 40 d4 bd 60 e9 6d 3d 33 3c 26 bd ed 50 e5 bc
       -0.10363898 0.058083892 -0.040584754 -0.02799269
0001d0 4c fb 90 3d b4 a6 be 3d c7 a9 d9 bc 99 0f 83 3d
       0.07079181 0.0930914 -0.026570214 0.063994594
0001e0 d7 b1 82 3b b9 14 4e 3d 38 2d 4a 3c 0f 4f d5 bd
       0.0039884853 0.05031273 0.012339883 -0.1041547
0001f0 bc e4 e4 3c 71 51 d8 3d 6b eb d7 bd c1 1d 0b 3e
       0.0279411 0.10562409 -0.10542949 0.13585569
000200 1c 1b e5 3d 0d 95 b2 bc f6 09 bd bd f8 bc 3a bc
       0.11186811 -0.021799589 -0.092304155 -0.011397593
000210 c8 95 d4 3c fa 11 b0 bd c9 ad e1 3d c5 b7 72 3d
       0.025950328 -0.08597179 0.11019475 0.059257288
000220 6d 6f da 3d c6 21 82 3d c2 19 1f 3d 59 24 98 bc
       0.10665784 0.06354098 0.038842924 -0.01857202
000230 4d fb 7f bc d3 5e a0 bd 13 68 b1 bb 36 12 6b 3d
       -0.01562388 -0.07830586 -0.005414018 0.057390414
000240 d1 1a c3 3c 3f 64 1f 3c 68 03 a7 bc e1 18 a1 bd
       0.023816498 0.00972849 -0.020387366 -0.078660734
000250 02 9c c7 bd dd 68 b6 3c 36 f3 a0 bc 35 b8 0e bd
       -0.09746553 0.0222668 -0.019647222 -0.034843642
000260 14 84 41 3d 80 6f 93 bd 97 48 db 3c 1b 25 c6 3c
       0.0472451 -0.07199001 0.026768012 0.024187615
000270 74 8d 80 3d 11 a7 c5 3d 9b e1 00 be 61 bb 96 3d
       0.0627698 0.09651006 -0.12586062 0.073599584
000280 0d 32 34 bd 4c 46 c2 bd f4 86 5b bd c4 ea 60 bc
       -0.043993045 -0.09486064 -0.0535955 -0.0137278475
000290 52 3e f3 bc 77 72 b8 3c 25 bf a2 bd 97 0d 6b bc
       -0.029692803 0.022515519 -0.07946614 -0.014346502
0002a0 c8 34 f7 bd ab 55 4c 3c c5 8a 02 bd ae d6 03 bd
       -0.12070614 0.012471597 -0.031870622 -0.032187156
0002b0 35 10 98 3b 47 d2 f9 3d bd fb 91 bd 05 c7 74 bd
       0.004640604 0.1219831 -0.071280934 -0.059760112
0002c0 2d 6c 3e 3d dd e4 de 3d 2b de 97 3d e5 93 bc bd
       0.046489883 0.10883496 0.07415422 -0.09207896
0002d0 ec 45 12 3d 54 fc 86 bb 6c 4e d2 bd a1 94 9b bd
       0.035711214 -0.0041194353 -0.10268864 -0.07596708
0002e0 e6 09 9b bd 6b 4c f6 bd a5 f9 1d 3d 73 81 a8 bd
       -0.07570247 -0.12026294 0.038568158 -0.082278155
0002f0 12 cd 59 bd 68 a5 36 3d e8 e7 48 bd 45 96 e5 bb
       -0.053174086 0.044591337 -0.049049288 -0.007006439
000300 46 c8 87 bb c9 80 39 bd 0d 0b df bc 66 dc c6 bd
       -0.0041437475 -0.045288835 -0.02722695 -0.097100064
000310 e0 91 65 bd 86 5c a4 bd d7 87 81 3d d5 35 3a 3c
       -0.05604732 -0.0802546 0.063247375 0.011365374
000320 13 48 4b bd c4 97 cb bd ce f4 ca bc cb f0 4a bd
       -0.049629282 -0.09941056 -0.024774935 -0.049546044
000330 01 cb 66 bd 8e 22 da bd 33 5c bf 3d c6 f6 92 bd
       -0.056345943 -0.10651122 0.093437575 -0.071759745
000340 35 6a df bc 28 45 de bd a0 dd 67 bd ca c2 81 3d
       -0.027272323 -0.10853034 -0.056607842 0.06335981
000350 90 8f de 3d d9 02 f7 bd df 5c cf 3b 83 9d aa bc
       0.10867226 -0.1206109 0.00632821 -0.02082706
000360 61 3b 53 bd b1 aa 15 bd 3d 5c e7 3d 38 dd 14 bd
       -0.0515703 -0.036539737 0.1129689 -0.036343783
000370 d7 17 69 3d 80 f8 a2 3d 9c 50 72 bd 69 b8 19 3d
       0.0569075 0.07957554 -0.059158906 0.037529383
000380 39 3a 12 3d 2f 9d cc bd 94 5d 0c 3e 67 af 08 3d
       0.035700057 -0.09990918 0.13707572 0.0333704
000390 76 ca d3 bd 2d 46 18 bd 3d 82 53 bd 00 0c 79 bd
       -0.10341351 -0.0371763 -0.051637877 -0.06080246
0003a0 ea 00 ee bd c8 b0 ac 3d 07 fa 8f 3d 8d 32 db bd
       -0.11621268 0.08432156 0.07030111 -0.10703001
0003b0 f0 87 87 bd 1c 45 00 be 10 4d 17 3e 64 cb 0a 3e
       -0.06617725 -0.12526363 0.14775491 0.1355415
0003c0 b3 55 85 bd 75 f4 f6 bd 20 3f 52 3c a0 fc 7a bd
       -0.065104865 -0.12058345 0.012832433 -0.06127608
0003d0 c3 cd be 3d 64 cc f9 3d 1c e7 ea bd ca f3 e4 3d
       0.0931659 0.121971875 -0.11469862 0.111793116
0003e0 5c ec 68 bd 26 b4 9b 3d 85 15 19 3c 99 a6 8c bc
       -0.056866035 0.0760272 0.00934351 -0.017169284
0003f0 43 4e de 3c 19 da a0 3d 98 c1 f8 3d f3 3e cb 3c
       0.027136927 0.07854099 0.121463 0.02481029

forward_pass.2.bias f4 [64]
000000 20 40 e1 3d ec f1 75 3d 77 79 b0 3d b9 0d d6 3c
       0.10998559 0.060045168 0.086169176 0.02612959
000010 07 dd 0e be aa 9c ab bd 5a 06 2b 3e 20 4e 30 3d
       -0.13951503 -0.08379491 0.16701642 0.043043256
000020 7c 23 7a 3c bd 14 82 bd e5 db f7 3d de 2e 6e bd
       0.015267249 -0.06351612 0.121024884 -0.058150165
000030 6a b9 14 3d d5 8c de 3d 94 26 e2 bc f7 6d b2 bc
       0.036309637 0.10866705 -0.027606286 -0.021780951
000040 48 e8 ab bd b7 75 ad bd 72 e1 e2 bc 54 fe af bd
       -0.083939135 -0.08469718 -0.027695391 -0.08593431
000050 f0 c8 67 bd 20 fa 36 bd aa 25 d1 bd f5 e3 ae 3d
       -0.056588113 -0.04467213 -0.10212262 0.08539573
000060 d9 8b 32 3e 63 d7 52 bd 3b 39 62 3d 7c 4b c8 3d
       0.1743616 -0.05147494 0.05523036 0.097800225
000070 e3 7e 38 bd 02 63 8d bc 3b ba 15 3d aa 3f b6 bd
       -0.045042884 -0.017259125 0.036554556 -0.08898862
000080 60 3a 63 3d 58 90 c3 bb c8 b0 ac 3c d4 82 a5 3d
       0.055475593 -0.005968135 0.02108039 0.08081594
000090 93 23 e5 bd d0 bb 0f 3e 7b 91 f0 3d d4 57 05 3e
       -0.11188426 0.14036489 0.11746498 0.13021785
0000a0 33 85 eb bc fc 8b d9 bd 52 40 c8 bd 80 10 a4 3c
       -0.028750038 -0.10622403 -0.09777893 0.020027399
0000b0 44 4c 5a 3d 3c f8 c6 3d 59 6d d1 3c f3 7e 87 bb
       0.05329539 0.09715316 0.025564836 -0.0041350066
0000c0 3b 26 43 39 a8 08 98 bd 4c 02 bf bd b9 57 b3 bd
       0.00018610891 -0.07423526 -0.0932661 -0.08756966
0000d0 82 6a 82 3d 3d 44 3e 3d 08 a4 a8 bd 8b 4c 5c 3d
       0.06367971 0.046451796 -0.082344115 0.053783935
0000e0 46 67 da 3d 3c 4b b3 3d ef 4d ad bd 92 75 90 3d
       0.10664229 0.08754584 -0.0846213 0.07053675
0000f0 a8 49 b2 bd d7 04 3d 3d 1d b5 4b bd f6 ed 85 bc
       -0.08705455 0.046147194 -0.04973327 -0.01634882

forward_pass.4.weight f4 [1, 64]
000000 23 66 73 3e 10 d6 5f 3e 8f 66 71 3d 9c 64 25 3e
       0.23769431 0.21859002 0.058935698 0.1615166
000010 50 16 bc bd d6 a9 d5 bd 39 b8 82 be 35 8d 5d 3d
       -0.09183943 -0.10432784 -0.25531176 0.054089744
000020 43 28 15 3f 4e f9 dc bd 9c 8f 9f 3e d5 16 ab bd
       0.5826456 -0.107897386 0.31164253 -0.08353964
000030 57 41 b6 3c c4 f3 a8 bc 52 dd 1c be 81 5c 4c be
       0.022247953 -0.020624049 -0.15318802 -0.19957162
000040 c8 c7 99 bd d7 ec 96 bb 45 05 e4 bc df 82 f2 3b
       -0.075088084 -0.00460587 -0.027834544 0.007400855
000050 58 60 89 3e 58 43 91 3b d1 c0 26 3d 47 b5 9a 3e
       0.26831317 0.004433077 0.040711228 0.3021643
000060 d5 ee f3 be f6 01 e5 bd f2 c1 9d bd b1 00 19 be
       -0.47643152 -0.11182015 -0.07703008 -0.1494167
000070 b5 08 be 3d 2a c3 ef bc d4 48 09 be f5 06 cf bb
       0.092790045 -0.029267866 -0.13406688 -0.006317968
000080 ae 79 94 be c1 e8 06 be 16 b6 25 3d 04 54 54 be
       -0.28999084 -0.13174726 0.040456854 -0.20735174
000090 89 94 c6 bd b5 26 c1 be bb ba a9 3e 25 ac 53 be
       -0.096962996 -0.37724844 0.33150277 -0.20671137
0000a0 72 d7 ed 3d 09 e7 d8 bd 27 66 67 be 97 05 4e 3e
       0.116133586 -0.105909415 -0.22597562 0.2011932
0000b0 d9 7b 7b 3e e2 68 06 be cd e9 1a be e8 05 8f be
       0.24558963 -0.13125947 -0.1512825 -0.27934194
0000c0 80 73 ca bd 09 bf fa bd b9 75 2f be 83 a2 cf bd
       -0.09885311 -0.12243468 -0.17134751 -0.101384185
0000d0 b1 dc 3b be e8 92 7d be c4 6f c1 3d da 65 da bd
       -0.18345906 -0.24763072 0.09445146 -0.10663958
0000e0 6c 5a 52 be 10 a0 53 be 34 32 c7 3d d7 9c ae 3e
       -0.20542306 -0.20666528 0.09726372 0.34104034
0000f0 ae 9e 0a bd ae 7f 6f 3e b0 c0 ca bd be b0 d9 3d
       -0.033842735 0.2338855 -0.099000335 0.10629414
