src/willse_backgammon/AI_Agents/Saved_NNs/03-0000-0002.pt (torch, 70714 bytes, 5 tensors)

forward_pass.0.weight f4 [64, 198]
0	0xbc698429	-0.014252701
1	0xbd7c5b36	-0.061610423
2	0xbddfbed9	-0.10925073
3	0xbd1a662f	-0.037695106
4	0xbc9b8d20	-0.018988192
5	0xbda3ab21	-0.079916246
6	0xbcbe9ea4	-0.023269005
7	0x3c7f1b1c	0.015570428
8	0xbcc267ba	-0.023731101
9	0xbd421929	-0.047387276
10	0xbd907836	-0.070541784
11	0xbd2c0cba	-0.042004324
12	0x3ce40317	0.027833505
13	0xbd5d6e58	-0.05406031
14	0xbd07e7b6	-0.03317996
15	0x3c9f1936	0.019421201
16	0xbd668e8a	-0.05628828
17	0xbd52d273	-0.05147023
18	0xbd80a91b	-0.06282254
19	0xbb3f384d	-0.0029177845
20	0x3d2a68f8	0.041604012
21	0xbdeb55e4	-0.11490992
22	0x3cb79fcf	0.02241507
23	0xbdd375c8	-0.10325199
24	0xbd157b7b	-0.036494713
25	0xbd830850	-0.0639807
26	0xbdb3b77c	-0.08775231
27	0xbd7b7182	-0.061387546
28	0xbb125568	-0.0022328738
29	0xbdad6e50	-0.08468306
30	0xbd84b83f	-0.06480455
31	0x3b9293d5	0.0044731894
32	0xbd92154d	-0.07132969
33	0xbe094f05	-0.1340905
34	0xbd1feb7f	-0.039042946
35	0x3cd26bad	0.02568611
36	0x3d7965a1	0.060887937
37	0xbe113ac0	-0.14182568
38	0xbd86bed6	-0.06579368
39	0xbd555ae8	-0.052088648
40	0xbb6d520b	-0.0036212231
41	0x3a213bde	0.00061505835
42	0xbd3ffdb6	-0.046872817
43	0xbd68b460	-0.056812644
44	0x3c444943	0.011980358
45	0xbd328a3c	-0.04358886
46	0x3c4f99b4	0.012670923
47	0xbc145184	-0.009052638
48	0xbd38c1b7	-0.045106616
49	0xbd53ad58	-0.051678985
50	0x3c2a6157	0.010399184
51	0xbd2637c1	-0.040580515
52	0x3d372b56	0.044719063
53	0xbdaf9fe0	-0.085754156
54	0x3cf19297	0.029488845
55	0xbcc40933	-0.023930168
56	0xbd14027e	-0.03613519
57	0xbc6729d8	-0.014109097
58	0xbda1f8a0	-0.079087496
59	0xbc358770	-0.011079654
60	0x3d85e366	0.065375134
61	0xbd5f8f13	-0.054579806
62	0xbd8fc167	-0.070193104
63	0x3d39f43f	0.045398947
64	0xbd03abf7	-0.03214642
65	0x3c021319	0.007939124
66	0xbc75d95b	-0.015005435
67	0x3c69cfb2	0.01427071
68	0xbb745edd	-0.0037287988
69	0x3b9fbaf4	0.0048745815
70	0xbc414170	-0.011795387
71	0xbc908f3b	-0.017646423
72	0x3d062cec	0.032757685
73	0xb9bbaead	-0.00035797563
74	0x3be6c177	0.007042106
75	0x3ce4212b	0.027847847
76	0x3c229496	0.009923121
77	0xbbb9858b	-0.0056616715
78	0x3d6d5a50	0.057947457
79	0xbbedd1eb	-0.00725769
80	0x3bc75054	0.006082574
81	0xbd8f2906	-0.069902465
82	0x3b6600a1	0.003509559
83	0xbcc465a9	-0.023974257
84	0x3bdbc1cc	0.006706452
85	0xbc0b08b3	-0.008485961
86	0x3d1f1bc2	0.03884483
87	0x3cff01c3	0.03112877
88	0xbd48c7b6	-0.049018584
89	0x3cdca2fb	0.026933184
90	0xbd6f5cd4	-0.058438137
91	0xbcbd3896	-0.023098271
92	0xbd13b3b5	-0.036060054
93	0x3abea18f	0.0014543998
94	0xbd5458ea	-0.051842608
95	0x3d863830	0.06553686
96	0x3d07c997	0.033151235
97	0x3d2132d9	0.039355133
98	0xbd05ad91	-0.03263623
99	0xbbdaf980	-0.0066825747
100	0x3b3d9093	0.0028925284
101	0xbd4cfda9	-0.050046597
102	0x3d4c51a7	0.049882557
103	0xbd46e084	-0.04855396
104	0xbbe9347e	-0.0071168533
105	0xbc4fbd90	-0.012679473
106	0x3cffe651	0.031237753
107	0x3d6579b1	0.056024257
108	0x3d6ce4c6	0.057835363
109	0x3d3356a3	0.043783795
110	0x3caff574	0.021479346
111	0xbcc4ebe9	-0.024038272
112	0x3cbc4b16	0.022985023
113	0x3d873071	0.06601036
114	0xbcabd761	-0.020976724
115	0x3d73b3fd	0.059497822
116	0x3da7d3b5	0.08194677
117	0xbcb21f58	-0.021743461
118	0x3d9c8caf	0.07644021
119	0x3d82da0f	0.063892476
120	0x3d7ff84a	0.062492646
121	0xba810015	-0.0009841943
122	0x3d53dc74	0.051723912
123	0x3ca1ae4a	0.019736428
124	0x3d35463e	0.04425644
125	0xbd2ec3c4	-0.042667165
126	0x3a37c331	0.0007009982
127	0x3d90f52a	0.07078011
128	0xbc8f57ab	-0.017497858
129	0x3b192c12	0.0023372215
130	0xbbd7e413	-0.006588468
131	0xbb096ad1	-0.0020968209
132	0xbc2022ea	-0.009773949
133	0xbcb93de2	-0.022612516
134	0xbc2b5f76	-0.010459771
135	0xbc1866bb	-0.009301837
136	0x3d6ee14f	0.05832034
137	0x3d0addf0	0.033903062
138	0x3c94f0dd	0.018181259
139	0xbb3e10d7	-0.0029001737
140	0x3d0993ea	0.033588327
141	0xbb9a2510	-0.004704125
142	0xbcf89a7e	-0.030347105
143	0x3d10d36b	0.035357874
144	0xbc8d60c4	-0.017258056
145	0x3df265a2	0.11835791
146	0x3bd66f22	0.00654401
147	0x3d31d9d1	0.043420617
148	0x3c6593d5	0.014012297
149	0x3d899f08	0.06719786
150	0xbcf9c4ce	-0.030489352
151	0x3c9b35fd	0.018946642
152	0x3d25a83e	0.04044365
153	0x3ca12da2	0.01967508
154	0xbd477fe9	-0.04870597
155	0xbc8e8481	-0.017397167
156	0x3b1016d1	0.0021986256
157	0xbd97d0d1	-0.074128754
158	0xbca1158d	-0.019663597
159	0x3cd8f1e9	0.02648254
160	0x3d4682e7	0.048464682
161	0x3caf4682	0.021395925
162	0x3c958ce3	0.018255657
163	0xbc917250	-0.017754704
164	0x3b775ae1	0.0037743377
165	0xbdb82f00	-0.089933395
166	0xbce05719	-0.027385281
167	0x3d1645bb	0.036687594
168	0x3bc545b0	0.0060202703
169	0x3de36df5	0.11104957
170	0x3ca654c5	0.020304093
171	0x3d893716	0.0669996
172	0xbd46b09c	-0.04850827
173	0xbbbd9989	-0.005786125
174	0xbc84d46c	-0.016214572
175	0x3d4a3e2d	0.0493757
176	0x3c1dd3ef	0.009633048
177	0x3dc0baee	0.09410654
178	0x3d05e78e	0.03269153
179	0x3d23a98f	0.039956626
180	0xbd18e1d7	-0.037324753
181	0xb93d8062	-0.00018072271
182	0xbd453223	-0.048143517
183	0x3d925ac1	0.07146216
184	0xbca002a3	-0.019532507
185	0x3dd799de	0.10527395
186	0x3d941673	0.07230844
187	0xba9cbcdd	-0.0011958141
188	0x3d97f34e	0.074194536
189	0xbd104398	-0.035220712
190	0xbcfd63cc	-0.030931376
191	0x3ce75c3d	0.028242225
192	0x3e3d1fb9	0.18469132
193	0xbe0de357	-0.13856255
194	0xbdf4d848	-0.11955315
195	0x3e2274d2	0.15864876
196	0x3e65b301	0.22431566
197	0xbe583bcc	-0.2111656
198	0x3d365bf1	0.044521276
199	0xbc579316	-0.013157627
200	0x3d701aa6	0.058619164
201	0xbc816fa6	-0.015800308
202	0x3d383ed2	0.044981785
203	0x3dddb66b	0.10825809
204	0x3e41b819	0.18917884
205	0x3e852c15	0.26010194
206	0xbcdb7fe1	-0.026794376
207	0xbd81cc3b	-0.06337782
208	0x3d786d42	0.06065107
209	0x3d78ca0a	0.060739554
210	0x3d363496	0.044483744
211	0x3dfada92	0.1224872
212	0x3e3340e3	0.17505221
213	0x3e7c61cf	0.24646686
214	0xbca1cf43	-0.01975215
215	0x3d831934	0.064012915
216	0x3d5554e9	0.05208293
217	0xbd197e34	-0.037473872
218	0x3d948701	0.072523125
219	0x3d544cee	0.05183118
220	0x3de2532e	0.110510215
221	0x3d1ab10f	0.037766512
222	0xbc007b96	-0.007841965
223	0x3d881940	0.06645441
224	0x3a487ed7	0.0007648295
225	0xbd1211fd	-0.035661686
226	0x3db9f1cd	0.09079323
227	0x3da79989	0.081835814
228	0xbc849786	-0.016185533
229	0xbd6bacf1	-0.057537977
230	0x3d9ae6d6	0.0756356
231	0x3d4332b0	0.04765576
232	0x3d46b681	0.048513893
233	0xbc9b987b	-0.018993607
234	0x3d14d921	0.036339883
235	0xbc2ec12b	-0.010666172
236	0x3d55a3a7	0.052158024
237	0x3d9435c6	0.07236819
238	0x3cee3846	0.029079568
239	0x3d569f94	0.05239828
240	0x3d8b0d24	0.06789616
241	0xbc5cc7c7	-0.013475365
242	0xbdadb462	-0.08481671
243	0xbdec7031	-0.11544836
244	0x3d332ce5	0.043743987
245	0x3ab3bc24	0.0013712686
246	0x3d6d2a85	0.057901878
247	0xbb37ed41	-0.0028064998
248	0x3d500a43	0.050791036
249	0x3d870f21	0.065946825
250	0xbce450c7	-0.027870549
251	0xbd8bcb7e	-0.068259224
252	0xbc5572c6	-0.013027852
253	0x3d85bce2	0.06530167
254	0x3d5d9cb7	0.054104533
255	0xbc940ade	-0.018071588

forward_pass.0.bias f4 [64]
0	0x3c931172	0.017952655
1	0xbdf73226	-0.12070112
2	0x3d0ceffc	0.034408554
3	0xbd73a237	-0.059480872
4	0x3c2684a8	0.010163464
5	0xbb0c28e0	-0.0021386668
6	0xbd3bd14f	-0.04585391
7	0x3c95b7a0	0.018276036
8	0xbc605dce	-0.01369424
9	0x3c8456a5	0.016154597
10	0xbdb711f1	-0.08938969
11	0x3d81692e	0.063188896
12	0xb86a91b4	-5.5925644e-05
13	0xbd8fbb1a	-0.07018109
14	0x3d9d8f0c	0.076933
15	0xbc0fd58e	-0.008778943
16	0xbc8f2461	-0.017473402
17	0x3d479e09	0.0487347
18	0xbd7b231e	-0.061312787
19	0x3c8bb139	0.01705228
20	0x3d94c30d	0.072637655
21	0x3cffbebe	0.031218883
22	0xbba60dfe	-0.005067586
23	0xbd8ac949	-0.06776673
24	0xbb0e7819	-0.0021739064
25	0x3d030c48	0.031994134
26	0x3b9401f6	0.0045168353
27	0x3ca5bf6f	0.020232884
28	0x3c73d399	0.014881992
29	0xbd4c5569	-0.04988614
30	0x3b85bd9c	0.004081441
31	0xbbc28d55	-0.0059372582
32	0x3aa5ea67	0.0012658358
33	0x3ca2b7da	0.019863058
34	0xbe0c3aea	-0.13694349
35	0xbc5b54ae	-0.013386888
36	0xbd9009e1	-0.07033134
37	0x3c1d9c7a	0.009619826
38	0xbd7a1aab	-0.06106059
39	0xbd1c3afb	-0.038142186
40	0xbc24b5b8	-0.010053091
41	0x3d5b321e	0.053514592
42	0xbd609403	-0.054828655
43	0xbc57db6c	-0.013174873
44	0xbd589beb	-0.05288307
45	0xbc3254be	-0.010884462
46	0xbe1d72c0	-0.15375805
47	0x3caa4213	0.02078346
48	0x3da1e02b	0.07904085
49	0x3d7d7a6a	0.06188432
50	0xbd2ca7dc	-0.04215227
51	0x3d42ba9d	0.04754125
52	0xbce67763	-0.0281331
53	0x3d46affe	0.048507683
54	0x3daa9f6e	0.0833119
55	0x3d8d5616	0.06901185
56	0x3dc2c7ab	0.0951074
57	0xbd49b929	-0.049248848
58	0xbd00bee1	-0.031432036
59	0x3bda4c0b	0.006661897
60	0xbcef88ca	-0.02924003
61	0xbdba0c13	-0.09084334
62	0x3d117a01	0.035516743
63	0x3d6d5b6b	0.05794851

forward_pass.2.weight f4 [64, 64]
0	0x3dabbd62	0.08385731
1	0xbe248896	-0.16067728
2	0x3d9c867c	0.07642838
3	0x3d5638bd	0.052300204
4	0x3de9c9f7	0.11415475
5	0xbd7f17c1	-0.062278513
6	0x3d5bd5d9	0.053670738
7	0xbab615fd	-0.0013892051
8	0xbcf8c829	-0.030368881
9	0xbd9c9013	-0.076446675
10	0xbdab9ddc	-0.08379719
11	0xbc8f99d4	-0.017529406
12	0x3da6e42c	0.08148989
13	0x3db71fea	0.08941634
14	0xbc6c671f	-0.014428883
15	0xbd4acbf0	-0.049510896
16	0xbdb65d70	-0.089045405
17	0x3d2ebe3c	0.04266189
18	0x3b1172a7	0.0022193582
19	0xbdad8911	-0.08473409
20	0xbd0d586c	-0.034508154
21	0x3d0bd95c	0.034142837
22	0xbdb175eb	-0.08665069
23	0x3daa61d8	0.083194435
24	0xbda9412b	-0.08264383
25	0xbdbe03bb	-0.09278055
26	0x3d06cf67	0.032912638
27	0x3b37406e	0.0027961987
28	0x3dc0f51d	0.09421752
29	0x3dc7faca	0.09764631
30	0xbe04cf9f	-0.12969826
31	0x3cd7ee73	0.026358819
32	0x3c0a8c5d	0.008456317
33	0xbd9430ad	-0.07235847
34	0x3c59f118	0.01330211
35	0xbcce2f7a	-0.025169123
36	0xbdc81ea7	-0.097714715
37	0x3d6d98be	0.058006994
38	0x3de14dd3	0.11001172
39	0xbdc36e5b	-0.09542533
40	0xbdd72650	-0.105053544
41	0xbd76f984	-0.06029655
42	0x3cee12bb	0.029061666
43	0xbdb72a6c	-0.08943638
44	0xbc8ce93b	-0.017201057
45	0x3d912e01	0.07088853
46	0x3e008cae	0.12553665
47	0xbd8fde05	-0.07024769
48	0xbd862d58	-0.065516174
49	0x3cd526b6	0.026019435
50	0x3dbcdf1b	0.092222415
51	0x3de99cc4	0.11406854
52	0x3cbd922b	0.023140987
53	0x3d45b36c	0.048266813
54	0xbd928e65	-0.07156066
55	0x3cff728c	0.03118255
56	0xbde2dc15	-0.110771336
57	0xbd447278	-0.04796073
58	0xbc2f62a0	-0.010704666
59	0xbd83f206	-0.06442647
60	0xbdbdfcd4	-0.09276739
61	0x3d43930d	0.04774766
62	0xbd0d85db	-0.034551483
63	0x3e05ebc4	0.13078219
64	0xbb26db99	-0.002546048
65	0xbe089c05	-0.13340767
66	0xbd9e3384	-0.077246696
67	0x3e18c71d	0.14919706
68	0xbd856046	-0.06512503
69	0x3c9ae00e	0.018905666
70	0x3be4f17b	0.0069867945
71	0xbda2e513	-0.07953849
72	0x3d1934ba	0.0374038
73	0xbde44564	-0.11146048
74	0xbcf2ea28	-0.02965267
75	0xbd8fbbc1	-0.07018233
76	0x3ac6ac0f	0.0015157479
77	0x3d94f6dc	0.07273647
78	0xba407455	-0.00073415536
79	0x3d672692	0.056433268
80	0x3d1b8082	0.03796435
81	0x3d334d8f	0.043775138
82	0x3da7db94	0.08196178
83	0xba21f79a	-0.0006178558
84	0xbda49fb5	-0.08038274
85	0xbdd09a63	-0.10185697
86	0x3c8f7ce5	0.017515609
87	0xbd80e0e2	-0.06292893
88	0xbda7470a	-0.081678465
89	0x3dcb0b0f	0.09914219
90	0xbc9f99fc	-0.019482605
91	0xbdd6d806	-0.10490422
92	0x3d5aa68c	0.053381488
93	0xbd9c241c	-0.07624075
94	0xbd8d3292	-0.06894411
95	0x3d750ffa	0.05982969
96	0xbd4cf3eb	-0.050037306
97	0x3ced98ab	0.029003462
98	0x3df28b9f	0.11843037
99	0xbe09d498	-0.13460004
100	0xbd8783bc	-0.06616923
101	0xbd87b245	-0.06625799
102	0x3d66cab9	0.056345675
103	0x3d2edae3	0.042689215
104	0xbc988a6b	-0.01862069
105	0xbe04a50f	-0.1295359
106	0xbdc98137	-0.09839099
107	0xbd661c2e	-0.056179218
108	0xbd16329b	-0.036669355
109	0xbdfc48a5	-0.12318543
110	0x3e4e2866	0.20132598
111	0x3cd3ec42	0.025869492
112	0xbdff4e62	-0.12466122
113	0x3d6a7e55	0.057249386
114	0xbd266e5f	-0.0406326
115	0xbd3496c0	-0.04408908
116	0x3dc2b00b	0.09506234
117	0x3d1d4759	0.03839812
118	0xbdc66700	-0.096876144
119	0x3c04c45e	0.008103458
120	0xbd783af3	-0.060603093
121	0xbc78585c	-0.015157785
122	0x3c1fe6e8	0.009759642
123	0xbdd61508	-0.1045323
124	0xbcae08cc	-0.021244429
125	0x3dbfdc52	0.09368195
126	0xbdf31a1e	-0.11870216
127	0x3dff9f4b	0.124815546
128	0x3de605c2	0.11231567
129	0xbcb32ec3	-0.021872884
130	0xbdbbe056	-0.09173648
131	0xbc4b6920	-0.0124152005
132	0x3cc3a5ef	0.023882834
133	0xbdb2e128	-0.087343514
134	0x3ddf72d5	0.10910574
135	0x3d6aeecd	0.057356644
136	0x3dd64f8d	0.10464392
137	0x3d80ec61	0.06295086
138	0x3d1f160e	0.038839392
139	0xbc9ed494	-0.019388475
140	0xbc81f57d	-0.015864128
141	0xbd9fd7ec	-0.07804856
142	0xbbe2e174	-0.0069238488
143	0x3d6dfd89	0.058103118
144	0x3caf4fc1	0.021400334
145	0x3c3a730f	0.011379971
146	0xbca6996c	-0.02033683
147	0xbda0ab9b	-0.07845231
148	0xbdc79839	-0.09745831
149	0x3cb8d284	0.02256132
150	0xbcac8bfb	-0.021062842
151	0xbd0e96ea	-0.03481189
152	0x3d43ffa7	0.04785123
153	0xbd9364a5	-0.07196931
154	0x3cd94005	0.026519785
155	0x3cc5ef26	0.024161886
156	0x3d7290a8	0.059219986
157	0x3dc3b6eb	0.09556373
158	0xbe00c585	-0.12575348
159	0x3d951e3c	0.072811574
160	0xbd38d3ad	-0.045123745
161	0xbdc255fb	-0.09489056
162	0xbd5ee673	-0.054418992
163	0xbc66cc50	-0.014086798
164	0xbcf4165f	-0.029795824
165	0x3cb89293	0.02253083
166	0xbda25982	-0.079272285
167	0xbc7c8df8	-0.015414707
168	0xbdf81a99	-0.12114448
169	0x3c47ad99	0.012187385
170	0xbd01c4a5	-0.031681675
171	0xbd0a4155	-0.03375371
172	0x3b8f04c5	0.0043645822
173	0x3dfb0ce0	0.12258315
174	0xbd9026d9	-0.070386596
175	0xbd76e53e	-0.060277216
176	0x3d3b7f69	0.045775805
177	0x3ddd1825	0.10795621
178	0x3d97efd7	0.07418793
179	0xbdbc55da	-0.091960624
180	0x3d1095d0	0.035299122
181	0xbbe17740	-0.006880671
182	0xbdd4c5a9	-0.10389263
183	0xbd9e14d9	-0.0771882
184	0xbd998b07	-0.074972205
185	0xbdf8acd0	-0.12142336
186	0x3d1d1742	0.03835226
187	0xbda92b27	-0.08260184
188	0xbd61100b	-0.05494694
189	0x3d35678a	0.044288196
190	0xbd48f750	-0.04906398
191	0xbc0756bc	-0.008260425
192	0xbb2cd6da	-0.0026373179
193	0xbd88f102	-0.066865936
194	0xbd0a6c4d	-0.03379469
195	0xbdc8d52e	-0.09806286
196	0xbd6bd29c	-0.0575739
197	0xbd9fbb55	-0.077994026
198	0x3d82800f	0.063720815
199	0x3aee7909	0.001819403
200	0xbd219a80	-0.039453983
201	0xbdd06d17	-0.10177057
202	0xbd0c1b8a	-0.03420595
203	0xbd6d25fb	-0.05789755
204	0xbd740e1d	-0.059583772
205	0xbdd73651	-0.10508407
206	0x3db72cdf	0.08944105
207	0xbd903b46	-0.070425555
208	0xbce13c83	-0.027494675
209	0xbdd1c829	-0.10243256
210	0xbd65c591	-0.056096617
211	0x3d820a46	0.06349616
212	0x3ddc3097	0.10751455
213	0xbdf794a6	-0.12088899
214	0xbb09cab9	-0.0021025373
215	0xbca97515	-0.020685712
216	0xbd468fb0	-0.048476875
217	0xbd1196a8	-0.035544068
218	0x3df6962c	0.12040362
219	0xbd6f620d	-0.058443118
220	0x3d400c93	0.04688699
221	0x3da190c4	0.0788894
222	0xbd4abe55	-0.04949792
223	0x3d226036	0.039642535
224	0xbb9776eb	-0.0046223304
225	0xbdd15211	-0.10220731
226	0x3df7ae6f	0.120938174
227	0x3ce647b3	0.02811036
228	0xbdd22a31	-0.102619536
229	0xbce81d52	-0.028334294
230	0xbd810897	-0.063004665
231	0xbd42b04a	-0.047531404
232	0xbdef8a21	-0.11696268
233	0x3dabb532	0.0838417
234	0x3d8d6e22	0.06905772
235	0xbdcbcc11	-0.09951032
236	0xbd71831e	-0.058962934
237	0xbdfab2b8	-0.12241119
238	0x3e03df90	0.12878251
239	0x3e0fb74c	0.14034766
240	0xbd8dc942	-0.069231525
241	0xbdf42922	-0.11921908
242	0x3c85a11d	0.016312176
243	0xbd8460d9	-0.06463785
244	0x3dbf0fd4	0.09329191
245	0x3dc80f32	0.09768523
246	0xbdf6ccb4	-0.12050763
247	0x3ddf3adb	0.10899898
248	0xbd8a57d9	-0.06755037
249	0x3d882f60	0.06649661
250	0x3bd762ae	0.006573043
251	0xbc786541	-0.01516086
252	0x3c975dff	0.018477438
253	0x3d8ffc54	0.0703055
254	0x3df6ef12	0.12057318
255	0x3ccf8fa1	0.025337042

forward_pass.2.bias f4 [64]
0	0x3cf8241a	0.030290652
1	0xbd7f5016	-0.062332235
2	0x3dab4239	0.0836224
3	0x3c7390a0	0.014866024
4	0xbe0c7db8	-0.13719833
5	0xbdd58197	-0.10425108
6	0x3debd4f9	0.11515231
7	0x3d37936d	0.04481833
8	0x3d3972e5	0.045275588
9	0xbdafda6d	-0.08586583
10	0x3dd7df3e	0.10540627
11	0xbd544115	-0.05181988
12	0x3cd4f2dc	0.02599471
13	0x3dc5a9e8	0.09651548
14	0xbd64496b	-0.05573408
15	0xbc00bfeb	-0.007858257
16	0xbdd2a3a6	-0.1028512
17	0xbd834637	-0.06409877
18	0xbcb4560e	-0.02201369
19	0xbdc0bb5e	-0.094107375
20	0xbdd307d7	-0.1030423
21	0xbd1799b5	-0.03701182
22	0xbe038782	-0.12844661
23	0x3dcf5205	0.10123066
24	0x3e3e1e31	0.18566205
25	0xbd2303be	-0.03979849
26	0x3d0735af	0.03301018
27	0x3d153d06	0.03643515
28	0xbd997c81	-0.0749445
29	0xbd154876	-0.036446057
30	0xbc1f9fd6	-0.009742698
31	0xbdb0928c	-0.086217016
32	0xbbb043d3	-0.005379179
33	0xbd79678c	-0.060889766
34	0x3d3c7840	0.046013117
35	0x3cb14d2d	0.021643246
36	0xbde97574	-0.113993555
37	0x3e0b2109	0.1358682
38	0xbd11d571	-0.035603944
39	0x3d9e3525	0.0772498
40	0xbc8cce32	-0.017188165
41	0xbe0229d3	-0.12711267
42	0xbe64751d	-0.223103
43	0xbd3e6826	-0.046486042
44	0x3d8a6790	0.06758034
45	0x3dd582d1	0.10425342
46	0xbd0c03e3	-0.034183394
47	0x3bb90948	0.0056468584
48	0xbb8c0eef	-0.004274241
49	0xbcb8b072	-0.022545073
50	0xbe1dc1b2	-0.1540592
51	0xbdbdea03	-0.0927315
52	0x3c0921f4	0.008369911
53	0xbd5c7177	-0.053819146
54	0xbda7ab80	-0.08187008
55	0x3cc28a63	0.023747629
56	0x3e2ed024	0.17071587
57	0x3d1d349c	0.03838025
58	0xbd9f3799	-0.07774276
59	0x3c1ec7b2	0.009691166
60	0xbd9e88de	-0.07740949
61	0xbcb7dc78	-0.022443995
62	0xbd45a249	-0.04825047
63	0xbc6d448f	-0.014481678

forward_pass.4.weight f4 [1, 64]
0	0x3e807cd7	0.25095245
1	0x3e944305	0.28957382
2	0x3d4f42fe	0.050600998
3	0x3dbaa0ad	0.09112678
4	0xbdb5df7c	-0.08880517
5	0xbd9140d4	-0.07092443
6	0xbda7d319	-0.081945606
7	0x3d2f84db	0.04285131
8	0x3ee2cde1	0.44297698
9	0xbdb0c481	-0.0863123
10	0x3e524473	0.20533924
11	0xbe0bffbf	-0.13671778
12	0xbd95a044	-0.07305959
13	0xbbafabab	-0.0053610406
14	0xbe95d544	-0.2926427
15	0xbe9113a8	-0.2833531
16	0xbe3e6c96	-0.1859611
17	0xbd8d0c5e	-0.068871245
18	0xbd7c37ff	-0.06157684
19	0xbc961d64	-0.018324561
20	0x3ed234b6	0.4105584
21	0xbd9d9b21	-0.07695604
22	0x3e65d9ea	0.22446409
23	0x3e94ec9f	0.29086778
24	0xbed5d3a0	-0.4176302
25	0xbded65a1	-0.1159165
26	0xbc97a012	-0.018508945
27	0xbdb8b7a9	-0.090194054
28	0x3e5e27bd	0.21694846
29	0xbcf22846	-0.02956022
30	0xbe813477	-0.2523534
31	0xbc914290	-0.017731935
32	0xbe474639	-0.19460382
33	0xbef8308f	-0.48474547
34	0x3daf9111	0.08572591
35	0xbdfc3cec	-0.123163074
36	0xbdc21acc	-0.09477767
37	0xbe94caf0	-0.2906108
38	0x3ea55d09	0.32297543
39	0xbda72b4c	-0.08162555
40	0x3de813ea	0.11331923
41	0xbe2fce60	-0.1716857
42	0xbed17f63	-0.409175
43	0x3e09951f	0.13435791
44	0x3ea9cfc8	0.33166337
45	0xbe0fc4d3	-0.14039926
46	0xbdce85b4	-0.100840956
47	0xbe9b64a6	-0.30350226
48	0xbe005c0a	-0.1253511
49	0xbe618817	-0.2202457
50	0xbea35d43	-0.3190709
51	0xbe46272e	-0.19350883
52	0xbe347bf1	-0.17625405
53	0xbe5f7690	-0.21822572
54	0x3dc2401a	0.09484883
55	0xbdca63a0	-0.09882283
56	0xbea6b788	-0.32561898
57	0xbdf8bf06	-0.1214581
58	0x3dd5ed3c	0.104456395
59	0x3e63d216	0.2224811
60	0xbd00dd69	-0.031461153
61	0x3e94324a	0.28944618
62	0xbdc7e655	-0.09760729
63	0x3dbc39b2	0.09190692
