src/willse_backgammon/AI_Agents/Saved_NNs/03-0000-0002.pt (torch, 70714 bytes, 5 tensors)

forward_pass.0.weight f4 [64, 198]
00000000: 8a3e 923c 4a6d 3dbc af48 cbbd b3c5 08bd
00000010: 4afc 27bd b199 7dbd e671 9fbc dc8a 2c3c
00000020: 988d 3abc 7e5b d5bc dfd3 64bd c240 17bd
00000030: ca66 143c 44a7 a2bc abe5 cbbc c0a5 a73c
00000040: e3ab 8fbd ceb6 0abd 8303 45bd 07c0 8a3b
00000050: 2012 8b3c 38d2 c0bd 3eff 1c3d 9694 c8bd
00000060: c9d7 28bd 3da9 61bd 3af4 aebd 83ac 6dbd
00000070: 9fc0 a0bc 4a41 1ebd 5c5c 86bd 1766 943b
00000080: 6650 95bd 0ff7 d2bd da41 fcbc dc39 053d
00000090: 4eb3 393d 21bf d0bd 0e47 9cbd 3316 3dbd
000000a0: 4825 c33b 8ef8 a839 d31a 43bd 9857 69bd
000000b0: 2e26 833c ee1d cfbc 32d9 b73c 2072 0439
000000c0: 797b 33bd 712e 43bd 0eb6 7a3c e9a0 1abd
000000d0: f258 153d 5831 56bd 6ec7 053d 9485 c2bc
000000e0: 2777 21bd 3693 05bc 9711 a0bd cc44 2dbc
000000f0: fa27 483d d434 4ebd fe8e 8dbd 3fb7 553d
00000100: 61ea 05bd 5037 503c 2259 1abc 60b9 853c
00000110: 3745 8bba ce13 193c be3b 3bbc f80b 8fbc
00000120: bb38 163d b37a 8f3b 4b54 313c fa2d ea3c
00000130: 72d4 28ba dd78 37bb 5aab 703d b358 e5bb
00000140: 7916 473b f024 8dbd 385e 863b 3a55 c7bc
00000150: aa10 0d3c 2be0 a2ba 128f 1e3d 58ca fe3c
00000160: 03c4 6cbd 5eae 403d 1b55 85bd 4f2b d1bb
00000170: 5316 25bd 90e7 293b 96a7 53bd 040e 863d
00000180: 0d36 093d 3168 2b3d 461e 08bd 99cd dfbb
00000190: b31f 61bb 5dac 99bc 3336 963d 9273 18bd
000001a0: 1c6e b3bc 2803 6abc fc19 fd3c 0f7a 653d
000001b0: ffcd 663d 993f 333d 1b95 b03c ccfa c5bc
000001c0: 5fad 813c a552 873d 38c3 b5bc 7570 733d
000001d0: a80a 9d3d 8c77 a0bc 2147 9b3d ac34 813d
000001e0: 0ced 473d e87f 95bb 397e 643d c6ff a53c
000001f0: 635b 023d 21c3 06bd 6eec ab3a 9785 8c3d
00000200: c433 21bd 391b 153c 0cf8 babb 63a2 873a
00000210: 7262 11bc 85f1 e3bb 8436 5abc f9cd 32bc
00000220: d29f 5d3d 0214 2b3d efa0 7f3c 8343 f5bb
00000230: dbcc 5d3c ca2d 1a3c 8595 eabc 7942 113d
00000240: e581 c7bc c7a3 c43d cc1e 893c 8a04 5b3d
00000250: 3bd1 c33c c75a 903d e67f 09bd 68cc 8e3c
00000260: a29e 433d 24ba 8b3c 6e6f 48bd b779 8ebc
00000270: a4d1 dbbc b4dd 83bd 43b6 bfbc 589b 713c
00000280: 8ef3 0a3d 0152 513c f4dc 123c 3cfc 39bd
00000290: f65e fbb9 7572 83bd b08b a2bc 3512 043d
000002a0: f2d9 eabc 6d55 b73d 2406 103d 51c2 913d
000002b0: 7c39 cdbc 2da4 313d dbde b3bb bb3f 2c3d
000002c0: 86bc ddbb 13c3 ac3d 18f4 4d3d 8845 303d
000002d0: b6bb 6cbd b3b3 803c e623 5fbd 00b3 793d
000002e0: 0bd4 21bd 2345 ab3d bbf8 a83d 95d3 0ebc
000002f0: da99 943d 96a6 cabc 2a18 44bd 236d 4f3c
00000300: 9afd f33d 56fe 74bd 41c2 9bbd 19ff 053e
00000310: cad5 4e3e 280f 39be b371 3d3d 4d43 09bc
00000320: 4c45 763d 05d4 88bc 54b6 c83c 31e8 c43d
00000330: 7338 223e bc8c 853e 4370 d5bc ce7d 76bd
00000340: 8b77 713d 999e 743d 0f02 043d d642 043e
00000350: cb6c 143e 9a9b 513e 414e 06bd c3eb 4b3d
00000360: ac8c 323d 62d7 21bd 8a24 763d 9a9c 663d
00000370: e1ff 833d 70f8 c0bc a255 23bd 34d2 443d
00000380: 94e4 ee3b c822 11bd 16e6 bd3d d268 9b3d
00000390: a083 f3bc 1087 78bd 8843 a23d fb18 9f3c
000003a0: 80cb 0a3d 06f4 babc ffd1 fd3c da28 fdbc
000003b0: cd21 13bb 3858 283d 55f1 1e3c 60cd 5f3d
000003c0: 625d 8e3d 05f6 59bc bad7 89bd 0afc d9bd
000003d0: 90b6 8ebc 5db8 35bd de69 1a3d 8dec 66bc
000003e0: d102 3f3d 414f 863d 2cee f0bc 2294 8ebd
000003f0: 1456 5dbc 9a7e 853d ea35 653d e6fb c4bc
0.017852087 -0.011561701 -0.09925973 -0.033391666 -0.041012086 -0.06191415 -0.01946349 0.0105311535
-0.011386298 -0.026044603 -0.05586612 -0.036926992 0.00905771 -0.01985515 -0.024889788 0.020464778
-0.07015207 -0.033865742 -0.048099052 0.004234317 0.016976416 -0.09415096 0.038329355 -0.097939655
-0.041221414 -0.05509304 -0.08542676 -0.058025848 -0.019623099 -0.038636483 -0.06560585 0.0045287716
-0.072907254 -0.10301029 -0.03079312 0.032525882 0.045337014 -0.10192705 -0.0763074 -0.04616375
0.005955372 0.00032228645 -0.047633003 -0.0569683 0.016009416 -0.025282826 0.022442434 0.00012631016
-0.043818925 -0.04765171 0.015302194 -0.037751112 0.036461778 -0.05229315 0.032660894 -0.023745336
-0.039420273 -0.008152774 -0.07815855 -0.0105754845 0.04886625 -0.05034335 -0.06912039 0.05217671
-0.032694224 0.0127085 -0.009420665 0.016323745 -0.0010625486 0.009343101 -0.011427818 -0.017461762
0.036675196 0.0043786406 0.01082332 0.028586376 -0.0006440348 -0.0027995624 0.058757164 -0.006999099
0.0030378385 -0.06891811 0.004100587 -0.024332631 0.00860993 -0.0012426426 0.03871066 0.031102344
-0.05780412 0.04704129 -0.06510373 -0.0063833366 -0.040304493 0.0025925376 -0.051673494 0.06545642
0.033498812 0.04184741 -0.033231996 -0.006829929 -0.003435117 -0.018758947 0.073345564 -0.03721959
-0.02190309 -0.014282979 0.03089618 0.056024607 0.056348797 0.043761823 0.021555474 -0.02416744
0.01582974 0.0660756 -0.022187814 0.05943342 0.07668048 -0.019588254 0.07581926 0.063088745
0.04881005 -0.0045623668 0.055784438 0.020263564 0.031825434 -0.032900933 0.0013116726 0.06861418
-0.03935601 0.009100729 -0.005705839 0.0010348078 -0.008873569 -0.0069562816 -0.013318662 -0.0109133655
0.054107495 0.041767128 0.015602334 -0.0074848547 0.013537611 0.009410331 -0.02863575 0.035463784
-0.02435393 0.096015505 0.016738318 0.053471126 0.02390348 0.070485644 -0.03356924 0.017431453
0.047758706 0.017056532 -0.048934393 -0.017392023 -0.026833363 -0.06438771 -0.023402339 0.0147465095
0.033923678 0.012775899 0.008963812 -0.045406565 -0.00047945202 -0.06418315 -0.019841999 0.032243926
-0.028668378 0.089518405 0.035162106 0.07117141 -0.025051825 0.04336946 -0.005489213 0.042052966
-0.0067668585 0.08435645 0.050281614 0.04303506 -0.057796203 0.015710687 -0.054477595 0.060961723
-0.03950886 0.08362796 0.082505666 -0.008717437 0.07255907 -0.024737637 -0.047874607 0.012660298
0.11913605 -0.059812866 -0.0760541 0.13085593 0.20198742 -0.18072188 0.04625101 -0.008377862
0.06012468 -0.016702661 0.024501003 0.096145995 0.15841846 0.26083934 -0.026054507 -0.06017857
0.058951896 0.059721563 0.032228526 0.12916121 0.14494626 0.20469514 -0.032789472 0.049785387
0.043591186 -0.039512046 0.06009344 0.05630169 0.064452894 -0.023555964 -0.039876588 0.048052028
0.007290432 -0.03543356 0.09272401 0.07588352 -0.02972585 -0.06067568 0.07923037 0.019421091
0.03388548 -0.022821438 0.030983923 -0.030903269 -0.0022450567 0.041099757 0.009701093 0.05463922
0.06951405 -0.0133032845 -0.067306 -0.10643776 -0.017421037 -0.044365276 0.03769862 -0.014094484
0.046633545 0.06558085 -0.029410444 -0.06961848 -0.013509292 0.06518288 0.05595962 -0.024045896

forward_pass.0.bias f4 [64]
00000000: 4b67 ff3c 4f45 a1bd 79ba 1e3d b1f9 72bd
00000010: f3e8 b83c 3982 933b 9cab 35bd d99a a73c
00000020: c001 deba 35af 6c3c d7a1 babd 038e 393d
00000030: 5883 c93c 2c24 80bd fce3 9d3d df15 86bc
00000040: d129 cbbc c9f0 263d 254d 66bd 47a6 b73c
00000050: 67d5 6a3d 8836 163d 62e2 353d 0293 8dbd
00000060: e22b cdbb 56ec 063d e6a2 3abb 3e3c 373d
00000070: d373 3a3d 8650 52bd d759 5c3c 2156 fcba
00000080: d021 503c 3811 b63c dbcb b6bd 4690 73bc
00000090: 64e6 8ebd 293c 843c e163 d1bc 0ef5 ecbc
000000a0: 28ea 273a 728d 5c3d 68b8 7ebd 2893 19ba
000000b0: e666 1ebd 9771 05bc 7022 c6bd 5c6d e63b
000000c0: f2a8 913d 1c0a 8e3d d3d0 15bd f0f3 4d3d
000000d0: e831 14bc a1e9 6b3d 7533 ca3d 3178 8d3d
000000e0: d202 dd3d 1bb7 97bc 482f 59bc 4b18 f33c
000000f0: 333d 19bd 951e 96bd d5aa 1c3d 4786 913d
0.031177184 -0.07874548 0.038752053 -0.059320156 0.022572016 0.0045016077 -0.044353113 0.02045958
-0.0016937777 0.0144460695 -0.091129 0.04530145 0.024598762 -0.06256899 0.077095 -0.01636785
-0.024800213 0.040756974 -0.056225915 0.022418154 0.057332423 0.0366731 0.04440535 -0.06912805
-0.0062613348 0.03294023 -0.0028478443 0.044735186 0.045520615 -0.051346324 0.013449154 -0.0019251743
0.012703374 0.022225007 -0.08925601 -0.01486594 -0.06977537 0.016141968 -0.025560321 -0.028925445
0.00064054364 0.05384583 -0.062187582 -0.0005858415 -0.03867235 -0.008144758 -0.09674537 0.0070320796
0.07112302 0.06935522 -0.036576103 0.050281465 -0.009045102 0.057595853 0.09873096 0.0690769
0.107915536 -0.018519929 -0.013255902 0.02967467 -0.03741188 -0.07330052 0.038248856 0.071056895

forward_pass.2.weight f4 [64, 64]
00000000: 9fdd c03d 0512 27be b0df 9a3d 287c 363d
00000010: 71ac f43d c33d 81bd 6d76 633d 9888 2dba
00000020: c730 84bc 1a58 9ebd 5d93 a6bd 9097 5cbb
00000030: 5d45 a53d 1efe b53d 0baf 8dbc ab71 4fbd
00000040: 2ed8 bbbd fedf 3d3d 34b9 983b a2bf acbd
00000050: e74c 00bd c0d4 123d ca02 adbd 0d4e aa3d
00000060: 465c a6bd 533e b8bd 10dd f53c bc7d bebb
00000070: 030e b93d b383 cb3d 5305 01be 705b e23c
00000080: e76e d23c 7756 43bd 6cf8 87bc 8248 8ebc
00000090: 5123 c8bd d232 423d 1708 ee3d a3cd a9bd
000000a0: 1291 d2bd 77bc 38bd ef8c f43c 1b6d bfbd
000000b0: 8d91 ab3b b258 993d 85a6 a43d 87f4 7ebd
000000c0: 05f6 68bd bc8a ec3c bd7e bb3d f5a0 f03d
000000d0: 4971 a63c d23d 743d 2532 7cbd 052b 0f3d
000000e0: cb1f bcbd e425 cbbc cd59 23bc b655 72bd
000000f0: f247 bbbd 5ae8 1b3d fb23 01bd 8ff3 003e
00000100: 309f 5b3c cfe7 e9bd 5a61 9bbd 240a 173e
00000110: f742 42bd 226c ed3b de3c 123c f009 96bd
00000120: 8120 333d 0aa6 e2bd be04 cfbc e987 18bd
00000130: 8141 1e3c 4744 903d 70d7 b63c 6d23 773d
00000140: 29e7 673d cf73 393d 2fa4 ac3d 6522 e73a
00000150: fb46 8bbd 9a9a c2bd afb7 28bc 9026 81bd
00000160: 7034 9bbd 834d d13d 2220 94bc 3e69 cebd
00000170: c1a0 963d 9aff 90bd 36c4 bbbd 7da7 7e3d
00000180: 7b95 b6bc 616f 393d 0e1f d73d 6391 f6bd
00000190: f1fc 85bd f0e0 98bd 7148 8c3d 8578 183d
000001a0: 2f5c 42bc 6f40 edbd 91be c1bd c7ca 87bd
000001b0: f611 a2bc 0a92 f4bd e7bd 1e3e e784 813d
000001c0: 20e3 dfbd a27b 6e3d b065 1fbd 4e84 1abd
000001d0: ffa1 a23d a76d 183d c10d 7cbd 58c8 d93c
000001e0: 4617 f6bc dac9 3d3c 9d82 633b 0871 edbd
000001f0: d7fd b3bb 3243 bc3d b9f5 e7bd 7ca4 093e
00000200: 0fae e53d 969f b0bc 7529 bcbd 32b8 40bc
00000210: 800a ce3c 382c b2bd 938e df3d 0a50 713d
00000220: d809 da3d 2eb1 813d bf24 1f3d 04a2 9bbc
00000230: 982e 80bc bc79 a0bd a847 b7bb f9f8 6d3d
00000240: 8f96 bd3c 10f5 373c d023 a6bc 19cc a0bd
00000250: d255 c8bd 67c2 b73c f957 a8bc 31ae 0ebd
00000260: 8711 433d 8f53 93bd 2142 d93c 3a91 c73c
00000270: 8309 7c3d a1f9 c43d c001 00be b89a 953d
00000280: 6a08 36bd 4c12 c2bd 97f5 5cbd c01b 65bc
00000290: 7057 f2bc 5c7d ba3c 7151 a1bd 199c 69bc
000002a0: 8720 f8bd 6e6c 503c 0c21 01bd 684b 06bd
000002b0: 427e 9a3b c370 fa3d 3b57 91bd 73e4 75bd
000002c0: f0b2 3b3d 1ae7 dd3d b0d4 973d f099 bcbd
000002d0: 1958 113d f16b ccbb 8536 d2bd ddb5 9cbd
000002e0: 5334 99bd 8729 f7bd 1c20 1d3d 86c0 a9bd
000002f0: 675b 5abd 38ee 353d ae24 49bd 949f f4bb
00000300: 177e c4bb 7c72 5dbd c77e 13bd 0a66 cbbd
00000310: 013a 6cbd 75c8 a2bd 2a37 843d f8f9 cc3a
00000320: 58bf 47bd 359c d2bd dc06 e8bc 553e 54bd
00000330: a30b 70bd 224e dabd c9a0 b33d cc59 91bd
00000340: a162 ddbc aa15 d5bd 77e9 64bd 5bdc 823d
00000350: 0943 ca3d 38b5 f4bd 07e5 c139 8de9 aabc
00000360: bbed 4abd 9a63 13bd b84f f23d aa7d 50bd
00000370: baf7 1e3d cbb0 a43d 3a79 47bd 501e 193d
00000380: 7f34 04bb d32d d5bd 419f f93d 5dde f93c
00000390: d7bd d3bd 43c4 00bd 1b92 8dbd 3218 73bd
000003a0: 874e ebbd 7f6f aa3d 2096 8d3d b0bc dcbd
000003b0: dfda 79bd ce47 fcbd 4f26 fb3d c2d8 0f3e
000003c0: 70da 87bd c3b5 f4bd 8e4e 813c e15e 84bd
000003d0: 1b30 ba3d 7394 c33d ab81 e2bd f08d e43d
000003e0: 24af 8dbd 1ba2 923d b7ea 083c 5d75 76bc
000003f0: bd9c bd3c 7d80 853d 3462 f63d c925 c03c
0.09417271 -0.16315468 0.07562196 0.044552 0.11946953 -0.06310608 0.05553286 -0.00066197803
-0.01613654 -0.07731648 -0.08133576 -0.0033659674 0.080698706 0.0888636 -0.017295381 -0.05064551
-0.091720924 0.046356194 0.00466075 -0.084349886 -0.03132334 0.035847425 -0.084477976 0.08315668
-0.081230685 -0.089962624 0.030012637 -0.0058133285 0.09035876 0.09937229 -0.12599687 0.027631491
0.025687648 -0.04768988 -0.016597949 -0.017368559 -0.09772361 0.047411747 0.11622637 -0.08291175
-0.10281576 -0.04510161 0.029852359 -0.09346982 0.005235857 0.074876204 0.080395736 -0.06224492
-0.056875248 0.028874747 0.09155033 0.1174945 0.02031769 0.05962927 -0.06157126 0.034953136
-0.091857515 -0.024798341 -0.009970141 -0.05916377 -0.09144582 0.038063385 -0.031528454 0.1259291
0.0134046525 -0.11421167 -0.07586928 0.14749962 -0.047427144 0.0072455565 0.008925645 -0.07326114
0.04373217 -0.11066826 -0.025270816 -0.03723899 0.009659172 0.07044273 0.022319525 0.06033652
0.056616936 0.04527646 0.08429753 0.0017634152 -0.06800648 -0.09502144 -0.0102977 -0.06306183
-0.07578361 0.10219862 -0.018081728 -0.10078667 0.0735488 -0.07080002 -0.09168284 0.062171448
-0.022288075 0.045272235 0.1050397 -0.12039449 -0.06542385 -0.074647784 0.068497546 0.03722431
-0.011862799 -0.11584555 -0.09460176 -0.066304736 -0.019783955 -0.11941917 0.1550213 0.06324177
-0.109319925 0.058223374 -0.038915336 -0.03772383 0.079410546 0.037213948 -0.061536554 0.02658479
-0.030040395 0.01158377 0.0034715303 -0.115938246 -0.0054929066 0.09192504 -0.11326165 0.13441652
0.1121484 -0.021560472 -0.09187595 -0.011762666 0.025151491 -0.0869984 0.10915866 0.05891422
0.10646409 0.063326225 0.038853403 -0.018998154 -0.015647218 -0.07835719 -0.005593259 0.058098767
0.023143081 0.011227861 -0.020280749 -0.078514285 -0.09781994 0.022431565 -0.020549761 -0.03483409
0.047624137 -0.07193672 0.02652079 0.024361242 0.06153251 0.096179254 -0.12500668 0.07304901
-0.044441618 -0.09476146 -0.05394515 -0.013983667 -0.02958271 0.022764854 -0.07876862 -0.014258408
-0.12115579 0.012721164 -0.031525657 -0.032786757 0.004714758 0.12228539 -0.07096716 -0.06003232
0.045824945 0.10835095 0.07413614 -0.09209049 0.035484407 -0.0062384536 -0.10264305 -0.07651875
-0.07480683 -0.120684676 0.0383607 -0.08288674 -0.053309824 0.044416636 -0.049107246 -0.0074653123
-0.0059964764 -0.05406426 -0.036009576 -0.09931572 -0.057672504 -0.079483904 0.06455834 0.0015638461
-0.048766464 -0.102837004 -0.028323583 -0.051817257 -0.058604848 -0.10659434 0.08770902 -0.070972055
-0.027024569 -0.10404523 -0.055886712 0.06389686 0.09876067 -0.11948627 0.00036982467 -0.020863319
-0.049543124 -0.03598366 0.118316114 -0.050901093 0.03881047 0.08041533 -0.048699595 0.037382424
-0.0020172892 -0.10409131 0.121885784 0.030501539 -0.103389435 -0.03143717 -0.06912633 -0.059349246
-0.11489587 0.083220474 0.069134 -0.10778177 -0.060999747 -0.12318383 0.12263166 0.1404753
-0.066334605 -0.11948731 0.015784528 -0.06463409 0.09091207 0.09549799 -0.110598885 0.11159885
-0.06918171 0.071598254 0.008356742 -0.01504263 0.023146028 0.06518648 0.120304495 0.023455517

forward_pass.2.bias f4 [64]
00000000: 1573 543d d9ac 71bc 2650 ad3d 0597 fa3b
00000010: b8d5 07be aa1a e1bd a036 e73d d687 4b3d
00000020: 05d1 a13d 9d8b afbd 5ce2 003e 2ec2 56bd
00000030: d2ba 033d 05a6 d13d 06e5 26bd 2c28 e3bc
00000040: 33c6 bebd 35e3 96bd aed2 cdbc 9be6 bbbd
00000050: f546 a0bd a819 2bbd d820 bfbd dbd0 063e
00000060: 20b1 303e 2158 57bd 3621 1f3d 83f0 303d
00000070: 32f8 28bd 6af4 d0bc 1df6 5a3c 53fa b5bd
00000080: d9ab 653c b674 bdbc 19fb 1f3d 64d2 313d
00000090: dd88 e3bd 4c78 033e ed00 353c f102 b33d
000000a0: 9e62 99bc f8c1 dcbd 10e6 15be bc23 11bd
000000b0: 42ec e83d 7da0 bb3d f9da 30bc f712 8bbc
000000c0: d97e 40bb 9a45 19bd 5774 efbd 52d1 8ebd
000000d0: 5a43 503c fbec 0bbd 7ec9 a7bd 7986 fd3c
000000e0: ec31 f53d 18d3 3f3d d565 aabd 2186 fe3c
000000f0: 1aaf aabd da7f 3a3c e91b 4cbd 3633 5f39
0.051867563 -0.014750683 0.08462553 0.0076473975 -0.13265121 -0.10991414 0.11289716 0.04969009
0.079011954 -0.08571551 0.12586349 -0.052431278 0.032160588 0.10236744 -0.040745758 -0.027729116
-0.09315147 -0.07367555 -0.025124874 -0.09174844 -0.07826034 -0.041772515 -0.09332436 0.1316561
0.17255068 -0.05257428 0.03885003 0.04319812 -0.041252322 -0.02550717 0.013364342 -0.08885636
0.014018022 -0.023126941 0.039057825 0.043413535 -0.11110089 0.12838858 0.011047584 0.087407954
-0.018723782 -0.10779184 -0.14638543 -0.03543447 0.113731876 0.0916147 -0.010794395 -0.016976817
-0.0029372482 -0.037419893 -0.11692112 -0.069735184 0.01271137 -0.03416155 -0.081927285 0.03094791
0.119724125 0.046832174 -0.08320204 0.031069817 -0.08334179 0.011383021 -0.049831305 0.00021286015

forward_pass.4.weight f4 [1, 64]
00000000: ba11 5d3e 62d4 623e 3099 593d 703f 9d3d
00000010: fb06 b9bd 412e 79bd 9f3d 99bd c403 053d
00000020: 1d8b 073f 6bcc b0bd 0e7d 6c3e dcb6 cbbd
00000030: b832 74bd 4048 59bc 1848 58be 52ff 93be
00000040: 8431 29be c440 82bd a298 34bd a84f d4bc
00000050: 6641 c03e db8e f6bc 03a8 473e 9d8b ab3e
00000060: e447 f1be f62f e4bd 774d bebc 67d8 b8bd
00000070: 8653 393e 78e4 d63a 2f7f 69be 9f1c f2bb
00000080: fb17 30be 51be b6be f738 793d 32bb e3bd
00000090: 96f2 c4bd 6e85 9dbe 6546 873e 6b55 86bd
000000a0: 9e75 f33d 20fc 03be 74e8 a7be 4ad8 063e
000000b0: 6e19 d93e 45f7 03be 3ffb cabd 0357 91be
000000c0: 7ba6 d8bd aba8 40be 0252 94be db1e 11be
000000d0: 22c3 e1bd 4e61 20be 7f39 c23d 4494 c4bd
000000e0: 55a3 89be 2022 d4bd f088 c73d c278 493e
000000f0: b92c 2abd d41b 833e 5e5e cabd 29fd e63d
0.21588793 0.2215133 0.053124607 0.07678115 -0.090345345 -0.060835127 -0.074824564 0.032474294
0.52946645 -0.0863274 0.2309458 -0.09946987 -0.05961868 -0.013261855 -0.21121252 -0.2890573
-0.16522795 -0.06360009 -0.044090874 -0.02591689 0.37549895 -0.030097416 0.19497685 0.33504954
-0.4712516 -0.1114196 -0.023230297 -0.090256505 0.18098268 0.0016394993 -0.22802423 -0.007388666
-0.17196648 -0.35692075 0.06084534 -0.11119689 -0.09616582 -0.3076586 0.26420894 -0.06559261
0.11887668 -0.12889147 -0.32794535 0.13168445 0.42402214 -0.12887295 -0.09911203 -0.28386697
-0.10578629 -0.18814342 -0.28968817 -0.14171927 -0.11023547 -0.15662119 0.09483623 -0.09598592
-0.26882425 -0.10358071 0.09742916 0.19674972 -0.041546557 0.2560717 -0.0988128 0.11278755
